checkpoints_jonny/alex_1_scratch/1_net_rank.pth (torch, 7127 bytes, 5 tensors)

model.0.weight f4 [32, 5, 1, 1]
-0.49026027 -0.2368073 -0.105535924 -0.47621247 -0.00077829463 0.03401385 0.18875355 0.39406413
-0.051000487 -0.57502985 -0.2264458 0.36078298 -0.5416166 -0.22143336 -0.12923686 -0.42639747
-0.3058118 -0.010652386 -0.5989341 0.579565 -0.12667237 0.2823407 -0.3646061 -0.2967243
-0.1877985 -0.27685505 -0.5834829 0.18407668 0.26510152 -0.16459791 -0.21429816 -0.45493287
0.32555848 -0.06557924 -0.3685228 0.4051796 0.26051167 -0.016229881 0.44672245 0.4341812
-0.3652831 0.38606173 -0.27606392 -0.105176255 -0.1838456 0.28262928 0.12052182 -0.22324027
-0.011297906 -0.20565805 -0.24807309 0.26442394 -0.29240364 -0.32534993 0.40627325 0.20187293
0.114905536 -0.18522224 -0.40210757 0.08291722 0.31378454 0.04971319 0.48219967 0.2961539
-0.47438997 0.44937882 -0.03784757 0.011870894 -0.04364858 -0.54673624 0.16728513 -0.29150915
0.08311522 -0.46300164 0.41060507 -0.18844447 0.430854 -0.2313618 -0.082640424 -0.11779338
0.24907877 0.23659146 0.4548124 -0.20216368 0.064633146 -0.056093697 -0.15427089 -0.03907585
0.21987556 -0.079174906 0.34985498 0.55576736 -0.0014568423 -0.42830545 -0.012258454 0.3518995
0.15129025 0.29559633 0.4711439 -0.35648516 -0.34426805 -0.13269076 -0.06667574 0.096778885
-0.17954655 0.0064323684 -0.4017161 0.05453118 -0.024766104 -0.31434536 -0.28544486 0.39325756
-0.5049658 -0.23205803 0.5135877 0.19514975 -0.41010177 0.097990334 0.0020608767 -0.13534285
0.36690238 0.32234585 0.4251123 -0.15310882 0.22355102 0.26479816 -0.348478 -0.2762618
0.17910711 -0.0123229865 -0.047107983 -0.21182598 -0.47253647 0.18292315 -0.3996859 0.18861175
-0.10566182 0.447601 0.36529183 -0.106593505 -0.40401235 0.31536695 -0.36551502 0.28010067
0.42260355 0.077923626 -0.29746062 -0.24030606 -0.22860555 -0.33710238 -0.3275247 0.15140049
-0.07134678 -0.3806012 0.2275559 0.020031065 -0.010834324 0.4658002 0.26216587 -0.07094352
00000000: 6503 fbbe 9d7d 72be 3823 d8bd 1fd2 f3be
00000010: 7806 4cba 1b52 0b3d 9c48 413e c6c2 c93e
00000020: e3e5 50bd 2835 13bf 68e1 67be 8cb8 b83e
00000030: 63a7 0abf 6dbf 62be ab56 04be c550 dabe
00000040: 5d93 9cbe 5887 2ebc bf53 19bf 5f5e 143f
00000050: 67b6 01be f68e 903e a7ad babe 3fec 97be
00000060: 404e 40be f2bf 8dbe 235f 15bf 997e 3c3e
00000070: 63bb 873e 5b8c 28be fa70 5bbe f6ec e8be
00000080: 9aaf a63e 694e 86bd 05af bcbe b373 cf3e
00000090: c961 853e 87f4 84bc ceb8 e43e 004d de3e
000000a0: 6306 bbbe e2a9 c53e 4058 8dbe a666 d7bd
000000b0: 0542 3cbe c9b4 903e 25d4 f63d 1999 64be
000000c0: da1a 39bc 0698 52be df06 7ebe 9362 873e
000000d0: eeb5 95be 4494 a6be 0c03 d03e c7b7 4e3e
000000e0: 9853 eb3d e6aa 3dbe 0be1 cdbe 81d0 a93d
000000f0: 5ea8 a03e 0fa0 4b3d e0e2 f63e 7ca1 973e
00000100: 3ee3 f2be fb14 e63e 0e06 1bbd 237e 423c
00000110: dac8 32bd e8f6 0bbf cb4c 2b3e b040 95be
00000120: 5038 aa3d 8d0e edbe d43a d23e 96f7 40be
00000130: e598 dc3e 1cea 6cbe 623f a9bd a83d f1bd
00000140: 810e 7f3e 0845 723e 2cdd e83e ff03 4fbe
00000150: 625e 843d 81c2 65bd 30f9 1dbe 000e 20bd
00000160: 0f27 613e 7426 a2bd 3120 b33e c546 0e3f
00000170: 84f3 beba da4a dbbe afd7 48bc 2c2c b43e
00000180: d5eb 1a3e 6758 973e c639 f13e 3985 b6be
00000190: e743 b0be 16e0 07be 4a8d 88bd 0234 c63d
000001a0: 0ddb 37be 9ec6 d23b bcad cdbe 165c 5f3d
000001b0: 49e2 cabc e0f1 a0be d425 92be 0e59 c93e
000001c0: 7045 01bf 9fa0 6dbe 7c7a 033f 56d5 473e
000001d0: dcf8 d1be 28af c83d c60f 073b 5197 0abe
000001e0: a1da bb3e 840a a53e 52a8 d93e 8fc8 1cbe
000001f0: 8fea 643e a093 873e b56b b2be 3072 8dbe
00000200: db67 373e 5ae6 49bc 4df4 40bd e9e8 58be
00000210: 4df0 f1be 3550 3b3e a1a3 ccbe 7023 413e
00000220: 3965 d8bd f52b e53e 8807 bb3e b24d dabd
00000230: b5da cebe c777 a13e c924 bbbe 5b69 8f3e
00000240: 7e5f d83e 6c96 9f3d c24c 98be cb12 76be
00000250: 9317 6abe af98 acbe 51b1 a7be bb08 1b3e
00000260: 431e 92bd 29de c2be 6a04 693e 3018 a43c
00000270: 7382 31bc 5d7d ee3e 9b3a 863e d64a 91bd

model.0.bias f4 [32]
0.4428947 -0.31805372 -0.23379727 0.15935603 0.50339705 0.42381233 -0.19820833 -0.15946111
0.20887204 0.50183827 -0.39562094 0.3924034 0.1498675 -0.11794575 0.2770875 -0.25078058
-0.2117767 0.35173628 0.18781056 0.062643014 0.13539675 0.19342501 0.08842329 -0.104895465
-0.33523446 -0.21524471 0.35164407 0.13953063 -0.15604801 -0.34355846 0.10927512 0.039174356
00000000: 18c3 e23e f0d7 a2be 8d68 6fbe 3a2e 233e
00000010: a1de 003f eefd d83e 20f7 4abe c649 23be
00000020: 8de2 553e 7978 003f d48e cabe 19e9 c83e
00000030: de76 193e 8b8d f1bd 6ade 8d3e 5066 80be
00000040: fedb 58be c716 b43e 6951 403e fb4a 803d
00000050: 72a5 0a3e 3511 463e 4517 b53d 6fd3 d6bd
00000060: daa3 abbe 1c69 5cbe b10a b43e 1ee1 0e3e
00000070: 0dcb 1fbe e5e6 afbe a2cb df3d 4a75 203d

model.2.weight f4 [32, 32, 1, 1]
-0.16993368 -0.029762672 -0.13377102 -0.1754158 -0.10394485 0.14872944 -0.001880418 0.10769482
0.01628811 0.13073933 0.07042975 -0.14307548 0.021138666 0.14981435 -0.07749389 0.0633675
-0.16029944 0.086576626 0.0969708 0.03343715 -0.015372684 -0.016413819 -0.087289825 -0.02117015
-0.13005717 -0.0824897 0.18349044 0.008338218 -0.03882699 -0.043771554 -0.25498122 -0.073807135
0.016793571 -0.060911506 0.0607296 -0.028629333 0.0016504771 0.01238384 0.11484177 -0.057053342
-0.059673205 0.03119115 -0.088961214 -0.003415181 -0.010675219 0.20420504 -0.032639496 0.07081199
0.005538409 0.043321695 -0.05679514 0.020547526 -0.112438254 -0.12453495 -0.15332927 -0.0010187001
-0.07135587 0.17256902 -0.037808564 -0.0917379 0.062964685 -0.08790091 0.02406856 -0.08903933
0.04213177 0.0696675 -0.064588845 -0.04383484 0.12790865 -0.15564935 0.0055279997 0.04000668
0.16963813 -0.0069357916 -0.12408324 0.0025775598 0.10976571 0.09708846 0.12218284 -0.10446769
0.15295622 -0.18197341 0.11742103 0.015377747 0.018389873 -0.18566243 0.081999056 0.069100134
-0.102893904 0.08714671 0.084467605 -0.0018615655 -0.0031868052 0.012304329 -0.07726062 -0.2238044
0.037085734 -0.10492627 -0.20755555 0.22264287 0.020478686 -0.068219766 0.00789983 -0.082604446
0.0972503 -0.033857338 0.16753104 0.062829375 -0.29494566 -0.15169823 -0.015756616 0.03545785
0.07390881 -0.041185092 -0.006884394 -0.110791825 0.12738448 -0.038156204 0.18869546 0.04706212
0.032505352 -0.22161746 -0.035383843 -0.057715278 0.17160432 -0.123413935 0.12072798 -0.28787315
0.019784948 -0.007995489 -0.0098894965 -0.27302885 -0.09244891 0.11959615 -0.13516803 -0.1216526
-0.036861718 0.1708009 0.09236784 -0.1525795 0.009886221 -0.033120267 0.08672633 -0.11287728
0.05506227 0.10087873 -0.004056474 0.18922016 -0.07451441 0.19520634 -0.088305555 0.0188314
0.08168053 -0.054350443 0.07519579 0.19026941 0.06759065 0.015244422 0.014398578 0.19954729
0.12427742 0.043592006 0.051482625 -0.026257811 0.14116153 0.055492837 0.07943014 0.06629301
0.13691701 -0.08048829 0.103177376 -0.09095269 -0.28513366 -0.18921477 0.018371467 0.09375807
0.036713228 -0.02220825 0.0944481 -0.19631197 0.02202717 -0.16733171 0.01557621 0.08952059
-0.017838504 -0.06775933 -0.15565236 -0.16629632 -0.08842927 -0.1510151 0.29935002 -0.025082901
0.26327148 -0.00853773 -0.035538685 0.28369367 -0.102993906 -0.05093326 -0.09036342 0.045169502
0.15713254 -0.10484884 0.1944987 0.0604771 -0.07484466 -0.11066062 0.10188863 -0.14939876
0.044577025 0.16788699 -0.046398774 0.023233598 0.0935125 -0.21799621 0.02650921 -0.03668951
0.1494016 -0.18401922 -0.036465507 0.031386342 0.008776474 0.023677576 0.22595517 -0.13543811
0.15025261 -0.09358191 0.11013583 0.22944425 0.112575434 -0.059624113 0.08208633 0.19961017
-0.17899777 0.058646057 0.12297336 -0.004998125 0.077452384 -0.18633558 0.23846461 -0.1850466
-0.13536607 0.1775629 0.09044585 -0.21050899 -0.17073837 0.08368596 -0.06929735 0.042449526
-0.105837025 -0.13560559 -0.08876484 0.09816635 0.21084867 0.068669625 0.24884231 -0.23824346
00000000: 1803 2ebe d9d0 f3bc 45fb 08be 33a0 33be
00000010: 0ae1 d4bd 884c 183e 5c78 f6ba 1a8f dc3d
00000020: a46e 853c 88e0 053e 793d 903d 6182 12be
00000030: ff2a ad3c ef68 193e 1eb5 9ebd d2c6 813d
00000040: 8925 24be 164f b13d a098 c63d 65f5 083d
00000050: b6dd 7bbc 4676 86bc 02c5 b2bd 066d adbc
00000060: b52d 05be 5cf0 a8bd ebe4 3b3e 059d 083c
00000070: 0d09 1fbd cd49 33bd e68c 82be 3228 97bd
00000080: ac92 893c 587e 79bd 9abf 783d 1088 eabc
00000090: d254 d83a 97e5 4a3c 2932 eb3d c4b0 69bd
000000a0: e46b 74bd 9584 ff3c 4c31 b6bd 3bd1 5fbb
000000b0: 1de7 2ebc 201b 513e feb0 05bd e005 913d
000000c0: 8b7b b53b 1772 313d 05a2 68bd 4953 a83c
000000d0: 0746 e6bd 2e0c ffbd 5902 1dbe e785 85ba
000000e0: 0723 92bd efb5 303e 27dd 1abd 15e1 bbbd
000000f0: a1f3 803d 6405 b4bd 6e2b c53c 415a b6bd
00000100: 5d92 2c3d d6ad 8e3d 2847 84bd 298c 33bd
00000110: 7cfa 023e 8b62 1fbe 3924 b53b 0bde 233d
00000120: 9eb5 2d3e a345 e3bb 5b1f febd 47ec 283b
00000130: d8cc e03d 51d6 c63d ff3a fa3d 28f3 d5bd
00000140: 8ea0 1c3e 3d57 3abe 707a f03d f2f2 7b3c
00000150: 5ca6 963c 4b1e 3ebe 1fef a73d 5f84 8d3d
00000160: 0aba d2bd f979 b23d 5afd ac3d c6ff f3ba
00000170: b8d9 50bb 1998 493c d13a 9ebd fb2c 65be
00000180: 36e7 173d 96e3 d6bd 7189 54be 7efc 633e
00000190: ebc2 a73c ceb6 8bbd 4a6e 013c 852c a9bd
000001a0: 2a2b c73d fead 0abd 428d 2b3e b0ac 803d
000001b0: 1e03 97be c856 1bbe 0514 81bc 403c 113d
000001c0: 815d 973d b3b1 28bd 7c96 e1bb d3e6 e2bd
000001d0: 1471 023e ae49 1cbd 6239 413e 36c4 403d
000001e0: 5524 053d b0ef 62be a6ee 10bd db66 6cbd
000001f0: 0bb9 2f3e 72c0 fcbd 3b40 f73d 1c64 93be
00000200: 0b14 a23c 83ff 02bc 8e07 22bc 70ca 8bbe
00000210: db55 bdbd d4ee f43d 7d69 0abe 0025 f9bd
00000220: 50fc 16bd 6ee6 2e3e 5a2b bd3d cd3d 1cbe
00000230: d1f9 213c 1ea9 07bd 939d b13d 342c e7bd
00000240: fa88 613d 8299 ce3d 2cec 84bb eec2 413e
00000250: 039b 98bd 2ce4 473e 8bd9 b4bd 4f44 9a3c
00000260: 1f48 a73d 929e 5ebd 4000 9a3d fcd5 423e
00000270: f76c 8a3d bdc3 793c 03e8 6b3c 2056 4c3e
00000280: 2985 fe3d 888d 323d 72df 523d 9f1a d7bc
00000290: a68c 103e 754c 633d 45ac a23d a1c4 873d
000002a0: f933 0c3e 0bd7 a4bd a94e d33d 6745 babd
000002b0: 0afd 91be 84c1 41be c27f 963c 3b04 c03d
000002c0: 9c60 163d 13ee b5bc 016e c13d 0106 49be
000002d0: 5372 b43c 0159 2bbe 5c33 7f3c 9256 b73d
000002e0: 0e22 92bc 67c5 8abd 5563 1fbe 9549 2abe
000002f0: 681a b5bd b4a3 1abe 6844 993e a87a cdbc
00000300: 85cb 863e d6e1 0bbc 0391 11bd 4c40 913e
00000310: 78ee d2bd 659f 50bd 7510 b9bd a803 393d
00000320: 5ae7 203e fdba d6bd ab2a 473e d6b6 773d
00000330: 2848 99bd 09a2 e2bd fcaa d03d fdfb 18be
00000340: 6696 363d 91ea 2b3e a40c 3ebd 6354 be3c
00000350: 7b83 bf3d 663a 5fbe d829 d93c bd47 16bd
00000360: bcfc 183e 896f 3cbe db5c 15bd f78e 003d
00000370: 33cb 0f3c 7af7 c13c cb60 673e 4ab0 0abe
00000380: d2db 193e dfa7 bfbd e58e e13d 6ff3 6a3e
00000390: f38d e63d 6a38 74bd e11c a83d 9c66 4c3e
000003a0: 314b 37be d936 703d 75d9 fb3d 50c7 a3bb
000003b0: 5b9f 9e3d c1ce 3ebe 1130 743e db7c 3dbe
000003c0: 679d 0abe 0dd3 353e ac3b b93d ab8f 57be
000003d0: 0ad6 2ebe 8b63 ab3d c5eb 8dbd 8edf 2d3d
000003e0: 15c1 d8bd 31dc 0abe 57ca b5bd 700b c93d
000003f0: b7e8 573e a9a2 8c3d 85d0 7e3e 18f6 73be

model.2.bias f4 [32]
0.16250141 -0.15012887 -0.10875567 0.21508978 0.02968238 0.21662238 0.04896251 0.006640506
0.041361585 0.18864244 -0.097921185 -0.18073359 0.006049133 0.0013537153 0.11408908 0.16576147
0.14851935 -0.14658447 0.0025526066 0.042362522 0.08557159 0.17956199 -0.011241102 -0.111283556
0.16303231 -0.030098509 0.17701669 0.01650867 0.15375808 -0.005137652 -0.14353919 0.18359514
00000000: c566 263e 62bb 19be 4bbb debd 7f40 5c3e
00000010: 7628 f33c 42d2 5d3e ea8c 483d 9a98 d93b
00000020: c46a 293d 7c2b 413e e78a c8bd 3a12 39be
00000030: ce37 c63b 266f b13a 89a7 e93d 60bd 293e
00000040: 7515 183e 3d1a 16be a249 273b 5384 2d3d
00000050: 2840 af3d 19df 373e 992c 38bc a2e8 e3bd
00000060: f1f1 263e 2691 f6bc dd43 353e 313d 873c
00000070: c272 1d3e c059 a8bb f0fb 12be 5d00 3c3e

model.4.weight f4 [1, 32, 1, 1]
0.13872723 0.1282996 -0.13811895 -0.08898689 0.24623191 -0.21907957 -0.09511502 -0.19292556
0.098887645 -0.20678619 0.25850636 -0.11768764 -0.16079813 0.24084944 -0.114063375 -0.17950726
-0.16025452 -0.18382385 -0.2200599 0.21716751 0.22164673 0.23824854 0.19245434 -0.18007475
0.034091502 0.19054936 0.20883267 0.13916378 -0.27840903 -0.15484565 0.19112015 -0.13611835
00000000: 830e 0e3e f860 033e 0e6f 0dbe c23e b6bd
00000010: 3824 7c3e 6556 60be aacb c2bd 478e 45be
00000020: 9b85 ca3d c2bf 53be f25a 843e 3806 f1bd
00000030: 44a8 24be 3ca1 763e 0f9a e9bd c0d0 37be
00000040: c319 24be 523c 3cbe 6257 61be 2961 5e3e
00000050: 5cf7 623e 6df7 733e c012 453e 8465 38be
00000060: 88a3 0b3d 5f1f 433e 3bd8 553e f380 0e3e
00000070: a18b 8ebe dc8f 1ebe 00b5 433e 9c62 0bbe
