checkpoints_jonny/alex_1_scratch/3_net_rank.pth (torch, 7127 bytes, 5 tensors)

model.0.weight f4 [32, 5, 1, 1]
0	0xbf0ea140	-0.557148
1	0xbe984d3c	-0.29746425
2	0xbd907c38	-0.07054943
3	0xbf07ad7b	-0.52999085
4	0xbba79f74	-0.005115444
5	0x3d346603	0.0440426
6	0x3e69deaf	0.22838853
7	0x3eb11074	0.34582865
8	0xbd0c6bd9	-0.03428254
9	0xbf12233a	-0.57085
10	0xbe6aebf7	-0.22941576
11	0x3eaa1b69	0.33224037
12	0xbefef4da	-0.49796182
13	0xbe71e6ee	-0.23623249
14	0xbe143c82	-0.14476207
15	0xbef5cbb0	-0.48006964
16	0xbeb9a555	-0.3625895
17	0x3ce7dccf	0.028303532
18	0xbf272d53	-0.65303534
19	0x3f11d085	0.569588
20	0xbe56cb27	-0.20975934
21	0x3e5d3347	0.21601592
22	0xbea8e999	-0.3299072
23	0xbeb13107	-0.34607717
24	0xbe4bf612	-0.19918087
25	0xbe9f06e3	-0.31059942
26	0xbf1e5397	-0.618463
27	0x3e2b509e	0.16729972
28	0x3e84e7f7	0.25958225
29	0xbe6e0fd4	-0.23248225
30	0xbe5266b4	-0.2054699
31	0xbed6ab80	-0.4192772
32	0x3e8fd833	0.28094634
33	0xbd4d6739	-0.05014727
34	0xbebd5bf4	-0.36984217
35	0x3efdc99e	0.49567884
36	0x3eb665ba	0.35624486
37	0xbaed83e6	-0.0018120974
38	0x3f028c2d	0.5099514
39	0x3f05a4eb	0.5220477
40	0xbee25e16	-0.44212407
41	0x3ea116b4	0.31462634
42	0xbe78509b	-0.24249499
43	0xbde7ae89	-0.11312587
44	0xbe4b2327	-0.19837628
45	0x3e768a31	0.24076153
46	0x3d91e622	0.071239725
47	0xbe7966aa	-0.2435557
48	0xbca432b3	-0.020043707
49	0xbe809a34	-0.25117648
50	0xbe732590	-0.23744798
51	0x3e7e9372	0.24860933
52	0xbe838cf4	-0.25693476
53	0xbea6a29e	-0.32545942
54	0x3ecd2a07	0.40071127
55	0x3e3b6fa6	0.18304309
56	0x3d9cb052	0.07650818
57	0xbe12e355	-0.14344533
58	0xbeda34cd	-0.4261841
59	0x3da0a0de	0.07843183
60	0x3e8d8a85	0.27644745
61	0x3c92ede2	0.017935697
62	0x3ee9e6eb	0.4568399
63	0x3e92b27f	0.28651807
64	0xbf0832de	-0.5320262
65	0x3ee527c9	0.44756916
66	0xbb74bb58	-0.003734311
67	0xbd0b3eae	-0.033995323
68	0xbd257f30	-0.0404045
69	0xbf0bc151	-0.5459185
70	0x3e1c87b2	0.15286139
71	0xbea73b87	-0.32662603
72	0x3e00e230	0.12586284
73	0xbef603e1	-0.48049834
74	0x3ed1bb0e	0.40963024
75	0xbe3035ca	-0.17208019
76	0x3ed279b5	0.4110848
77	0xbe4346e9	-0.19070019
78	0xbdabcb89	-0.083884306
79	0xbe041d12	-0.12901714
80	0x3e8b1174	0.27161753
81	0x3e918e11	0.284287
82	0x3ed8cdea	0.423446
83	0xbe48aa4c	-0.19596213
84	0x3e040aa0	0.12894678
85	0xbde59a84	-0.11211112
86	0xbe70df39	-0.23522653
87	0xbd80dfa6	-0.062926576
88	0x3e52b71b	0.20577662
89	0xbe0652d8	-0.1311754
90	0x3e9f872f	0.31157824
91	0x3f02a44a	0.51031935
92	0x3cef8098	0.029236123
93	0xbef3c79f	-0.47613236
94	0xbc9102d4	-0.017701544
95	0x3ea45aae	0.32100433
96	0x3e07898a	0.1323606
97	0x3e88b850	0.2670312
98	0x3eee86ab	0.46587119
99	0xbec533ed	-0.3851618
100	0xbec7ab9f	-0.38998124
101	0xbe604221	-0.21900226
102	0xbd9f2f37	-0.077726774
103	0x3dc20e8b	0.0947543
104	0xbe8cc15b	-0.2749127
105	0xbccf5a95	-0.025311748
106	0xbef0d6d6	-0.47038907
107	0x3d51947c	0.051166996
108	0xbc86941d	-0.016428048
109	0xbecc42f1	-0.39894822
110	0xbe91327e	-0.28358835
111	0x3ebdb8b4	0.3705498
112	0xbeeba776	-0.460262
113	0xbe67df20	-0.22643709
114	0x3f05eea0	0.5231724
115	0x3e7403af	0.2382953
116	0xbeb8d378	-0.36098838
117	0x3d832a5d	0.064045645
118	0x3d1ebb91	0.038753096
119	0xbe04aba3	-0.12956099
120	0x3edc7e07	0.430649
121	0x3ed00127	0.4062588
122	0x3eb2f60e	0.3495335
123	0xbdbea6a3	-0.09309127
124	0x3e8ea2c8	0.27858567
125	0x3e872f60	0.26403332
126	0xbe9ec0cf	-0.31006476
127	0xbea3e81f	-0.32013032
128	0x3e3c0a45	0.18363293
129	0xbbe79de5	-0.007068383
130	0xbdbbda29	-0.0917247
131	0xbe85389d	-0.26019755
132	0xbefd0f65	-0.49425808
133	0x3e310700	0.17287827
134	0xbef17fbd	-0.4716777
135	0x3e269340	0.16267109
136	0xbdf48ce5	-0.11940936
137	0x3ed83acf	0.42232367
138	0x3ebb16b8	0.3654077
139	0xbe0e01d2	-0.13867882
140	0xbeb614df	-0.35562798
141	0x3eaf460b	0.34233126
142	0xbea25caf	-0.31711337
143	0x3e9e1fd4	0.30883658
144	0x3eecd3ae	0.4625525
145	0x3e20c273	0.15699176
146	0xbe5a8df8	-0.2134322
147	0xbe7c412e	-0.24634239
148	0xbe4527e2	-0.19253495
149	0xbea161f7	-0.31520054
150	0xbecc4e74	-0.39903605
151	0x3db604c7	0.0888763
152	0xbd036c33	-0.03208561
153	0xbeea8b72	-0.45809513
154	0x3e5a66e7	0.21328317
155	0xbbba18ba	-0.005679217
156	0xbc9d4498	-0.019197747
157	0x3edd5509	0.4322894
158	0x3e864dc2	0.262312
159	0xbdb28b6b	-0.08717998

model.0.bias f4 [32]
0	0x3ee2cd68	0.44297338
1	0xbea666fc	-0.32500446
2	0xbe7136a6	-0.23556003
3	0x3e221119	0.15826835
4	0x3f078a53	0.5294544
5	0x3ed65a6b	0.41865858
6	0xbe56989f	-0.20956658
7	0xbdf0755e	-0.11741136
8	0x3e8078b6	0.25092095
9	0x3f04d06b	0.5188052
10	0xbecbbf18	-0.3979423
11	0x3ecc0813	0.3984991
12	0x3e1ef1e8	0.15521967
13	0xbdfd3f84	-0.1236563
14	0x3e91da8e	0.28487056
15	0xbe8886de	-0.26665395
16	0xbe62936a	-0.22126547
17	0x3ebdc428	0.37063718
18	0x3e409643	0.1880732
19	0x3da71855	0.08158938
20	0x3e0f0637	0.13967215
21	0x3e4f9cc7	0.2027465
22	0x3dd7854b	0.105234705
23	0xbde864eb	-0.113473736
24	0xbea212d8	-0.31655002
25	0xbe68a4fa	-0.22719184
26	0x3eb1482a	0.3462537
27	0x3e14f2f4	0.14545804
28	0xbdf26fab	-0.11837705
29	0xbeba49b5	-0.3638436
30	0x3ddb7bfa	0.10717006
31	0x3d5fdf96	0.054656588

model.2.weight f4 [32, 32, 1, 1]
0	0xbe2acde1	-0.16680099
1	0xbd116be5	-0.035503287
2	0xbe0809de	-0.13285014
3	0xbe406567	-0.18788682
4	0xbdb5e7f2	-0.08882131
5	0x3e2aa806	0.16665658
6	0xbb151878	-0.002275018
7	0x3dbf1a57	0.09331196
8	0x3d1d15e7	0.038350966
9	0x3e16e482	0.14735606
10	0x3d968ece	0.073514566
11	0xbe0bebbe	-0.13664147
12	0x3d082cd8	0.03324589
13	0x3e178005	0.1479493
14	0xbda043dc	-0.07825443
15	0x3d6ff6f4	0.058585122
16	0xbe3b1424	-0.18269402
17	0x3dce1f86	0.10064606
18	0x3dc74ab7	0.097310476
19	0x3d036bd5	0.03208526
20	0x3d3dc28a	0.046328105
21	0x3d590da0	0.05299151
22	0xbda8c44c	-0.08240566
23	0xbd30c0ca	-0.043152608
24	0xbe12722e	-0.14301369
25	0xbdec7c6a	-0.115471676
26	0x3e5c9846	0.21542463
27	0x3c149899	0.009069585
28	0xbd10da97	-0.035364714
29	0xbd421fa3	-0.047393452
30	0xbe8a6721	-0.27031806
31	0xbd9ced18	-0.076624095
32	0xbc9ea999	-0.01936798
33	0xbd752cae	-0.059857063
34	0x3d96d2fc	0.07364461
35	0xbd471fbc	-0.04861425
36	0xbc1aa6fc	-0.009439226
37	0x3c7d5f1e	0.015464572
38	0x3de3c145	0.111208476
39	0xbd4e489c	-0.050362214
40	0xbd797cab	-0.06090991
41	0x3cfdd8b7	0.030987127
42	0xbd61786f	-0.055046495
43	0xbc90046f	-0.01758024
44	0xbac55a94	-0.0015056902
45	0x3e517aac	0.20456952
46	0xbd4cb77b	-0.049979668
47	0x3dac43c6	0.08411364
48	0x3c25f190	0.010128394
49	0x3d2b3451	0.04179794
50	0xbd8ac7c5	-0.06776384
51	0x3c9fc44b	0.01950278
52	0xbd82a103	-0.06378367
53	0xbd987b36	-0.074453756
54	0xbe169da4	-0.14708573
55	0xbc866889	-0.016407268
56	0xbce170a3	-0.02751953
57	0x3e1f8056	0.155763
58	0xbc8271dc	-0.015923433
59	0xbdbe16ba	-0.092816785
60	0x3daed74c	0.08537158
61	0xbdaeecae	-0.08541237
62	0x3b05d077	0.0020418444
63	0xbdbd71fa	-0.09250255
64	0x3ddfbe9f	0.1092503
65	0x3d81dbe8	0.06340772
66	0xbdb41b0d	-0.08794222
67	0xbc8c00b0	-0.017090172
68	0x3e246b20	0.1605649
69	0xbe11be83	-0.1423283
70	0x3bbbba4a	0.0057289945
71	0x3ce3a8ce	0.027790453
72	0x3e47ebf0	0.19523597
73	0x3c37da55	0.011221488
74	0xbe221104	-0.15826803
75	0x3cf4fc48	0.029905453
76	0x3dcd8dd1	0.10036815
77	0x3dbf8a47	0.09352546
78	0x3e1793bd	0.14802451
79	0xbe06dee4	-0.13170964
80	0x3e0eb3a3	0.13935713
81	0xbe294e28	-0.1653372
82	0x3e0f6de5	0.14006765
83	0x3c786290	0.015160218
84	0xbc7ee5e6	-0.015557742
85	0xbe5c7147	-0.21527587
86	0x3da5037c	0.08057305
87	0x3d976bab	0.07393583
88	0xbe11f8e8	-0.14255106
89	0x3daca391	0.08429635
90	0x3d9d90f7	0.076936655
91	0x3a48a44f	0.00076538784
92	0xbcc07296	-0.023492139
93	0x3b8b0206	0.0042421846
94	0xbd445580	-0.0479331
95	0xbe6383fc	-0.22218317
96	0x3daba631	0.08381308
97	0xbdd2e360	-0.102972746
98	0xbe5d12da	-0.21589223
99	0x3e7c903d	0.24664398
100	0x3d2437fc	0.040092453
101	0xbd8012de	-0.06253599
102	0x3ca31302	0.019906525
103	0xbdf2d0f4	-0.11856261
104	0x3de40f20	0.11135697
105	0xbce470bb	-0.027885785
106	0x3e02c5f6	0.12770829
107	0x3da3a760	0.079909086
108	0xbea4371a	-0.3207329
109	0xbe179e89	-0.1480657
110	0x3b401181	0.0029307308
111	0x3cb31b6c	0.021863662
112	0x3d67ff48	0.05663994
113	0xbd10480b	-0.035224956
114	0x3bf66b7f	0.0075201388
115	0xbe05d07c	-0.13067812
116	0x3dd942c3	0.10608437
117	0xbd74e072	-0.05978436
118	0x3e3982b4	0.18116266
119	0x3d6fbe95	0.058531363
120	0xbce108b0	-0.027469963
121	0xbe6dbb9c	-0.23216099
122	0xbd36f6de	-0.044669025
123	0xbd92c3b7	-0.07166236
124	0x3e09cff1	0.1345823
125	0xbdf5ad08	-0.11995894
126	0x3e182da0	0.14861155
127	0xbe9b50d8	-0.30335116
128	0x3ca14336	0.019685369
129	0x3ad04f7a	0.0015892826
130	0xbaf7bc99	-0.0018900811
131	0xbe99f166	-0.30066985
132	0xbda9d913	-0.08293357
133	0x3e09f1fb	0.13471214
134	0xbdf61f4d	-0.12017689
135	0xbe178c47	-0.14799605
136	0xbc8f2504	-0.017473705
137	0x3e39ea68	0.18155825
138	0x3dc71872	0.097214594
139	0xbe1f07c8	-0.15530312
140	0x3cbb1ae6	0.022839975
141	0xbc75e999	-0.015009307
142	0x3d935be8	0.07195264
143	0xbddfeb11	-0.10933507
144	0x3d22489f	0.039620038
145	0x3ddf5cf6	0.10906403
146	0xbc2a0097	-0.010376117
147	0x3e40f399	0.18842925
148	0xbc4470b2	-0.011989759
149	0x3e887b2c	0.26656473
150	0xbdd84fd3	-0.105621
151	0x3c2fd9c4	0.010733072
152	0x3d940762	0.07227971
153	0xbda9ca18	-0.082904994
154	0x3dda1a99	0.10649604
155	0x3e41036e	0.18848965
156	0x3d4941d2	0.049135037
157	0x3cba3432	0.022729967
158	0xbc408a31	-0.011751697
159	0x3e487e90	0.1957953
160	0x3e2fe1af	0.17175935
161	0x3d40a1a3	0.04702915
162	0x3d3aa6e2	0.045569308
163	0xbb044c7c	-0.002018719
164	0x3e248ca1	0.1606927
165	0x3d7598f5	0.059960324
166	0x3dbf33d5	0.09336058
167	0x3cd9952b	0.026560387
168	0x3e1b4a04	0.15164953
169	0xbd9b28a0	-0.07576108
170	0x3d82e516	0.06391351
171	0xbd9812f8	-0.07425493
172	0xbea04f69	-0.31310585
173	0xbe3caff0	-0.1842649
174	0x3d166c71	0.03672451
175	0x3da7b2c9	0.081883974
176	0x3ca40d37	0.020025833
177	0xbc9254e1	-0.017862739
178	0x3ddf7ca5	0.10912446
179	0xbe625ed7	-0.22106491
180	0x3aa76a1c	0.0012772712
181	0xbe40482d	-0.18777533
182	0x3bf20ba6	0.0073866425
183	0x3dd1c1d1	0.10242046
184	0xbda05c19	-0.07830066
185	0xbd9f6b1f	-0.077841036
186	0xbe29a240	-0.165658
187	0xbe3ca969	-0.18424
188	0xbe0248c5	-0.12723072
189	0xbe14fd75	-0.14549811
190	0x3ea7c1bf	0.32765004
191	0xbd3a3f9c	-0.04547082
192	0x3e9df4e1	0.3085089
193	0xbc3e7a2f	-0.0116258105
194	0xbd594ed9	-0.05305371
195	0x3e9d4807	0.30719015
196	0xbda8557b	-0.08219429
197	0xbd207057	-0.039169636
198	0xbdac78db	-0.08421489
199	0x3ca3c4c8	0.019991294
200	0x3e2e2edc	0.17010063
201	0xbdbfe57e	-0.09369944
202	0x3e1b886e	0.15188763
203	0x3da1c8bf	0.078996174
204	0xbdb8f9de	-0.090320334
205	0xbde3fe14	-0.11132446
206	0x3df8e437	0.121529035
207	0xbe2e0e85	-0.16997726
208	0x3cb1d53f	0.021708129
209	0x3e39220a	0.18079391
210	0xbd05f873	-0.032707643
211	0x3c9c3cda	0.019071985
212	0x3d942af0	0.07234752
213	0xbe77dfc7	-0.24206458
214	0x3ca4cc7d	0.020117039
215	0xbcf27563	-0.02959699
216	0x3db4a336	0.088201925
217	0xbe492ef3	-0.19646816
218	0xbd29a2a2	-0.041414864
219	0x3cfe058e	0.031008508
220	0xbcbcfd72	-0.02307007
221	0x3ca3636d	0.01994487
222	0x3e817374	0.25283396
223	0xbe0a07d6	-0.13479552
224	0x3e435815	0.1907657
225	0xbdcac972	-0.09901704
226	0x3db5f310	0.08884251
227	0x3e8081f6	0.25099152
228	0x3e02cb63	0.12772898
229	0xbd5034a2	-0.050831445
230	0x3daac829	0.08338959
231	0x3e413307	0.18867122
232	0xbe319ae2	-0.1734424
233	0x3d8c4fe2	0.06851174
234	0x3da8be13	0.08239379
235	0x3c38e837	0.011285833
236	0x3d8e6a7c	0.06953904
237	0xbe4214de	-0.18953273
238	0x3e83a9bb	0.25715432
239	0xbe53de63	-0.20690303
240	0xbe1e6e97	-0.15471874
241	0x3e4281af	0.18994783
242	0x3dd18d01	0.102319725
243	0xbe51a2cc	-0.20472258
244	0xbe51157e	-0.20418355
245	0x3d41c27c	0.047304615
246	0xbd9a5d74	-0.07537356
247	0x3d41e615	0.047338564
248	0xbe2554b6	-0.16145596
249	0xbe1101e0	-0.14160872
250	0xbdc9f9f0	-0.09862125
251	0x3dd7f0ca	0.10543974
252	0x3e3eebce	0.1864464
253	0x3d797d91	0.060910765
254	0x3e8bc922	0.2730189
255	0xbe69d912	-0.22836712

model.2.bias f4 [32]
0	0x3e342fe7	0.17596398
1	0xbe1ef59d	-0.15523382
2	0xbdb61f66	-0.088927075
3	0x3e65c74d	0.22439308
4	0x3d0f8ced	0.035046507
5	0x3e65fe06	0.22460184
6	0x3d825907	0.06364637
7	0x3ca98e11	0.020697625
8	0x3d3182e1	0.043337706
9	0x3e4eff2c	0.20214528
10	0xbdbcf273	-0.09225931
11	0xbe30d938	-0.17270362
12	0x3c7dac28	0.01548294
13	0x3c2b5f2c	0.010459702
14	0x3e0020b8	0.12512481
15	0x3e3834cf	0.17988895
16	0x3e1da688	0.15395558
17	0xbe11c148	-0.14233887
18	0x3c15e745	0.009149377
19	0x3d3eecee	0.046612673
20	0x3daf517d	0.085604645
21	0x3e44de06	0.1922532
22	0x3b474b22	0.0030409773
23	0xbddbf06a	-0.10739215
24	0x3e228c90	0.15873933
25	0xbcadd5c2	-0.021220092
26	0x3e32787f	0.17428778
27	0x3cc73ba5	0.024320433
28	0x3e2dad20	0.16960573
29	0x3aee80d2	0.001819635
30	0xbe19c581	-0.15016748
31	0x3e41489f	0.18875359

model.4.weight f4 [1, 32, 1, 1]
0	0x3e22b395	0.15888818
1	0x3e00aad1	0.12565161
2	0xbe35b7c6	-0.17745885
3	0xbdd06b46	-0.10176711
4	0x3e87fb67	0.26558992
5	0xbe8210e3	-0.2540351
6	0xbdec8952	-0.11549629
7	0xbe547d85	-0.20751007
8	0x3df52da0	0.11971593
9	0xbe608820	-0.21926928
10	0x3e9ae495	0.3025252
11	0xbe14cb6f	-0.14530729
12	0xbe3c714e	-0.18402597
13	0x3e82d16d	0.25550404
14	0xbe042aa7	-0.12906896
15	0xbe4c60c6	-0.19958791
16	0xbe4c7fc8	-0.1997062
17	0xbe3915ba	-0.18074694
18	0xbe7ec260	-0.24878836
19	0x3e82ad75	0.25522962
20	0x3e779faa	0.24182001
21	0x3e7cf1ed	0.24701662
22	0x3e875643	0.26433
23	0xbe5c218a	-0.21497169
24	0x3d4b0299	0.049563024
25	0x3e54cb54	0.20780689
26	0x3e8105d6	0.25199765
27	0x3e1b2d41	0.15153982
28	0xbe95e3d0	-0.2927537
29	0xbe6de034	-0.23230058
30	0x3e3d22af	0.18470262
31	0xbe258903	-0.16165547
