checkpoints_jonny/alex_1_scratch/5_net_rank.pth (torch, 7127 bytes, 5 tensors)

model.0.weight f4 [32, 5, 1, 1]
0	0xbf1ca9ad	-0.61196405
1	0xbeaf696e	-0.34260124
2	0xbd377747	-0.044791486
3	0xbf11e3ed	-0.5698841
4	0xbc591107	-0.013248689
5	0x3d4e1b5c	0.05031906
6	0x3e81621a	0.25270158
7	0x3ea2698d	0.31721154
8	0xbccb7338	-0.024835214
9	0xbf10c030	-0.56543255
10	0xbe67d0b8	-0.22638214
11	0x3ea5560f	0.3229222
12	0xbef363b4	-0.47537005
13	0xbe80210b	-0.2502521
14	0xbe312bf7	-0.17301928
15	0xbf061e5e	-0.52390087
16	0xbecfdd7b	-0.40598664
17	0x3d6b901f	0.05751049
18	0xbf33284c	-0.69983363
19	0x3f0d605f	0.55225176
20	0xbe881fff	-0.2658691
21	0x3e372881	0.17886545
22	0xbea05940	-0.31318092
23	0xbed06fdc	-0.40710342
24	0xbe54a0c5	-0.20764454
25	0xbeaad805	-0.33367935
26	0xbf22920f	-0.6350412
27	0x3e16df30	0.14733577
28	0x3e80b968	0.25141454
29	0xbe85d714	-0.26140654
30	0xbe5de219	-0.2166828
31	0xbed21d77	-0.41038105
32	0x3e8254ca	0.25455314
33	0xbd456a58	-0.04819712
34	0xbec05853	-0.37567386
35	0x3f0e4bac	0.55584216
36	0x3ed7fad3	0.4218355
37	0x3b14b600	0.0022691488
38	0x3f0b8e87	0.54514354
39	0x3f0fe713	0.56211966
40	0xbf0140d7	-0.5048956
41	0x3e87d782	0.26531607
42	0xbe709bff	-0.23497008
43	0xbe0d35ed	-0.13790102
44	0xbe584a3b	-0.21122067
45	0x3e5e9dc3	0.21739869
46	0x3d471a61	0.04860914
47	0xbe84d41d	-0.2594308
48	0xbd04500a	-0.032302894
49	0xbe8c816f	-0.274425
50	0xbe39b5dd	-0.18135782
51	0x3e99bdc1	0.30027583
52	0xbe8a8126	-0.27051657
53	0xbe94c626	-0.29057425
54	0x3ed2cc60	0.4117155
55	0x3e337552	0.17525223
56	0x3d68a168	0.056794554
57	0xbdf4122f	-0.11917531
58	0xbedf580e	-0.43621868
59	0x3d98dd6b	0.07464107
60	0x3e829ad7	0.25508758
61	0x3b75c499	0.0037501215
62	0x3edfad3a	0.4368685
63	0x3e8ce5be	0.2751903
64	0xbf105992	-0.56386673
65	0x3ee4aac8	0.44661546
66	0x3c6ab436	0.014325192
67	0xbd6b63ae	-0.05746811
68	0xbd1e162c	-0.038595363
69	0xbf0b741e	-0.54474056
70	0x3e1b5b5f	0.15171574
71	0xbeafc61a	-0.34330827
72	0x3e1cae94	0.15300971
73	0xbef8719c	-0.48524177
74	0x3ed02abf	0.40657613
75	0xbe3b2aef	-0.18278097
76	0x3ec28bf7	0.3799741
77	0xbe3b4507	-0.1828805
78	0xbdc066dd	-0.093946196
79	0xbe1843a9	-0.1486956
80	0x3e87c527	0.26517603
81	0x3e9dede8	0.3084557
82	0x3ec545f1	0.38529924
83	0xbe47d436	-0.19514546
84	0x3e1f0caf	0.15532182
85	0xbe1170cc	-0.14203185
86	0xbe8a6810	-0.27032518
87	0xbda77fd7	-0.081786804
88	0x3e46234b	0.193494
89	0xbe2fd67a	-0.1717166
90	0x3e91f23c	0.28505123
91	0x3ef74e10	0.48301744
92	0x3d3ec253	0.04657204
93	0xbf0514d9	-0.51984936
94	0xbce2a518	-0.027666613
95	0x3e9ad52e	0.30240768
96	0x3df7fb16	0.12108438
97	0x3e7fd1a0	0.2498231
98	0x3eea69a1	0.45783713
99	0xbecb640f	-0.39724776
100	0xbed85802	-0.42254645
101	0xbe895c35	-0.2682816
102	0xbdc2049f	-0.09473538
103	0x3db6823f	0.08911561
104	0xbea5fd6c	-0.32419908
105	0xbd58b8ab	-0.052910488
106	0xbf02cd27	-0.5109429
107	0x3d1855d7	0.03719124
108	0xbc96cccd	-0.018408203
109	0xbee330c0	-0.4437313
110	0xbe8a07c3	-0.26959047
111	0x3eba71de	0.36415
112	0xbedb4bc3	-0.4283124
113	0xbe56fa48	-0.20993912
114	0x3f07619b	0.5288331
115	0x3e8dde7d	0.27708808
116	0xbea5a808	-0.3235476
117	0x3da3981e	0.079879984
118	0x3d832b09	0.06404693
119	0xbdec289c	-0.11531183
120	0x3eef21c1	0.4670544
121	0x3ee34b0a	0.44393188
122	0x3ea3c366	0.31985015
123	0xbd12683f	-0.035743948
124	0x3e992f50	0.2991891
125	0x3e96884e	0.29400867
126	0xbe8f64c7	-0.28006575
127	0xbea722c1	-0.32643703
128	0x3e528bec	0.20561188
129	0x3babff40	0.005248934
130	0xbe0072ac	-0.12543744
131	0xbe95cb5c	-0.29256713
132	0xbf04c9e0	-0.51870537
133	0x3e243219	0.16034736
134	0xbf01ce55	-0.5070546
135	0x3e1b1736	0.15145573
136	0xbded1ffa	-0.11578365
137	0x3ecce8d9	0.400214
138	0x3ebaa7c0	0.36456108
139	0xbe0d8ba3	-0.13822798
140	0xbea57748	-0.32317567
141	0x3ec14fc3	0.37756166
142	0xbe9646af	-0.29350802
143	0x3ea953a7	0.33071634
144	0x3f03e227	0.51516956
145	0x3e52cf88	0.2058698
146	0xbe259512	-0.16170147
147	0xbe81ad31	-0.25327447
148	0xbe22fd11	-0.1591685
149	0xbe9ae5ec	-0.3025354
150	0xbeeb2594	-0.45927107
151	0x3d2d172b	0.042258423
152	0xbb8858d3	-0.0041609793
153	0xbf066c03	-0.5250856
154	0x3e4a0de1	0.19731857
155	0xbc864f19	-0.016395139
156	0xbc4adfae	-0.012382431
157	0x3ecf60ca	0.40503532
158	0x3e86135b	0.26186642
159	0xbda46da3	-0.08028724

model.0.bias f4 [32]
0	0x3ee15a8b	0.4401439
1	0xbea5f9ea	-0.32417232
2	0xbe74ec6e	-0.23918316
3	0x3e176891	0.14785983
4	0x3f06fa51	0.527257
5	0x3ed5689f	0.41681382
6	0xbe595a6a	-0.21225896
7	0xbdca0a9a	-0.09865303
8	0x3e80dda8	0.2516911
9	0x3f06239e	0.523981
10	0xbecf1f62	-0.4045363
11	0x3ecdfc19	0.40231398
12	0x3e1e814d	0.15479012
13	0xbdfdc33c	-0.123907536
14	0x3e94a171	0.2902942
15	0xbe9bf358	-0.30459094
16	0xbe6f77ee	-0.23385593
17	0x3ebfad60	0.37436962
18	0x3e39454c	0.18092841
19	0x3db81689	0.08988673
20	0x3e10fcce	0.14158937
21	0x3e52c466	0.20582733
22	0x3df087fe	0.117446885
23	0xbdfbad6a	-0.122889355
24	0xbe9bc25a	-0.30421716
25	0xbe74dc06	-0.23912057
26	0x3eaff95c	0.34369934
27	0x3e1d382b	0.15353458
28	0xbdc52662	-0.096264616
29	0xbeb9ce44	-0.3629018
30	0x3dc631a3	0.09677436
31	0x3d871fac	0.06597838

model.2.weight f4 [32, 32, 1, 1]
0	0xbe276c59	-0.16349925
1	0xbd2d7b34	-0.042353824
2	0xbe06ef08	-0.1317712
3	0xbe3c69c8	-0.18399727
4	0xbda55568	-0.080729306
5	0x3e32b29e	0.1745095
6	0xbb92449f	-0.0044637467
7	0x3dadb409	0.084816046
8	0x3d480374	0.04883142
9	0x3e20b1cd	0.15692826
10	0x3d998526	0.07496099
11	0xbe0676ba	-0.13131228
12	0x3d1339fd	0.035943974
13	0x3e10bb27	0.14133893
14	0xbd90cdf3	-0.07070532
15	0x3d6094cd	0.054829407
16	0xbe44421f	-0.19165848
17	0x3ddea994	0.10872188
18	0x3dbfcedc	0.09365627
19	0x3cd40372	0.02588055
20	0x3db4e34f	0.08832418
21	0x3dbf09bb	0.09328028
22	0xbd965ccf	-0.073419206
23	0xbd9860b5	-0.074403204
24	0xbe171b39	-0.14756478
25	0xbe1674e2	-0.14693025
26	0x3e6d4d5b	0.2317404
27	0x3bc736ff	0.006079554
28	0xbd0b6d81	-0.034039978
29	0xbd50a261	-0.050936107
30	0xbe8ebd11	-0.2787862
31	0xbda7f876	-0.08201687
32	0xbd2fa425	-0.04288115
33	0xbd7a4f7f	-0.06111097
34	0x3da4d4dc	0.08048412
35	0xbd76cfbc	-0.060256705
36	0xbc8442d5	-0.01614515
37	0x3c8f35a8	0.01748164
38	0x3ddd4775	0.10804645
39	0xbd4788a8	-0.04871431
40	0xbd7c5e8e	-0.061613612
41	0x3d079bfd	0.033107746
42	0xbd129984	-0.035790935
43	0xbcd00474	-0.025392748
44	0x39c4b337	0.0003751756
45	0x3e4fd124	0.20294625
46	0xbd6b3cc6	-0.057431005
47	0x3db84173	0.089968584
48	0x3cd18206	0.025574695
49	0x3d2fca37	0.042917456
50	0xbda3cf41	-0.07998515
51	0x3c657852	0.014005737
52	0xbcf25a10	-0.02958396
53	0xbd35a3c2	-0.044345625
54	0xbe1118a0	-0.1416955
55	0xbd21c919	-0.039498422
56	0xbb3a8a1e	-0.0028463672
57	0x3e0941fb	0.13404076
58	0xbb27c041	-0.002559677
59	0xbdc4eae7	-0.096151166
60	0x3dc35010	0.09536755
61	0xbdad5326	-0.08463125
62	0xbc9599e6	-0.018261861
63	0xbdc8bce9	-0.09801657
64	0x3e155d98	0.14586484
65	0x3d864757	0.06556576
66	0xbdac071e	-0.08399795
67	0x3c0843f8	0.008316986
68	0x3e31864c	0.17336386
69	0xbe173de1	-0.14769699
70	0x3c5f8967	0.013643599
71	0x3bd47ca8	0.0064845867
72	0x3e514624	0.20436913
73	0x3c149b8e	0.00907029
74	0xbe2ecab1	-0.17069508
75	0x3d2d715d	0.04234444
76	0x3da49d8b	0.080378614
77	0x3dc38aa6	0.095479295
78	0x3e2682d2	0.16260841
79	0xbe0898c1	-0.13339521
80	0x3e03eeb5	0.12884028
81	0xbe2f2eb0	-0.17107654
82	0x3e28300a	0.16424575
83	0xbb7b7526	-0.0038369386
84	0xbd057096	-0.032578073
85	0xbe687894	-0.22702247
86	0x3da269de	0.07930349
87	0x3da85f67	0.082213216
88	0xbe2afb53	-0.16697435
89	0x3da891ac	0.0823091
90	0x3d852f35	0.06503145
91	0xbcad82c0	-0.02118051
92	0xbd2ce1ce	-0.04220753
93	0x3c15ab25	0.009135042
94	0xbc238c55	-0.009982188
95	0xbe7a9371	-0.24470307
96	0x3de780a1	0.11303831
97	0xbdca1082	-0.0986643
98	0xbe5db94e	-0.2165272
99	0x3e856645	0.26054588
100	0x3d4f3357	0.05058607
101	0xbd7cc7fc	-0.061714157
102	0x3ce5b9cd	0.028042698
103	0xbe0b57be	-0.1360769
104	0x3df3ce39	0.11904568
105	0xbcd76e15	-0.026297608
106	0x3dda835b	0.10669585
107	0x3db4fb80	0.08837032
108	0xbea6fc28	-0.32614255
109	0xbe11a818	-0.14224279
110	0x3c28f03f	0.010311185
111	0x3c998307	0.018739237
112	0x3d21f817	0.039543238
113	0xbd119ece	-0.03555184
114	0x3cce9e28	0.0252219
115	0xbe050f0a	-0.12994018
116	0x3dc33fa6	0.09533624
117	0xbd8aad30	-0.06771314
118	0x3e3280e7	0.17431985
119	0x3d8cb682	0.06870748
120	0xbd5c24c1	-0.05374599
121	0xbe6ea5eb	-0.2330548
122	0xbd475107	-0.048661258
123	0xbd9da24c	-0.07696971
124	0x3de9f568	0.11423761
125	0xbdee41c8	-0.116336405
126	0x3e32f7c2	0.17477325
127	0xbe9d2486	-0.30691928
128	0x3cb16452	0.021654282
129	0x3bc11807	0.005892757
130	0x3bbadf67	0.005702901
131	0xbe9e8fca	-0.30969077
132	0xbd9f3268	-0.07773286
133	0x3e0fa828	0.1402899
134	0xbde9a9ed	-0.11409364
135	0xbe274107	-0.163334
136	0xbbe017b5	-0.0068387636
137	0x3e40c79c	0.18826145
138	0x3dd291cc	0.10281715
139	0xbe1ed18c	-0.15509623
140	0x3cd9b13c	0.02657377
141	0xbbc5e432	-0.006039166
142	0x3d8c72ce	0.06857835
143	0xbdd7f832	-0.105453864
144	0x3d2f921e	0.042863958
145	0x3de5faeb	0.112294994
146	0xbc0bc14f	-0.008529975
147	0x3e3bda83	0.18345074
148	0x3cfc22c5	0.030778298
149	0x3e9e14e3	0.3087531
150	0xbddf3b9f	-0.10900044
151	0xbc818dfc	-0.015814774
152	0x3da57c25	0.08080319
153	0xbde4f640	-0.11179781
154	0x3dfd8294	0.123784214
155	0x3e3b9af4	0.18320829
156	0x3d1937f5	0.03740688
157	0x3cde3695	0.027125636
158	0xbcc85170	-0.024452895
159	0x3e414c4e	0.18876764
160	0x3e4df499	0.20112838
161	0x3d696d2b	0.056988876
162	0x3d5ee3c7	0.054416444
163	0x3c50a170	0.012733802
164	0x3e2c3474	0.16816884
165	0x3d5ebfd9	0.05438218
166	0x3dde46da	0.108533576
167	0xba24a584	-0.0006280767
168	0x3e2129fe	0.15738675
169	0xbda6276f	-0.0811299
170	0x3d3946f1	0.04523367
171	0xbd8e4e38	-0.06948513
172	0xbea67807	-0.3251345
173	0xbe320dee	-0.17388126
174	0x3d2b7fdb	0.04186998
175	0x3db0c2b8	0.0863089
176	0x3b91aef4	0.004445905
177	0xbcd0929f	-0.02546054
178	0x3e002762	0.12515023
179	0xbe6ed52a	-0.23323503
180	0xbc2e04c9	-0.010621258
181	0xbe48b76b	-0.19601218
182	0xbb2b1f1d	-0.0026111074
183	0x3df0a3fb	0.11750027
184	0xbdde14f0	-0.10843837
185	0xbd99c58b	-0.075083815
186	0xbe32e273	-0.17469196
187	0xbe4ec6ca	-0.2019302
188	0xbe1d268b	-0.15346734
189	0xbe098dcb	-0.13432996
190	0x3eb61051	0.35559323
191	0xbd7eb4f2	-0.06218428
192	0x3eabe543	0.3357335
193	0xbc70b4b4	-0.0146915205
194	0xbd8ae5be	-0.06782101
195	0x3ea39dbe	0.31956285
196	0xbd905b8f	-0.070487134
197	0xbceb34e5	-0.028711746
198	0xbdacea7b	-0.08443161
199	0x3c80f9c8	0.015744105
200	0x3e354f8b	0.17706124
201	0xbdab8802	-0.08375551
202	0x3e01915a	0.12653103
203	0x3db7613c	0.08954093
204	0xbda9a5bc	-0.082835644
205	0xbde4bc97	-0.11168783
206	0x3e051cd8	0.12999284
207	0xbe3ca702	-0.18423083
208	0xbb14af27	-0.0022687407
209	0x3e43b519	0.19112052
210	0xbc8a15c0	-0.016856074
211	0x3d1c9532	0.03822822
212	0x3d7a175f	0.061057445
213	0xbe813872	-0.25238377
214	0x3c77499e	0.015093235
215	0xbcc58f02	-0.024116043
216	0x3d7fb24c	0.062425897
217	0xbe4d0064	-0.2001968
218	0xbd1fa91f	-0.038979646
219	0x3d34b6e1	0.04411972
220	0xbd10c931	-0.03534812
221	0x3c58fe6e	0.0132442545
222	0x3e8d1b89	0.2756007
223	0xbdf20e38	-0.11819118
224	0x3e5ea300	0.21741867
225	0xbdcde958	-0.100542724
226	0x3da413ba	0.08011575
227	0x3e8738d5	0.26410547
228	0x3e0bf618	0.13668096
229	0xbd416848	-0.04721859
230	0x3dae1a9a	0.085011676
231	0x3e3bd393	0.18342428
232	0xbe2dda77	-0.16977869
233	0x3d94a690	0.07258332
234	0x3d789b59	0.060695026
235	0x3ca97a46	0.020688187
236	0x3d895e7b	0.06707474
237	0xbe423c32	-0.18968275
238	0x3e880285	0.26564422
239	0xbe5d5e68	-0.21618044
240	0xbe347971	-0.17624451
241	0x3e46c2f0	0.194103
242	0x3def5ddf	0.11687826
243	0xbe4b13aa	-0.1983172
244	0xbe676f88	-0.2260114
245	0x3ce28f1c	0.02765613
246	0xbda468cf	-0.08027803
247	0x3d5ea0d7	0.054352608
248	0xbe418740	-0.1889925
249	0xbe0e35ff	-0.13887785
250	0xbdd4eaf9	-0.1039638
251	0x3de0a455	0.10968844
252	0x3e32fb58	0.17478693
253	0x3d6bd13f	0.0575726
254	0x3e97c8b8	0.29645324
255	0xbe637ae1	-0.22214843

model.2.bias f4 [32]
0	0x3e3c78aa	0.18405405
1	0xbe205117	-0.15655933
2	0xbdb4f78a	-0.08836277
3	0x3e683f74	0.22680455
4	0x3d1946f9	0.0374212
5	0x3e6162e8	0.22010386
6	0x3d998336	0.074957296
7	0x3cdef49b	0.027216246
8	0x3d2f65a8	0.042821556
9	0x3e5844e4	0.2112003
10	0xbdc3793d	-0.09544609
11	0xbe2d97e8	-0.16952479
12	0x3c711c45	0.014716213
13	0x3c7f91d5	0.015598734
14	0x3e08a288	0.13343251
15	0x3e414ac7	0.18876182
16	0x3e17b4ed	0.14815111
17	0xbe101f76	-0.14074501
18	0x3bfa919d	0.007646753
19	0x3d2d0a92	0.04224641
20	0x3da8cc84	0.08242133
21	0x3e4c6198	0.19959104
22	0x3b726fa6	0.0036992817
23	0xbdedb4f1	-0.116067775
24	0x3e225db7	0.15856062
25	0xbc8be47f	-0.017076729
26	0x3e2e8ccd	0.17045899
27	0x3cc0428f	0.023469238
28	0x3e3256f1	0.17415978
29	0xbab30aad	-0.0013659798
30	0xbe11fb43	-0.14256005
31	0x3e3d370e	0.18478033

model.4.weight f4 [1, 32, 1, 1]
0	0x3e2c9427	0.1685339
1	0x3e01a119	0.1265911
2	0xbe7f3c1b	-0.24925272
3	0xbddf1923	-0.10893466
4	0x3e8d0550	0.27543116
5	0xbe8e52c2	-0.27797514
6	0xbe049318	-0.12946737
7	0xbe5f625a	-0.21814862
8	0x3e061108	0.13092434
9	0xbe68f633	-0.22750168
10	0x3ea9b6ce	0.3314728
11	0xbe2b2690	-0.16713929
12	0xbe4d1aa3	-0.20029692
13	0x3e858289	0.26076153
14	0xbe112e15	-0.14177735
15	0xbe587fc9	-0.21142496
16	0xbe696086	-0.22790727
17	0xbe380ded	-0.17974062
18	0xbe8a406f	-0.27002284
19	0x3e90008f	0.28125426
20	0x3e81448c	0.2524761
21	0x3e7ffe6f	0.24999402
22	0x3e9ca9b7	0.30598232
23	0xbe7aa6c6	-0.24477682
24	0x3d6eab8c	0.05826907
25	0x3e5ca932	0.21548918
26	0x3e91ce81	0.28477862
27	0x3e22ae8a	0.15886894
28	0xbe9a5c0e	-0.30148357
29	0xbe9b2569	-0.3030198
30	0x3e3faabe	0.18717477
31	0xbe3a34b0	-0.18184161
