checkpoints_jonny/alex_1_scratch/7_net_rank.pth (torch, 7127 bytes, 5 tensors)

model.0.weight f4 [32, 5, 1, 1]
000000 45 dd 24 bf fe c4 bb be 1c 5d 02 bd db b5 17 bf
       -0.6440013 -0.3667373 -0.031827077 -0.59261864
000010 cb 0a 9b bc 33 dd 57 3d d3 c7 84 3e b9 11 9f 3e
       -0.018926045 0.052701186 0.25933704 0.3106821
000020 85 27 8f bc 9a 25 10 bf 1a 99 69 be f2 a9 a6 3e
       -0.017474899 -0.56307375 -0.2281231 0.32551533
000030 7a 1a f6 be 53 56 87 be 1f 67 42 be 64 25 0b bf
       -0.48067075 -0.26433048 -0.1898465 -0.5435393
000040 2c d1 d7 be af 73 86 3d 6a 62 3b bf b1 8d 0a 3f
       -0.42151773 0.06565034 -0.7319704 0.54122454
000050 bf 23 96 be 70 c5 2f 3e a5 fe a2 be 36 3f e7 be
       -0.29324147 0.1716516 -0.31834903 -0.45165414
000060 ff fc 50 be 8c 7f ae be fc fd 22 bf 98 77 0d 3e
       -0.2040901 -0.34081686 -0.636688 0.13815153
000070 7c 1c 80 3e 62 cf 89 be 87 d3 61 be ba 90 d3 be
       0.25021732 -0.26916033 -0.22053348 -0.41321355
000080 c3 db 81 3e 34 86 2e bd 96 15 c3 be 98 10 17 3f
       0.25362977 -0.042608455 -0.38102406 0.59009695
000090 97 63 ed 3e be 91 d3 ba 4e 9d 0f 3f 71 d5 15 3f
       0.46365044 -0.0016141457 0.560994 0.5852881
0000a0 69 3f 0b bf 70 42 79 3e 3a 36 78 be 12 ff 24 be
       -0.5439363 0.2434175 -0.24239436 -0.16112927
0000b0 ba 9f 58 be 05 c5 57 3e e2 8b 31 3d 12 cb 87 be
       -0.21154681 0.2107125 0.043346293 -0.26522118
0000c0 11 28 13 bd 86 50 8e be 4a 15 17 be 71 da a2 3e
       -0.035926882 -0.2779581 -0.14754215 0.31807283
0000d0 94 ab 8d be b7 e4 83 be a9 43 d4 3e ec 1c 31 3e
       -0.27669966 -0.25760433 0.4145787 0.17296189
0000e0 92 57 53 3d e8 19 e8 bd 57 8a e1 be de c4 91 3d
       0.051597185 -0.11333066 -0.44050857 0.071176276
0000f0 dd fb 7c 3e b6 b4 94 bb 29 41 dd 3e 5b 36 8a 3e
       0.24705453 -0.004538144 0.43213776 0.26994595
000100 5e 96 15 bf 9f 7f ea 3e 0a 1c c8 3c 0c fd 60 bd
       -0.5843257 0.45800492 0.024427433 -0.054928824
000110 80 ac 06 bd 77 2e 0b bf 63 fe 1d 3e 78 af b0 be
       -0.032879353 -0.54367775 0.15429072 -0.34508872
000120 89 ba 22 3e a6 40 fa be d3 c9 ce 3e 3d ec 44 be
       0.1589147 -0.48877448 0.40388355 -0.19230743
000130 fd 45 b8 3e 61 8d 38 be 0d 6a d1 bd 04 89 21 be
       0.35990897 -0.18022682 -0.10225306 -0.15774924
000140 64 f4 6e 3e 92 3d 9a 3e 3c 7a bd 3e 02 95 52 be
       0.23335415 0.301251 0.3700732 -0.20564654
000150 d7 aa 27 3e c3 46 17 be 16 e4 8c be a4 5a b1 bd
       0.16373764 -0.14773087 -0.27517766 -0.086598665
000160 74 ce 45 3e 95 00 3d be 38 33 8e 3e f7 3b f5 3e
       0.19317037 -0.18457253 0.27773452 0.47897312
000170 0d 89 3d 3d d7 77 0b bf 8f 25 04 bd d8 c4 97 3e
       0.04627328 -0.54479736 -0.03226238 0.29642367
000180 a7 15 f0 3d 77 3b 7a 3e 20 2f e9 3e ca 88 cc be
       0.1172288 0.24436747 0.45543766 -0.39948112
000190 7a 65 de be 1c 37 99 be 71 ed c1 bd ad 87 ba 3d
       -0.43436795 -0.29924858 -0.094691165 0.09107909
0001a0 38 02 b6 be 80 74 81 bd b9 64 09 bf bb 97 18 3d
       -0.35548568 -0.06321049 -0.53669316 0.037254076
0001b0 f8 c9 7b bc 01 fb f0 be e4 8f 84 be 55 03 bc 3e
       -0.015367977 -0.470665 -0.2589103 0.36721292
0001c0 2c 41 d6 be 43 f6 48 be 8c 63 08 3f e6 7a 93 3e
       -0.41846597 -0.19625191 0.53276896 0.28804702
0001d0 35 af 9e be e7 00 b5 3d a0 99 8f 3d b4 88 d0 bd
       -0.30993047 0.08838063 0.070117235 -0.10182324
0001e0 79 25 f6 3e 65 47 e8 3e 24 82 a1 3e 44 4c 92 bb
       0.48075464 0.4536697 0.31544602 -0.004464658
0001f0 85 1b 9c 3e cf 4e 98 3e 7b 97 8d be c0 b2 a6 be
       0.30489746 0.29747626 -0.27654633 -0.3255825
000200 b4 e6 53 3e 4f 41 55 3c 09 96 19 be 53 65 a3 be
       0.20693475 0.013016059 -0.1499864 -0.31913242
000210 6b fb 08 bf f1 cb 1b 3e 54 73 06 bf c4 67 1c 3e
       -0.53508633 0.15214516 -0.52519727 0.15273958
000220 cc 79 d6 bd ee 80 c7 3e d2 d6 bc 3e 6d 0a 02 be
       -0.1047245 0.38965553 0.36882645 -0.1269929
000230 32 e7 9b be e4 b5 d0 3e ec 0d 93 be 31 30 af 3e
       -0.30449826 0.40763772 -0.2872156 0.34216455
000240 57 e1 0c 3f 7a c1 5f 3e d3 d8 10 be 22 de 87 be
       0.5503134 0.21851149 -0.14145212 -0.2653666
000250 b8 54 16 be e2 63 98 be 46 b4 fa be 4a 52 b9 3c
       -0.14680755 -0.29763705 -0.48965663 0.022622246
000260 d7 20 c4 3b 56 1d 11 bf 96 9a 40 3e 14 9c 71 bc
       0.00598536 -0.5668539 0.1880897 -0.014746685
000270 02 93 5e ba d2 ce c8 3e 6c 0b 89 3e a5 1e 85 bd
       -0.0008490534 0.3922029 0.26766527 -0.064999856

model.0.bias f4 [32]
000000 eb 4c e0 3e 58 d5 a4 be 1b 04 7e be d1 1c 0d 3e
       0.43808684 -0.32194018 -0.24806254 0.13780524
000010 f9 d0 05 3f 28 08 d6 3e d5 65 5a be 78 23 a4 bd
       0.5227199 0.41803098 -0.21327908 -0.080145776
000020 9f 37 78 3e 25 bc 07 3f 55 e8 d2 be f3 f1 ce 3e
       0.24239968 0.5302146 -0.4119288 0.40418968
000030 fd c4 19 3e 68 fc fa bd 82 21 96 3e fc ed aa be
       0.15016551 -0.12255174 0.2932244 -0.33384693
000040 01 a0 80 be b3 de c1 3e 52 d2 35 3e 6d e9 c1 3d
       -0.25122073 0.3786522 0.17756012 0.094683506
000050 fc 31 0f 3e 9b fc 51 3e 0b af 02 3e d3 d0 09 be
       0.13983911 0.20506518 0.12762086 -0.13458566
000060 cf f3 9b be 90 8d 83 be 97 c3 ae 3e 97 0d 26 3e
       -0.3045945 -0.2569394 0.34133598 0.16216122
000070 01 2b 99 bd da 99 bb be 4f c1 b7 3d 54 de 9c 3d
       -0.074789055 -0.36640817 0.089724176 0.07659593

model.2.weight f4 [32, 32, 1, 1]
000000 68 9d 23 be f8 48 48 bd 9d 54 0b be 4c 0a 35 be
       -0.15978014 -0.048897713 -0.13606496 -0.17679709
000010 6b 4b 9c bd 70 49 39 3e e2 e6 e0 bb c5 75 a9 3d
       -0.07631572 0.1809442 -0.006863461 0.08274416
000020 d0 b6 59 3d 0a 7f 28 3e 83 5b 88 3d ca c8 02 be
       0.05315286 0.16454712 0.066580795 -0.12771907
000030 7e ab 21 3d 67 12 0a 3e a8 75 80 bd bc 7a 45 3d
       0.03947019 0.13483582 -0.06272441 0.04821275
000040 ff 5e 50 be 38 38 ef 3d 29 ed ae 3d d8 28 cf 3c
       -0.20348738 0.11680645 0.085413285 0.02528803
000050 a0 01 e8 3d e7 ed ec 3d e6 79 8c bd 1a 15 bb bd
       0.11328435 0.11568814 -0.06859188 -0.09134884
000060 78 9a 21 be 96 f1 29 be eb da 77 3e b9 3e 0e 3c
       -0.15781581 -0.16596064 0.24204604 0.008681946
000070 14 68 05 bd 77 49 67 bd 49 b0 91 be 04 c9 a4 bd
       -0.03256996 -0.056466546 -0.28454807 -0.08046153
000080 b6 2f 66 bd 16 ef 7b bd ee 88 a4 3d 19 b9 86 bd
       -0.056197844 -0.061507307 0.0803393 -0.06578273
000090 95 49 b5 bc fd 05 ae 3c ac 0a de 3d 1c f8 45 bd
       -0.022129813 0.02124309 0.10841879 -0.04833232
0000a0 6b 43 82 bd 47 fa 11 3d fd d2 f1 bc 89 77 02 bd
       -0.06360515 0.035639074 -0.029519552 -0.03185228
0000b0 e5 09 7d 3b 4c 3b 4f 3e 09 33 79 bd f8 f2 b7 3d
       0.0038610634 0.20237464 -0.060839687 0.089818895
0000c0 41 ac fa 3c 20 6d 40 3d 10 31 c8 bd 33 1c 63 3c
       0.030599715 0.04697907 -0.09774983 0.013861704
0000d0 cc f4 07 bc ef 93 d8 bc a5 ff 10 be d2 8a 4e bd
       -0.00829811 -0.026437728 -0.1416002 -0.050425358
0000e0 63 96 27 3b ac 30 f8 3d 3b 92 d2 3b 4c 00 c0 bd
       0.0025571815 0.121186584 0.0064261234 -0.093750566
0000f0 e4 f4 c8 3d bf 05 ae bd b7 fe 08 bd 34 96 c5 bd
       0.09812334 -0.0849719 -0.03344604 -0.096477896
000100 b6 13 27 3e 05 93 8e 3d e3 0f 99 bd 7c 88 b0 3c
       0.16316113 0.069616355 -0.07473733 0.021549456
000110 d4 1b 36 3e d8 25 21 be 5d 63 a4 3c 9c b8 dd bb
       0.17784053 -0.15737092 0.020066911 -0.006766392
000120 e9 28 53 3e d4 7d 07 3b bd ef 32 be 05 90 3c 3d
       0.20621075 0.0020674365 -0.17474265 0.046035785
000130 9e 0c 8d 3d 2b 5f ca 3d 5f 34 2b 3e 35 be 02 be
       0.06887172 0.09881433 0.16719197 -0.1276787
000140 c0 01 fe 3d 88 4c 39 be ef b0 39 3e ef ea 90 bc
       0.124026775 -0.180956 0.18133901 -0.01769015
000150 be c9 2b bd 1f 29 6f be ef 91 9e 3d 51 89 b4 3d
       -0.041940443 -0.2335553 0.077426784 0.088152535
000160 8b 5c 36 be 3c d2 ae 3d 03 e7 61 3d 58 f1 29 bd
       -0.1780874 0.08536193 0.05515195 -0.04148993
000170 5d b4 56 bd 6c b8 7e 3c 98 2f 82 3c 95 17 88 be
       -0.0524181 0.015546899 0.015891835 -0.26580492
000180 ae b3 03 3e d8 23 c8 bd 82 06 5d be c6 52 88 3e
       0.12861511 -0.09772462 -0.21584514 0.2662565
000190 ad 11 6e 3d 60 bc 7c bd 2c 51 e8 3c f3 05 10 be
       0.058122326 -0.061703086 0.028359018 -0.1406477
0001a0 86 07 fe 3d b7 30 c6 bc 87 5b c9 3d c2 a8 c2 3d
       0.12403779 -0.02419315 0.098319106 0.09504844
0001b0 b5 29 a6 be ef 0d 0f be f7 6b 5c 3c ec ab 93 3c
       -0.32453695 -0.13970159 0.013453475 0.018026315
0001c0 e6 44 05 3d 40 f7 15 bd 9c cc 3c 3d 05 b7 00 be
       0.03253641 -0.03661275 0.04609357 -0.12569816
0001d0 20 fc ba 3d 27 1f 90 bd ee 9f 31 3e 2d 84 90 3d
       0.0913012 -0.07037192 0.17346165 0.070564605
0001e0 a4 2c 72 bd fa 6f 6f be af 5a 46 bd 0e fb a4 bd
       -0.059124604 -0.2338256 -0.048426326 -0.080556974
0001f0 92 93 dc 3d 75 dd ed bd b0 38 45 3e 2d e6 9e be
       0.10770334 -0.11614505 0.19259906 -0.31034985
000200 a8 ea c4 3c 79 9f a7 3a a1 a8 79 3b 9c 35 9e be
       0.024037674 0.0012788615 0.0038094895 -0.30900276
000210 ea 51 98 bd 5e 7e 14 3e a4 2c f3 bd 5c 4b 27 be
       -0.07437499 0.1450133 -0.11873749 -0.16337341
000220 e9 c0 07 bb 77 96 48 3e 9e 40 d1 3d a5 36 1b be
       -0.0020714349 0.19588648 0.10217403 -0.15157564
000230 48 bf f7 3c da 97 10 bc ea e1 95 3d 75 c7 df bd
       0.030242577 -0.008825267 0.0731848 -0.10926715
000240 bf 13 2f 3d 3f fb f0 3d 95 ec c1 bb 16 32 3c 3e
       0.04274344 0.117666714 -0.0059180954 0.18378481
000250 4c 76 5c 3d d3 cf a8 3e 24 43 d0 bd e7 80 0b bd
       0.053823754 0.32971057 -0.10169056 -0.034058478
000260 74 20 b4 3d 9b 28 05 be 1f 80 09 3e 35 18 3d 3e
       0.087952524 -0.13003771 0.1342778 0.18466265
000270 6b 4a 23 3d 73 51 bd 3c 7b 36 02 bd a3 9c 41 3e
       0.039865892 0.023110127 -0.031790238 0.18907408
000280 8e f5 5c 3e e4 4d 82 3d e5 e9 82 3d 9d 2b 9e 3c
       0.21578047 0.06362513 0.06392268 0.019307906
000290 9d c0 2f 3e f6 ed 3f 3d 4f d2 ed 3d 5a c6 66 bc
       0.1716332 0.046857797 0.11612379 -0.014085377
0002a0 6f f9 22 3e 6e d3 b1 bd c7 e1 1a 3d f4 ab 8a bd
       0.15915464 -0.08682905 0.037812974 -0.06771079
0002b0 4d 6c a9 be e2 fc 2a be e3 02 2d 3d 21 a6 be 3d
       -0.3309044 -0.1669803 0.04223908 0.0930903
0002c0 e8 7c 40 bb 61 95 0b bd 7e 20 11 3e fd 1b 76 be
       -0.0029371325 -0.034078006 0.14172551 -0.24034114
0002d0 c9 e5 89 bc 8f ee 4c be f3 5c f4 bb d1 d9 ff 3d
       -0.016833203 -0.20012878 -0.0074573695 0.12492717
0002e0 f2 47 f4 bd f4 f5 91 bd 72 64 39 be 9d 52 5e be
       -0.11927785 -0.0712699 -0.18104723 -0.21711202
0002f0 82 d1 29 be 73 c3 01 be df 32 c0 3e 35 eb 9e bd
       -0.16583827 -0.12672214 0.37538812 -0.07759706
000300 a1 1a b3 3e 26 f7 97 bc 6c ce 9c bd 82 c2 a5 3e
       0.34981254 -0.018550467 -0.07656559 0.3237496
000310 50 a8 80 bd c2 7e ad bc 49 be b6 bd 20 fc 9e 3c
       -0.06282103 -0.021178607 -0.08923013 0.019407332
000320 4c 56 39 3e 66 20 9c bd 88 f3 eb 3d e5 f8 c6 3d
       0.18099326 -0.07623367 0.11521059 0.097154416
000330 fe 14 96 bd 1d e8 e7 bd 06 c8 08 3e c8 07 45 be
       -0.07328223 -0.11323569 0.13357553 -0.1924125
000340 13 f1 5b bc 12 5c 4a 3e b1 51 06 3b 67 a7 59 3d
       -0.013424176 0.19761685 0.002049547 0.053138163
000350 09 89 63 3d 60 b5 83 be 47 6d 78 3c 64 8a ca bc
       0.05555061 -0.25724316 0.0151627725 -0.024724193
000360 ee 03 66 3d f4 32 4f be ab af 0d bd 79 de 58 3d
       0.05615609 -0.20234281 -0.03459136 0.05294654
000370 bf d6 14 bd bb 68 dd 3b 3c 50 94 3e 02 38 dd bd
       -0.03633761 0.0067568696 0.28967464 -0.10801698
000380 ba 55 6d 3e e8 ca d1 bd 3a b4 9d 3d 36 04 8a 3e
       0.23177233 -0.102437794 0.07700391 0.26956338
000390 04 36 13 3e 8b 57 3e bd 17 c2 a8 3d a3 69 3c 3e
       0.14376074 -0.046470206 0.08240145 0.18399672
0003a0 1a 9b 2a be 71 ee 99 3d ac 17 56 3d d1 78 e5 3c
       -0.16660729 0.07516182 0.05226867 0.028011711
0003b0 01 99 88 3d b0 d0 42 be 9e fa 89 3e b6 fc 60 be
       0.06669808 -0.1902492 0.26949018 -0.21971402
0003c0 0b 50 3c be 07 37 47 3e ff 79 0b 3e ab 44 47 be
       -0.18389909 0.19454585 0.13620757 -0.19459789
0003d0 ce 56 75 be 71 c6 86 3c 21 2b a4 bd 5b 4a 67 3d
       -0.23958895 0.016452046 -0.08016039 0.056467395
0003e0 4f b8 47 be 5a 18 0b be 73 29 db bd 1b cb e1 3d
       -0.19503902 -0.13583508 -0.10701265 0.110250674
0003f0 00 84 30 3e fe 62 60 3d 8d e9 9f 3e c0 48 62 be
       0.17237854 0.054781906 0.31232873 -0.22098064

model.2.bias f4 [32]
000000 3c db 43 3e 05 3d 20 be 90 54 be bd 1f 01 6b 3e
       0.191266 -0.15648277 -0.09293473 0.22949646
000010 d9 b4 31 3d 20 99 5c 3e 13 fd aa 3d fd dc 00 3d
       0.04338536 0.21542788 0.08349051 0.03146075
000020 d0 83 3a 3d b8 62 5f 3e 58 ee d5 bd d9 4c 2c be
       0.045535862 0.21815002 -0.10445851 -0.1682619
000030 83 89 53 3c 90 6e b4 3c 26 76 0e 3e 1e 8a 47 3e
       0.012911203 0.022025377 0.13912258 0.19486281
000040 4e ab 11 3e cf e9 0f be 13 c7 d5 3b e9 a4 07 3d
       0.14225504 -0.14054035 0.0065239756 0.033116255
000050 b5 3f a3 3d 64 31 53 3e bf 4a 37 3a ed 87 02 be
       0.079711355 0.2062431 0.0006992034 -0.12747164
000060 ad d6 24 3e 72 8a 37 bc 72 6d 2c 3e 13 cd c5 3c
       0.16097517 -0.0112024415 0.16838625 0.024145639
000070 99 19 35 3e bc 41 e5 bb 3f 86 10 be 6b 9f 39 3e
       0.17685546 -0.0069963615 -0.14113711 0.1812722

model.4.weight f4 [1, 32, 1, 1]
000000 24 f4 34 3e d5 39 03 3e ab 27 97 be a1 8c e9 bd
       0.17671257 0.1281503 -0.29522452 -0.11403776
000010 7f ad 90 3e f6 cb 96 be 9b d9 0c be c3 60 66 be
       0.28257367 -0.29452485 -0.13754885 -0.22497849
000020 f4 c4 0d 3e 25 44 6f be c0 1b b5 3e 58 b7 34 be
       0.13844663 -0.23365839 0.35372734 -0.17648065
000030 68 47 57 be ca 36 88 3e ab b4 1a be d8 f7 5f be
       -0.21023333 0.266043 -0.15107982 -0.21871889
000040 a8 5c 7e be a2 09 3a be 4b 8b 91 be 3f b0 9b 3e
       -0.24840033 -0.18167737 -0.28426585 0.30407903
000050 f1 ff 84 3e 60 9c 82 3e ec d7 aa 3e 09 f9 89 be
       0.25976518 0.2550993 0.3336786 -0.2694781
000060 4a c6 83 3d 37 d6 62 3e 39 e6 9c 3e 15 3e 29 3e
       0.06434305 0.22152029 0.30644396 0.16527589
000070 95 cf 9d be 3c 4c b3 be d8 de 44 3e f8 e6 49 be
       -0.30822435 -0.350191 0.19225633 -0.19717014
