checkpoints_jonny/alex_1_scratch/latest_net_rank.pth (torch, 7127 bytes, 5 tensors)

model.0.weight f4 [32, 5, 1, 1]
0	0xbf26060a	-0.64852965
1	0xbebe6a89	-0.37190655
2	0xbce31d33	-0.027723884
3	0xbf179520	-0.5921192
4	0xbc98e028	-0.018661574
5	0x3d5a1db2	0.053250976
6	0x3e82cc24	0.25546372
7	0x3ea27294	0.3172804
8	0xbc7e7704	-0.015531305
9	0xbf10a801	-0.56506354
10	0xbe635374	-0.22199804
11	0x3eac833c	0.33693874
12	0xbef8fe8b	-0.486317
13	0xbe8991fe	-0.26869196
14	0xbe4353e4	-0.1907497
15	0xbf0bf201	-0.54666144
16	0xbed849e3	-0.4224387
17	0x3d84789b	0.06468316
18	0xbf3decc6	-0.7418941
19	0x3f099849	0.53747994
20	0xbe95ada5	-0.29234043
21	0x3e362e82	0.17791179
22	0xbea73f13	-0.3266531
23	0xbeec83da	-0.46194345
24	0xbe48934b	-0.19587438
25	0xbeade87d	-0.33966437
26	0xbf226b35	-0.63444835
27	0x3e0d3405	0.13789375
28	0x3e8048ab	0.2505544
29	0xbe8a2360	-0.26980114
30	0xbe672363	-0.22572093
31	0xbed95bf8	-0.4245298
32	0x3e867cc8	0.26267076
33	0xbd2f1bcd	-0.042751122
34	0xbec6c517	-0.38822243
35	0x3f196be5	0.5993026
36	0x3ef49df1	0.4777675
37	0xbba5f50f	-0.0050646137
38	0x3f108a1a	0.56460726
39	0x3f177ebe	0.5917777
40	0xbf0eb458	-0.5574393
41	0x3e777b67	0.24168168
42	0xbe80bb03	-0.2514268
43	0xbe35902a	-0.17730775
44	0xbe55c7ec	-0.20877045
45	0x3e5c345f	0.21504353
46	0x3d40a0cb	0.047028344
47	0xbe860191	-0.2617307
48	0xbd0f2a39	-0.034952376
49	0xbe8c35e1	-0.27384856
50	0xbe0d5a1c	-0.13803905
51	0x3ea507bc	0.32232463
52	0xbe8e51d7	-0.27796814
53	0xbe7bc458	-0.24586618
54	0x3ed3dd95	0.4137999
55	0x3e32fc0a	0.17478958
56	0x3d65c96e	0.0561003
57	0xbdf3d63e	-0.11906098
58	0xbee0d47a	-0.43912107
59	0x3d933216	0.071872875
60	0x3e7ff332	0.24995115
61	0xbb248192	-0.0025101644
62	0x3edeb915	0.4350058
63	0x3e89718e	0.26844448
64	0xbf170b71	-0.59001833
65	0x3ef062d2	0.46950394
66	0x3ce4ed63	0.027945226
67	0xbd305265	-0.043047328
68	0xbce6b4a8	-0.028162315
69	0xbf0b618d	-0.54445726
70	0x3e261cd1	0.1622193
71	0xbeacf239	-0.3377855
72	0x3e1f664c	0.15566367
73	0xbef73b2c	-0.48287332
74	0x3ecf8e9d	0.40538493
75	0xbe536829	-0.20645203
76	0x3eae9b78	0.34102988
77	0xbe3d053f	-0.18459032
78	0xbde6fede	-0.11279081
79	0xbe28676a	-0.164457
80	0x3e4cab04	0.19987112
81	0x3e90c8c7	0.2827818
82	0x3ebf3a85	0.37349334
83	0xbe62edec	-0.22161072
84	0x3e26652f	0.16249536
85	0xbe11acef	-0.14226125
86	0xbe896804	-0.2683717
87	0xbdab8a5d	-0.08376
88	0x3e483013	0.19549589
89	0xbe3cba2c	-0.18430394
90	0x3e900db6	0.2813546
91	0x3ef8bb7b	0.48580536
92	0x3d1dcbdf	0.038524505
93	0xbf0cae94	-0.54953885
94	0xbd001876	-0.031273328
95	0x3e98dd1f	0.29856202
96	0x3dede7b0	0.116164565
97	0x3e800fa9	0.25011948
98	0x3ee93559	0.45548514
99	0xbecc6fd9	-0.39929083
100	0xbee1bdaa	-0.44090015
101	0xbea13eec	-0.31493318
102	0xbdc31d9c	-0.09527132
103	0x3db70dbb	0.08938166
104	0xbebc7da8	-0.36814618
105	0xbd8aced7	-0.06777733
106	0xbf0c3901	-0.5477448
107	0x3d185679	0.03719184
108	0xbc803688	-0.015651003
109	0xbef536d6	-0.478934
110	0xbe7f5df8	-0.2493819
111	0x3ec06587	0.3757746
112	0xbed6bdcd	-0.41941682
113	0xbe3bccad	-0.18339796
114	0x3f0995ab	0.53744
115	0x3e8ffe4d	0.28123704
116	0xbea449da	-0.32087594
117	0x3dac0c63	0.084008
118	0x3d893a75	0.06700603
119	0xbde3eab3	-0.1112875
120	0x3ef7c3bf	0.4839153
121	0x3ee7002a	0.45117313
122	0x3ea494db	0.32144818
123	0x3be57fc1	0.007003755
124	0x3e9b7f34	0.30370486
125	0x3e943153	0.2894388
126	0xbe94f421	-0.29092506
127	0xbea7c50c	-0.32767522
128	0x3e5083ae	0.20362732
129	0x3c3a9dfe	0.011390207
130	0xbe202c4d	-0.156419
131	0xbea68436	-0.32522744
132	0xbf0a3f5c	-0.5400293
133	0x3e1958fb	0.1497535
134	0xbf069330	-0.5256834
135	0x3e22330d	0.15839787
136	0xbdc93ed5	-0.098264374
137	0x3ec811e6	0.39076155
138	0x3ebe2621	0.37138465
139	0xbdf8e3ba	-0.121528104
140	0xbe9ac73f	-0.30230138
141	0x3ed50353	0.416041
142	0xbe94745c	-0.28995025
143	0x3eb094cf	0.34488532
144	0x3f0f3a09	0.5594793
145	0x3e57f49d	0.21089406
146	0xbe0e8cbf	-0.13920878
147	0xbe8e9cd0	-0.27854013
148	0xbe1b7096	-0.15179667
149	0xbe98404c	-0.29736555
150	0xbeffbb17	-0.49947426
151	0x3c900064	0.017578311
152	0x3bf9f503	0.0076280846
153	0xbf14e66a	-0.58164084
154	0x3e3cc579	0.18434705
155	0xbc2f77c0	-0.010709703
156	0x3b13bc07	0.0022542493
157	0x3ec9fa07	0.39448568
158	0x3e8a879e	0.27056593
159	0xbd740ae4	-0.0595807

model.0.bias f4 [32]
0	0x3ee0d90f	0.43915603
1	0xbea513da	-0.32241708
2	0xbe80f68f	-0.2518811
3	0x3e066021	0.13122608
4	0x3f05c3f6	0.5225214
5	0x3ed6fde3	0.41990575
6	0xbe5e0e56	-0.21685156
7	0xbd8d64c6	-0.06903987
8	0x3e6b96d4	0.23006755
9	0x3f0912ae	0.5354413
10	0xbed68701	-0.41899875
11	0x3ecfdaee	0.40596718
12	0x3e170bfe	0.14750668
13	0xbdf90e98	-0.12160987
14	0x3e9824b8	0.29715514
15	0xbeb6a00b	-0.35668978
16	0xbe8af0ad	-0.27136746
17	0x3ec37d71	0.38181642
18	0x3e34c25d	0.17652269
19	0x3dc64c50	0.09682524
20	0x3e0c1ad0	0.13682103
21	0x3e5125fb	0.20424645
22	0x3e0adf7e	0.13561818
23	0xbe18a0c9	-0.14905085
24	0xbe9e6ae9	-0.3094094
25	0xbe8b100d	-0.27160683
26	0x3eaf7f64	0.3427688
27	0x3e2b898f	0.16751693
28	0xbd81f82d	-0.06346164
29	0xbebf14ce	-0.3732056
30	0x3da9bff1	0.08288563
31	0x3da8b02a	0.08236726

model.2.weight f4 [32, 32, 1, 1]
0	0xbe1ec9ad	-0.1550662
1	0xbd4fe10c	-0.05075173
2	0xbe0f57a8	-0.13998282
3	0xbe2d9d4d	-0.16954537
4	0xbd96f27c	-0.07370469
5	0x3e3ce4d8	0.18446672
6	0xbbda0619	-0.006653559
7	0x3da7bc84	0.081902534
8	0x3d644d44	0.05573775
9	0x3e2cc1a4	0.16870743
10	0x3d675c3b	0.056484442
11	0xbe0161e0	-0.12634993
12	0x3d2f5af5	0.042811353
13	0x3e094246	0.13404188
14	0xbd6ee9a6	-0.058328293
15	0x3d3458f1	0.044030134
16	0xbe556a80	-0.20841408
17	0x3df933b2	0.12168063
18	0x3da66068	0.08123857
19	0x3ce325ae	0.027727928
20	0x3dfa4066	0.12219314
21	0x3dfe1bdd	0.12407658
22	0xbd8f073b	-0.06983801
23	0xbdc5a0df	-0.09649824
24	0xbe2781bd	-0.16358085
25	0xbe33061f	-0.17482804
26	0x3e7c2a53	0.2462552
27	0x3c4b5465	0.012410258
28	0xbd0d7194	-0.034532145
29	0xbd728634	-0.059210017
30	0xbe912d9b	-0.28355107
31	0xbd9d9d2c	-0.07695994
32	0xbd75d352	-0.060015984
33	0xbd73b52f	-0.059498962
34	0x3da1c35d	0.07898591
35	0xbd87685e	-0.06611703
36	0xbcd0b074	-0.025474764
37	0x3cc27b4e	0.023740437
38	0x3de44314	0.11145607
39	0xbd4c0b02	-0.049815185
40	0xbd829e3d	-0.06377838
41	0x3d17184e	0.036888413
42	0xbcf33cd7	-0.029692097
43	0xbd15c2b5	-0.03656264
44	0x3bf26b52	0.0073980475
45	0x3e51ab18	0.20475423
46	0xbd806cc5	-0.06270746
47	0x3db7115e	0.089388594
48	0x3d10941b	0.035297494
49	0x3d4d14be	0.05006861
50	0xbddf2382	-0.108954445
51	0x3c86e3cf	0.01646605
52	0xb9062588	-0.00012793217
53	0xbc9c5be3	-0.019086784
54	0xbe14e1a0	-0.14539194
55	0xbd53751f	-0.051625367
56	0x3b270a96	0.0025488487
57	0x3ded8062	0.11596753
58	0x3c257cde	0.010100571
59	0xbdb8bf67	-0.09020882
60	0x3dc3d9eb	0.09563049
61	0xbdac34b0	-0.08408487
62	0xbd1acabe	-0.037791006
63	0xbdbe884f	-0.093033426
64	0x3e29ac05	0.16569526
65	0x3d8f1cde	0.06987928
66	0xbd904943	-0.070452236
67	0x3cddac21	0.027059617
68	0x3e34037a	0.17579451
69	0xbe2b2e4e	-0.16716883
70	0x3caa970a	0.020823974
71	0xbc084a26	-0.00831846
72	0x3e4d2f09	0.20037474
73	0xbbb14e13	-0.0054109185
74	0xbe326d8f	-0.17424606
75	0x3d3c844b	0.046024602
76	0x3d79880b	0.060920756
77	0x3dc86505	0.09784893
78	0x3e2ce0db	0.1688265
79	0xbdfec73d	-0.124403454
80	0x3df7d9de	0.12102102
81	0xbe429b1c	-0.19004482
82	0x3e3e1c8f	0.18565582
83	0xbcd5f0f4	-0.026115872
84	0xbd4c439f	-0.049869176
85	0xbe76a49c	-0.24086231
86	0x3da18a44	0.078877
87	0x3db7ef2d	0.08981166
88	0xbe389b62	-0.18028024
89	0x3db79702	0.08964349
90	0x3d37feb5	0.044920642
91	0xbd5d2d0a	-0.05399803
92	0xbd56865f	-0.05237424
93	0x3c917118	0.017754123
94	0x3cd3175e	0.025767978
95	0xbe8e6d80	-0.27817917
96	0x3e06af2f	0.13152765
97	0xbdccc373	-0.099982165
98	0xbe5dbc64	-0.21653897
99	0x3e87e419	0.26541212
100	0x3d7802da	0.060549594
101	0xbd829007	-0.06375127
102	0x3cc0fcdb	0.02355807
103	0xbe0b63d9	-0.13612308
104	0x3dfbe42b	0.12299379
105	0xbcbbc36b	-0.022920331
106	0x3dc76e80	0.09737873
107	0x3dcb691f	0.0993216
108	0xbea597cb	-0.3234237
109	0xbe1072a1	-0.14106227
110	0x3c730f04	0.014835123
111	0x3c88ed38	0.016714677
112	0x3cdfa84c	0.02730193
113	0xbd1eeb9b	-0.03879891
114	0x3d722b71	0.05912346
115	0xbdfc6149	-0.12323243
116	0x3db49513	0.08817496
117	0xbd959553	-0.07303872
118	0x3e356ecc	0.17718047
119	0x3d8a2f29	0.06747276
120	0xbd5d0c84	-0.053967014
121	0xbe6facf6	-0.23405823
122	0xbd49f3c5	-0.049304742
123	0xbda8dcc5	-0.082452334
124	0x3de2d8bc	0.11076495
125	0xbdf2ccc0	-0.11855459
126	0x3e485a58	0.19565713
127	0xbea008db	-0.31256756
128	0x3cde657a	0.027147997
129	0xbb9739d3	-0.0046150475
130	0xbaae7b2a	-0.0013311852
131	0xbe9bb477	-0.3041112
132	0xbd92e8b3	-0.0717329
133	0x3e1707dd	0.14749093
134	0xbe010350	-0.1259892
135	0xbe2162f9	-0.15760411
136	0xb8cd0ecb	-9.777917e-05
137	0x3e4ec2d3	0.20191507
138	0x3dcb4769	0.0992573
139	0xbe16b1dd	-0.14716287
140	0x3d06d729	0.032920036
141	0xbc5b5e3e	-0.013389168
142	0x3da30553	0.0796
143	0xbdeb3da5	-0.11486367
144	0x3d2ec70e	0.042670302
145	0x3df98ce0	0.12185073
146	0xb9524641	-0.00020053332
147	0x3e3f3bc4	0.18675143
148	0x3d6e9982	0.058251865
149	0x3eaaeb04	0.33382428
150	0xbdc11b89	-0.0942908
151	0xbd30dcf8	-0.043179482
152	0x3dc850b3	0.09781017
153	0xbe0ea7c0	-0.13931179
154	0x3e0ce203	0.13758092
155	0x3e41502b	0.18878238
156	0x3d3a917f	0.045548912
157	0x3c8e17b0	0.01734528
158	0xbd06179c	-0.03273736
159	0x3e45535f	0.19270085
160	0x3e5e04b3	0.2168148
161	0x3d88a402	0.06671907
162	0x3d8df65a	0.069317535
163	0x3c9b4acf	0.01895657
164	0x3e2d97cf	0.16952442
165	0x3d224852	0.03961975
166	0x3df31aa1	0.118703134
167	0xbc8ea958	-0.017414734
168	0x3e1e2735	0.15444644
169	0xbdbd9fce	-0.09258996
170	0x3d0e6f64	0.0347742
171	0xbd8db422	-0.06919123
172	0xbeaaf23d	-0.33387938
173	0xbe282437	-0.16420065
174	0x3d2487bc	0.04016851
175	0x3dc7e5b3	0.097606085
176	0xbc115490	-0.008870259
177	0xbd2a0477	-0.041508164
178	0x3e15ca44	0.1462794
179	0xbe7a074a	-0.24416843
180	0xbca87466	-0.020563316
181	0xbe505855	-0.20346196
182	0xbc156737	-0.009118847
183	0x3e035fb1	0.12829472
184	0xbdfbb951	-0.12291206
185	0xbd8876a3	-0.06663253
186	0xbe3fd5de	-0.18733928
187	0xbe67a4a9	-0.22621407
188	0xbe2ccee8	-0.16875803
189	0xbdfb8aa8	-0.12282306
190	0x3ec27ba0	0.37984943
191	0xbdb161c8	-0.086612284
192	0x3eb4a17a	0.35279447
193	0xbcbb1982	-0.022839312
194	0xbda5c0cf	-0.08093416
195	0x3ea51ad8	0.32247043
196	0xbd73233a	-0.059359767
197	0xbc98c7bf	-0.018649934
198	0xbdc35a95	-0.095387615
199	0x3cd0ece0	0.025503576
200	0x3e38f902	0.18063739
201	0xbd944f62	-0.072417036
202	0x3de71a80	0.11284351
203	0x3dd14365	0.102179326
204	0xbd8d561f	-0.06901192
205	0xbdee7947	-0.116442256
206	0x3e0aa63c	0.13539976
207	0xbe49995a	-0.19687405
208	0xbcb0db5c	-0.021588974
209	0x3e4c6e1b	0.19963877
210	0x3c57633a	0.013146216
211	0x3d70b9f1	0.058771078
212	0x3d569b6c	0.052394316
213	0xbe8534e3	-0.26016912
214	0x3c9b6551	0.01896921
215	0xbced7534	-0.02898655
216	0x3d6e673e	0.05820393
217	0xbe50b5aa	-0.203818
218	0xbd0725e1	-0.03299511
219	0x3d65f6e8	0.05614367
220	0xbd01e593	-0.03171308
221	0x3ae2bf6e	0.0017299482
222	0x3e95227f	0.2912788
223	0xbdd65809	-0.1046601
224	0x3e71f622	0.23629048
225	0xbdd7e594	-0.105418354
226	0x3d9eddfd	0.07757185
227	0x3e8a4772	0.27007633
228	0x3e174fe0	0.14776564
229	0xbd4249df	-0.04743373
230	0x3da0ada8	0.07845622
231	0x3e3e06b5	0.18557246
232	0xbe29b649	-0.16573443
233	0x3d9c06b2	0.076184645
234	0x3d54214e	0.051789574
235	0x3d08240a	0.033237495
236	0x3d811c9b	0.06304284
237	0xbe4590ec	-0.19293565
238	0x3e8b1aa8	0.27168775
239	0xbe61ec61	-0.22062828
240	0xbe427536	-0.18990025
241	0x3e45acd9	0.19304217
242	0x3e185387	0.14875613
243	0xbe4a456f	-0.1975305
244	0xbe7a4747	-0.24441253
245	0x3c47bf38	0.012191586
246	0xbd9c16ff	-0.07621574
247	0x3d51bfe5	0.051208396
248	0xbe48a6e1	-0.19594909
249	0xbe0e3bcc	-0.13889998
250	0xbddd8e05	-0.10818104
251	0x3dda8367	0.10669594
252	0x3e3308ec	0.17483872
253	0x3d57cc6f	0.052685197
254	0x3ea2773f	0.31731603
255	0xbe6631ad	-0.22479887

model.2.bias f4 [32]
0	0x3e479e52	0.19493988
1	0xbe210356	-0.15723929
2	0xbdc58198	-0.09643859
3	0x3e6dbe0a	0.23217025
4	0x3d490daa	0.049085297
5	0x3e58d115	0.21173508
6	0x3db5c26b	0.08874973
7	0x3d0b8a93	0.0340677
8	0x3d489673	0.048971605
9	0x3e65196a	0.22372976
10	0xbde34e4d	-0.11098919
11	0xbe2eb5d8	-0.17061555
12	0x3c55b48e	0.013043536
13	0x3cd45bf1	0.025922747
14	0x3e134798	0.1438278
15	0x3e4e0d30	0.20122218
16	0x3e0e6666	0.1390625
17	0xbe0f1d9b	-0.13976137
18	0x3c002c99	0.007823133
19	0x3cd53ce2	0.026030008
20	0x3da041b2	0.078250304
21	0x3e55fac5	0.20896442
22	0xbb9844d9	-0.004646879
23	0xbe07c0dd	-0.13257165
24	0x3e27c17d	0.16382404
25	0xbbcf2569	-0.0063215983
26	0x3e28fa44	0.16501719
27	0x3cc2565b	0.023722818
28	0x3e3771d3	0.17914514
29	0xbc2a8f9b	-0.010410215
30	0xbe0d63ce	-0.13807604
31	0x3e374221	0.1789632

model.4.weight f4 [1, 32, 1, 1]
0	0x3e389cc5	0.18028553
1	0x3e050095	0.12988503
2	0xbea0d5cf	-0.31413123
3	0xbdee84d4	-0.11646429
4	0x3e927502	0.28604895
5	0xbe98e4a8	-0.2986195
6	0xbe0f8adf	-0.14017819
7	0xbe6a1e60	-0.2286315
8	0x3e10f4cc	0.14155883
9	0xbe72f4f9	-0.23726262
10	0x3eb9bbff	0.36276242
11	0xbe34b2f4	-0.1764639
12	0xbe5913da	-0.21198979
13	0x3e89e456	0.2693202
14	0xbe1fb177	-0.15595041
15	0xbe638106	-0.22217187
16	0xbe8215b1	-0.25407174
17	0xbe3ad156	-0.18243918
18	0xbe931d50	-0.287333
19	0x3ea11a99	0.31465605
20	0x3e86497a	0.26227933
21	0x3e844195	0.25831285
22	0x3eb07eb7	0.34471676
23	0xbe8dfaec	-0.277305
24	0x3d88c458	0.066780746
25	0x3e65b5d7	0.22432648
26	0x3ea0ae6e	0.3138308
27	0x3e2bddfe	0.16783902
28	0xbea06609	-0.31327847
29	0xbebc7805	-0.36810318
30	0x3e4db851	0.20089842
31	0xbe4d254f	-0.20033763
