checkpoints_jonny/vgg_1/3_net_rank.pth (torch, 7127 bytes, 5 tensors)

model.0.weight f4 [32, 5, 1, 1]
0.43799824 -0.12595208 0.04109663 0.506497 -0.17029527 -0.24592163 0.3947189 -0.24586113
0.0037950347 0.35510913 0.13386609 0.27430332 -0.042431008 -0.13858236 0.088775255 0.2686649
-0.2900281 -0.1149886 0.20811199 0.17459954 0.60520375 0.5095586 -0.07953043 0.19992036
0.23037891 -0.08372211 0.3259218 -0.2646352 -0.16314396 0.5205731 0.3790048 0.4198248
0.28623873 -0.18021898 0.44441468 -0.34974495 -0.41712737 -0.4009727 -0.5745675 -0.37496462
0.01273834 0.05383196 -0.23711798 -0.15282355 0.24827044 -0.28673932 0.31071132 -0.064348094
0.25553772 0.08310247 -0.44780442 -0.030235283 0.06793831 -0.41497833 -0.115077846 -0.06502471
0.089604974 0.22692227 -0.30900604 0.3691492 -0.3539899 0.11300672 -0.33714467 -0.13552313
-0.25331542 -0.18862651 -0.059834465 0.24796636 0.058607224 -0.51306295 0.14590447 -0.00372745
0.2095785 -0.37044704 0.3698493 -0.2638972 -0.02438505 -0.2899174 -0.36613286 -0.011181486
0.2589921 0.3344564 -0.51690733 0.00027446126 -0.026673011 0.034690794 -0.29528704 0.30114594
0.52767175 -0.07472418 -0.34389308 0.18091145 0.22884227 -0.43491882 0.57177216 0.28995556
-0.1122145 -0.009503041 0.16477592 -0.12227216 -0.10953204 0.006308977 0.36500546 0.16527656
-0.33520198 0.272865 -0.17497441 -0.17912705 0.37878788 -0.24613562 0.009399355 -0.21347496
-0.5762953 -0.35116923 0.3488013 0.39709988 -0.05958062 0.45930567 -0.0086462 0.27764493
0.21892034 -0.25213283 -0.0069333003 -0.29467356 0.07067413 -0.22493348 0.054733027 0.25623512
-0.31173092 0.5303087 0.18353857 0.49251905 -0.4265824 -0.5065329 0.43460938 0.23202914
0.40213707 -0.10446783 -0.02430309 0.45609024 0.38235575 0.46351254 0.404452 0.41196245
-0.09450883 -0.21797946 -0.19755901 0.44778746 0.3622128 0.08449339 -0.11961928 -0.060279906
0.44035766 -0.2523665 -0.5571805 -0.48554492 -0.07197839 -0.4526415 -0.15292636 -0.22353551
00000000: 4e41 e03e 95f9 00be f154 283d caa9 013f
00000010: e261 2ebe e1d2 7bbe 9818 ca3e 05c3 7bbe
00000020: 1eb6 783b ddd0 b53e 3114 093e 7c71 8c3e
00000030: 23cc 2dbd 89e8 0dbe cdcf b53d 728e 893e
00000040: 907e 94be 257f ebbd 4f1b 553e 39ca 323e
00000050: a2ee 1a3f 6f72 023f dae0 a2bd ecb7 4c3e
00000060: 73e8 6b3e 7f76 abbd 39df a63e 447e 87be
00000070: 360f 27be 4744 053f eb0c c23e 47f3 d63e
00000080: e28d 923e 538b 38be 528a e33e c511 b3be
00000090: b891 d5be 4b4c cdbe db16 13bf 5dfb bfbe
000000a0: 78b4 503c e77e 5c3d 0ecf 72be c77d 1cbe
000000b0: 9b3a 7e3e 7fcf 92be 8e15 9f3e efc8 83bd
000000c0: d7d5 823e a131 aa3d 9f46 e5be fcaf f7bc
000000d0: 3e23 8b3d 0a78 d4be efad ebbd ad2b 85bd
000000e0: d082 b73d 505e 683e 0a36 9ebe 2001 bd3e
000000f0: 2a3e b5be 1170 e73d 3a9e acbe 93c6 0abe
00000100: 8fb2 81be 4f27 41be fc14 75bd e5ea 7d3e
00000110: 210e 703d 1858 03bf fb67 153e 3c48 74bb
00000120: bf9b 563e 3cab bdbe e35c bd3e 891d 87be
00000130: 28c3 c7bc 0e70 94be c475 bbbe 8d32 37bc
00000140: 9d9a 843e df3d ab3e 0a54 04bf 91e5 8f39
00000150: 5c81 dabc ef17 0e3d dd2f 97be cd2f 9a3e
00000160: 7f15 073f fe08 99bd c112 b0be da40 393e
00000170: a155 6a3e aead debe a95f 123f 0e75 943e
00000180: b7d0 e5bd a5b2 1bbc 05bb 283e d469 fabd
00000190: 5652 e0bd 89bb ce3b ffe1 ba3e 423e 293e
000001a0: 989f abbe f6b4 8b3e 7e2c 33be 156d 37be
000001b0: 7cf0 c13e fa0a 7cbe c1ff 193c 2e99 5abe
000001c0: 1788 13bf 74cc b3be 1696 b23e ad50 cb3e
000001d0: cf0a 74bd 1d2a eb3e cba8 0dbc 7a27 8e3e
000001e0: a72c 603e 8e17 81be bd30 e3bb 74df 96be
000001f0: 99bd 903d f654 66be bd2f 603d 4031 833e
00000200: 329b 9fbe 50c2 073f 89f1 3b3e 752b fc3e
00000210: 0269 dabe 24ac 01bf 1f85 de3e 0c99 6d3e
00000220: e9e4 cd3e 3bf3 d5bd 4617 c7bc a984 e93e
00000230: 22c4 c33e 8451 ed3e 5514 cf3e beec d23e
00000240: d88d c1bd 0236 5fbe e94c 4abe 6644 e53e
00000250: f573 b93e df0a ad3d f4fa f4bd 10e8 76bd
00000260: 8f76 e13e 2f36 81be 62a3 0ebf 5899 f8be
00000270: 6869 93bd a0c0 e7be ba98 1cbe 7ee6 64be

model.0.bias f4 [32]
-0.288944 -0.23827545 -0.055392507 0.2363266 -0.0005694406 0.384627 0.3988375 0.31988633
0.038875464 0.3173521 0.0037422513 0.17466967 -0.088670656 -0.3835595 -0.21985431 -0.17344105
-0.5177231 0.040553015 0.07644889 0.07957798 0.46766743 -0.06927957 -0.10952033 0.32284904
0.30540043 0.39825204 0.18215112 -0.020833114 -0.19178045 0.100695334 -0.08020487 -0.39650923
00000000: 78f0 93be 7bfe 73be 41e3 62bd 9aff 713e
00000010: 8346 15ba d5ed c43e 6e34 cc3e 24c8 a33e
00000020: e13b 1f3d f97b a23e 8f40 753b 9bdc 323e
00000030: f698 b5bd e961 c4be 7d21 61be 889a 31be
00000040: 8089 04bf eb1a 263d 3c91 9c3d c8f9 a23d
00000050: 1b72 ef3e 72e2 8dbd 324c e0bd 784c a53e
00000060: 725d 9c3e b1e7 cb3e d385 3a3e 35aa aabc
00000070: 1862 44be 5b39 ce3d 7342 a4bd 4203 cbbe

model.2.weight f4 [32, 32, 1, 1]
0.011219939 -0.33248645 -0.07123396 -0.045235235 0.16741966 -0.10194736 0.13166837 -0.15368085
-0.19985826 0.05752918 -0.29103497 0.045691643 -0.14378677 -0.07514213 -0.070280954 -0.016506393
-0.098474205 0.28897867 -0.2971927 0.32956913 0.21723731 0.26961133 -0.32539248 -0.03908437
0.07988171 -0.07777931 -0.20787357 0.0829564 0.26290837 0.048192162 0.06408167 -0.23249401
-0.2633217 0.07211365 0.24839073 0.19999483 0.25298652 0.20525359 0.22780335 -0.1549812
0.1935888 0.016441757 0.05726965 0.19947366 0.023523366 -0.08086746 0.14388798 -0.166691
-0.08578683 -0.111220784 0.084618345 -0.14221773 -0.18842839 -0.07412713 0.130088 -0.037619207
0.21902728 0.033598427 0.2369437 0.13294815 -0.14867543 0.0033440588 -0.20925458 -0.068997234
-0.1196866 0.09717288 -0.0026370673 0.08522807 -0.014578019 0.2508848 0.0056945444 -0.2262361
0.19910248 0.18115216 -0.18940446 0.09192641 0.026376924 -0.2215647 0.10193413 -0.01372245
-0.03978301 -0.27573583 0.090396516 0.031753305 -0.04553907 -0.12671961 0.15670995 -0.0062750014
0.18770777 0.031398293 0.065851256 0.10667255 -0.032373276 -0.061863832 -0.007299029 -0.14822033
-0.10132651 0.10242941 0.042618934 0.107820645 0.004408264 0.041307226 0.025847182 -0.17769884
0.0836807 -0.027036859 -0.040904976 0.14647385 -0.116744235 -0.12332584 0.16395718 0.112029254
0.11991001 -0.12309973 0.12195341 -0.07068731 -0.103603594 -0.22289354 0.1018502 -0.09173883
0.029118571 0.17485124 0.2548873 0.08144931 0.012127121 -0.12328694 -0.19381568 -0.22278628
-0.020113999 0.112961285 0.04838946 0.17367871 -0.00854593 0.10065389 -0.014329251 -0.07972742
0.032792088 0.04161328 0.07695135 0.058919977 -0.019974563 -0.19686703 0.06305957 0.044676997
0.051793616 -0.22659002 0.28511608 0.0035361147 0.12697881 0.05755055 -0.054340016 0.0054941056
-0.09257529 -0.012237676 0.07418462 0.15061738 -0.08296392 -0.075601764 -0.1836536 0.0892132
0.18858682 -0.2590962 -0.0045801266 0.22130346 0.15578021 -0.15202081 0.040734604 -0.08712976
-0.16135591 -0.0019343144 -0.048356175 -0.2588198 0.0012886922 0.10063612 -0.013547242 -0.07706956
0.09178539 0.07646907 0.045789547 0.15934967 0.01994023 0.23330218 -0.061039615 0.06118908
-0.159834 -0.14537004 -0.12463802 0.024760304 0.09699277 0.22412936 0.041205887 -0.17942336
0.2534272 -0.28078538 -0.18113409 0.23864762 0.05245971 0.11535534 -0.001907682 -0.2241649
0.026090657 0.038903918 -0.025846064 -0.15824841 -0.09250111 -0.07338574 -0.23619655 -0.17082594
0.09304802 0.08797038 -0.23427345 0.1386282 0.2575258 0.098262735 -0.26382804 -0.13196081
-0.21403542 -0.010947439 -0.2682499 0.065159924 0.22705102 0.025908653 0.12638159 -0.11329819
-0.16595723 0.23431258 -0.0043969587 0.13621472 0.23768997 0.15094571 0.21495795 -0.17978193
0.14425364 -0.1187028 0.08251625 0.13196295 -0.11667304 0.080482684 0.23468071 0.009630085
0.027316105 -0.06889274 -0.02193615 0.04458869 -0.15450707 0.024044968 0.1659243 0.052965775
0.04650257 0.16839781 0.10483482 0.22370324 -0.23417686 -0.22749306 -0.20390391 0.15171148
00000000: d6d3 373c aa3b aabe 1ce3 91bd 9548 39bd
00000010: 0f70 2b3e c7c9 d0bd 13d4 063e 835e 1dbe
00000020: a5a7 4cbe b8a3 6b3d 8902 95be 2927 3b3d
00000030: d73c 13be 1ee4 99bd 76ef 8fbd 6a38 87bc
00000040: d8ac c9bd 03f5 933e a429 98be 49bd a83e
00000050: 7573 5e3e 7f0a 8a3e d899 a6be ef16 20bd
00000060: 0699 a33d c24a 9fbd cfdc 54be 0ce5 a93d
00000070: ed9b 863e 2565 453d 403d 833d e912 6ebe
00000080: 1ad2 86be 52b0 933d 245a 7e3e 72cb 4c3e
00000090: 7387 813e ff2d 523e 4845 693e 64b3 1ebe
000000a0: 243c 463e ddb0 863c 9593 6a3d d342 4c3e
000000b0: 13b4 c03c d79d a5bd 5f57 133e 0cb1 2abe
000000c0: 01b1 afbd b9c7 e3bd 624c ad3d 86a1 11be
000000d0: 5ff3 40be f7cf 97bd ca35 053e 9916 1abd
000000e0: b048 603e 819e 093d 5fa1 723e 8f23 083e
000000f0: 5f3e 18be ff27 5b3b d546 56be 6c4e 8dbd
00000100: 401e f5bd 9302 c73d a6d2 2cbb 0e8c ae3d
00000110: a5d8 6ebc f973 803e 4d99 ba3b 70aa 67be
00000120: 85e1 4b3e f47f 393e 3ef3 41be ea43 bc3d
00000130: 6b14 d83c dbe1 62be d7c2 d03d 20d4 60bc
00000140: 82f3 22bd 3f2d 8dbe cf21 b93d c10f 023d
00000150: 2d87 3abd c9c2 01be 9378 203e 879e cdbb
00000160: 7736 403e 7f9b 003d 06dd 863d 2377 da3d
00000170: d799 04bd ee64 7dbd b12c efbb 12c7 17be
00000180: 4684 cfbd 83c6 d13d 3191 2e3d 12d1 dc3d
00000190: 3373 903b c431 293d 78bd d33c aff6 35be
000001a0: c960 ab3d 677c ddbc fa8b 27bd 3efd 153e
000001b0: 9a17 efbd 4292 fcbd 64e4 273e 986f e53d
000001c0: 6193 f53d b61b fcbd b6c2 f93d 82c4 90bd
000001d0: 1f2e d4bd 343e 64be d696 d03d 91e1 bbbd
000001e0: 128a ee3c 340c 333e 9780 823e e5ce a63d
000001f0: d5b0 463c dd7d fcbd 9e77 46be 1622 64be
00000200: 1dc6 a4bc 3f58 e73d 0734 463d d5d8 313e
00000210: 3a04 0cbc a023 ce3d 3cc5 6abc 2148 a3bd
00000220: ff50 063d b072 2a3d ab98 9d3d 1356 713d
00000230: b2a1 a3bc 8397 49be 6025 813d 3aff 363d
00000240: 8b25 543d 3707 68be bcfa 913e 29be 673b
00000250: bc06 023e 20ba 6b3d a393 5ebd e607 b43b
00000260: 1d98 bdbd 8980 48bc 1bee 973d 713b 1a3e
00000270: fde8 a9bd 19d5 9abd b00f 3cbe 69b5 b63d
00000280: e71c 413e 42a8 84be e314 96bb 609d 623e
00000290: d984 1f3e 58ab 1bbe 54d9 263d 1671 b2bd
000002a0: 7c3a 25be d288 fdba 2011 46bd 0784 84be
000002b0: 56e9 a83a 4f1a ce3d 40f5 5dbc a5d6 9dbd
000002c0: fbf9 bb3d d19b 9c3d d28d 3b3d 8f2c 233e
000002d0: b159 a33c c4e6 6e3e ad04 7abd 67a1 7a3d
000002e0: 86ab 23be e2db 14be 3842 ffbd 1fd6 ca3c
000002f0: 25a4 c63d 2b82 653e 81c7 283d c2ba 37be
00000300: 36c1 813e 1ac3 8fbe 377b 39be 0b60 743e
00000310: fedf 563d 6c3f ec3d 300b faba 7c8b 65be
00000320: 13bc d53c b759 1f3d 20bb d3bc df0b 22be
00000330: 3971 bdbd 434b 96bd 82dd 71be ffec 2ebe
00000340: f68f be3d d129 b43d 61e5 6fbe 8df4 0d3e
00000350: 6cda 833e f93d c93d 7814 87be bc20 07be
00000360: 1a2c 5bbe e35c 33bc 0d58 89be 9172 853d
00000370: 1080 683e 623e d43c 2d6a 013e e208 e8bd
00000380: b1f0 29be a3ef 6f3e 5d14 90bb df7b 0b3e
00000390: 0065 733e 8391 1a3e f01d 5c3e c118 38be
000003a0: 3ab7 133e 741a f3bd 48fe a83d 4c21 073e
000003b0: 46f2 eebd 1bd4 a43d 2450 703e 81c7 1d3c
000003c0: 06c6 df3c a317 8dbd 71b3 b3bc a1a2 363d
000003d0: 1a37 1ebe f4f9 c43c 0fe8 293e a4f2 583d
000003e0: 7b79 3e3d 7a70 2c3e a3b3 d63d 7612 653e
000003f0: 0fcc 6fbe f1f3 68be 30cc 50be 415a 1b3e

model.2.bias f4 [32]
0.010041703 -0.05308527 -0.06369937 0.11760354 0.02974756 0.24021286 0.22091049 0.15300529
0.16576378 0.1289391 0.13028449 0.15437786 -0.07278572 0.06374872 -0.08765128 0.0046386668
0.00020207439 -0.009610067 0.10782627 0.08482989 -0.16057114 0.098851755 0.06098175 -0.023489954
-0.043374695 -0.04304071 -0.111617595 -0.08602746 0.025378687 -0.12793808 0.031173632 -0.14419605
00000000: f485 243c f16f 59bd d174 82bd 20da f03d
00000010: 28b1 f33c 5cfa 753e 5c36 623e 6bad 1c3e
00000020: fbbd 293e 9d08 043e 4c69 053e 3b15 1e3e
00000030: ae10 95bd b08e 823d 8482 b3bd f5ff 973b
00000040: eee3 5339 8b73 1dbc 05d4 dc3d 4bbb ad3d
00000050: c36c 24be ca72 ca3d 00c8 793d 016e c0bc
00000060: aaa9 31bd 754b 30bd c497 e4bd 2a2f b0bd
00000070: f7e6 cf3c 3302 03be d85f ff3c 21a8 13be

model.4.weight f4 [1, 32, 1, 1]
0.20220158 -0.26928577 -0.12943643 -0.27490112 -0.19657612 0.20444146 0.11198449 -0.12630668
0.26715362 0.16956514 0.07943794 0.21588182 -0.2539702 -0.23422869 -0.24814168 0.1970852
0.14236759 0.25887462 0.1390032 0.15433697 0.10475887 -0.21360113 0.18765265 0.14343745
-0.21633157 0.20552702 -0.22684595 0.23088233 0.16064264 -0.30290303 0.29685566 -0.2368182
00000000: ee0d 4f3e d3df 89be fc8a 04be d7bf 8cbe
00000010: 404b 49be 1a59 513e 2058 e53d 8a56 01be
00000020: 5cc8 883e 7ca2 2d3e 5cb0 a23d 2010 5d3e
00000030: 6208 82be a5d9 6fbe da18 7ebe b4d0 493e
00000040: cfc8 113e 378b 843e db56 0e3e 830a 1e3e
00000050: d28b d63d 41ba 5abe 0428 403e 44e1 123e
00000060: 0686 5dbe ad75 523e 4e4a 68be 6b6c 6c3e
00000070: 817f 243e 1b16 9bbe 77fd 973e 7880 72be
