checkpoints_jonny/vgg_1/5_net_rank.pth (torch, 7127 bytes, 5 tensors)

model.0.weight f4 [32, 5, 1, 1]
0	0x3ee0e94d	0.43927994
1	0xbdff2d40	-0.12459803
2	0x3d2ba07c	0.041901097
3	0x3f00f351	0.5037127
4	0xbe3568b7	-0.17715727
5	0xbe86345f	-0.2621183
6	0x3ec33dbb	0.38133034
7	0xbe791895	-0.24325784
8	0xbc27440d	-0.010209096
9	0x3eb1a3ed	0.34695378
10	0x3dfdf333	0.12399902
11	0x3e88e8b9	0.26740053
12	0xbd314302	-0.043276794
13	0xbe15a572	-0.14613894
14	0x3db2f646	0.08738379
15	0x3e8ecc59	0.2789028
16	0xbe90bfa0	-0.28271198
17	0xbdda5da5	-0.106623925
18	0x3e5db772	0.2165201
19	0x3e31a967	0.17349778
20	0x3f1c8d23	0.6115286
21	0x3f03e8b0	0.5152693
22	0xbda67a2a	-0.0812877
23	0x3e56e308	0.20985043
24	0x3e74ee58	0.23919046
25	0xbdb7dc07	-0.08977514
26	0x3ea672b8	0.32509398
27	0xbe8ce53d	-0.27518645
28	0xbe2b54aa	-0.16731516
29	0x3f072071	0.52783877
30	0x3ebe9a04	0.3722688
31	0x3ed57c7c	0.41696537
32	0x3e90df88	0.2829554
33	0xbe39b795	-0.18136437
34	0x3ee5b53b	0.4486483
35	0xbebb8849	-0.36627415
36	0xbed6c9af	-0.41950747
37	0xbed5d9e7	-0.4176781
38	0xbf17f449	-0.59357125
39	0xbebea003	-0.37231454
40	0x3c2bab43	0.010477844
41	0x3d57c9c9	0.05268267
42	0xbe753325	-0.23945291
43	0xbe1a45e8	-0.1506573
44	0x3e826280	0.25465775
45	0xbe906d87	-0.28208563
46	0x3e9f3159	0.31092337
47	0xbd636a0d	-0.05552106
48	0x3e84bf68	0.2592728
49	0x3d999415	0.074989475
50	0xbee8b12c	-0.4544767
51	0xbd05e983	-0.032693397
52	0x3d6da934	0.058022693
53	0xbed6e9a1	-0.4197512
54	0xbddf98f9	-0.10917849
55	0xbd8735b9	-0.06602044
56	0x3db95ffc	0.09051511
57	0x3e63a200	0.22229767
58	0xbe9da601	-0.30790713
59	0x3ec1395d	0.37739077
60	0xbeb772b3	-0.35829696
61	0x3de34f6d	0.11099134
62	0xbeaf370a	-0.3422168
63	0xbe0eed71	-0.13957764
64	0xbe8032b0	-0.25038671
65	0xbe3b9ff3	-0.18322735
66	0xbd6d9734	-0.058005527
67	0x3e8271de	0.254775
68	0x3d7bb7ee	0.061454706
69	0xbf04d124	-0.51881623
70	0x3e130cea	0.14360395
71	0x397aa330	0.0002390265
72	0x3e4d678a	0.20059028
73	0xbebe1362	-0.37124163
74	0x3ec180b8	0.37793517
75	0xbe89d7da	-0.26922494
76	0xbcd863a9	-0.02641471
77	0xbe98eda0	-0.29868793
78	0xbebd8107	-0.37012503
79	0xbbab3837	-0.005225207
80	0x3e823ad5	0.2543551
81	0x3eaad35e	0.33364385
82	0xbf069baa	-0.52581275
83	0xbb5a3c7e	-0.0033300216
84	0xbc9fe8e3	-0.019520229
85	0x3d2a9dd4	0.041654423
86	0xbe94b870	-0.29046965
87	0x3e9ceb31	0.30648187
88	0x3f083e6c	0.5322025
89	0xbd9ea957	-0.07747143
90	0xbeb52ab7	-0.3538415
91	0x3e34143c	0.17585844
92	0x3e60b297	0.21943127
93	0xbee33b09	-0.44380978
94	0x3f12fb16	0.57414377
95	0x3e97f6ea	0.29680568
96	0xbddd67a2	-0.10810782
97	0xbb0bcd1a	-0.0021331967
98	0x3e2d7a8e	0.16941282
99	0xbe019fa4	-0.12658554
100	0xbdd3b121	-0.10336519
101	0x3c10cb67	0.008837557
102	0x3ebf8853	0.37408695
103	0x3e2d922f	0.16950296
104	0xbeae9d79	-0.34104517
105	0x3e8b9a6d	0.27266255
106	0xbe359339	-0.17731942
107	0xbe333d04	-0.17503744
108	0x3ec0d32f	0.3766112
109	0xbe83646f	-0.25662562
110	0xbb98f5b8	-0.004667964
111	0xbe6286d8	-0.22121751
112	0xbf141198	-0.57839346
113	0xbeb98447	-0.36233732
114	0x3eb2313a	0.34803182
115	0x3ece0c60	0.40243816
116	0xbd6958c1	-0.056969408
117	0x3eef21a1	0.46705344
118	0xbb999baf	-0.0046877484
119	0x3e8b91a0	0.2725954
120	0x3e5cf814	0.2157901
121	0xbe81e2b7	-0.25368282
122	0xbc314d20	-0.010821611
123	0xbe96bdc0	-0.29441643
124	0x3d9e164d	0.07719097
125	0xbe6cca49	-0.2312404
126	0x3d59e837	0.053199973
127	0x3e7bd859	0.24594249
128	0xbea1a9e1	-0.3157492
129	0x3f0986f6	0.5372156
130	0x3e395e88	0.18102467
131	0x3efb58da	0.49091226
132	0xbedb814a	-0.42872077
133	0xbf01781a	-0.50573885
134	0x3ee16587	0.44022772
135	0x3e6ac392	0.22926167
136	0x3ecd3d5d	0.4008588
137	0xbddc8a5b	-0.10768577
138	0xbcb39696	-0.02192239
139	0x3eed1892	0.46307808
140	0x3ec39d46	0.38205928
141	0x3eed2c0d	0.4632267
142	0x3ecf1811	0.4044805
143	0x3ed06f72	0.40710026
144	0xbdd3f6df	-0.10349821
145	0xbe59a5da	-0.21254674
146	0xbe48b918	-0.19601858
147	0x3ee9b7e6	0.45648116
148	0x3ebb2649	0.36552647
149	0x3d9f0b0a	0.077657774
150	0xbdecb41c	-0.11557791
151	0xbd724dbb	-0.05915616
152	0x3ee3c1ae	0.44483703
153	0xbe81087c	-0.25201786
154	0xbf10174d	-0.56285554
155	0xbefd14e1	-0.49429992
156	0xbd9e25ef	-0.07722079
157	0xbeeca040	-0.4621601
158	0xbe239bbe	-0.1597738
159	0xbe61e6a8	-0.22060645

model.0.bias f4 [32]
0	0xbe97cc1f	-0.2964792
1	0xbe7f312a	-0.24921098
2	0xbd728acd	-0.059214402
3	0x3e78ad20	0.24284792
4	0x3c8fd715	0.017558614
5	0x3ec583dc	0.38577163
6	0x3ecf99b0	0.40546942
7	0x3e9c9939	0.3058565
8	0x3d307bd9	0.04308686
9	0x3ea41683	0.32048425
10	0x3ae6d7e6	0.001761195
11	0x3e33823d	0.1753015
12	0xbdc5bc92	-0.096551076
13	0xbec4433f	-0.38332555
14	0xbe5ddf24	-0.21667153
15	0xbe358520	-0.17726564
16	0xbf05c0f1	-0.5224753
17	0x3d31fadf	0.04345214
18	0x3d97fd82	0.074214
19	0x3da8166a	0.082074
20	0x3ef09734	0.4699036
21	0xbd8f3bdb	-0.069938384
22	0xbddfaf1d	-0.10922072
23	0x3ea75df7	0.32688877
24	0x3e9c68c5	0.30548683
25	0x3ecc5b10	0.39913225
26	0x3e3b0854	0.18264896
27	0xbc544b7d	-0.012957451
28	0xbe4cf67d	-0.20015903
29	0x3dcf50ba	0.10122819
30	0xbda8722a	-0.082249
31	0xbece0eae	-0.40245575

model.2.weight f4 [32, 32, 1, 1]
0	0x3c9660ea	0.01835676
1	0xbeae4a5c	-0.34041107
2	0xbd98f643	-0.07468846
3	0xbd2ce1d8	-0.04220757
4	0x3e2c327c	0.16816133
5	0xbdd06832	-0.10176124
6	0x3e088375	0.13331397
7	0xbe0d343f	-0.13789462
8	0xbe50c48a	-0.20387474
9	0x3d7b0171	0.06128067
10	0xbe9641d3	-0.29347095
11	0x3d335a60	0.04378736
12	0xbe14a5d7	-0.14516388
13	0xbd9bcce0	-0.07607436
14	0xbda51430	-0.08060491
15	0xbcadd5e9	-0.021220164
16	0xbdd48786	-0.103774115
17	0x3e96c9a9	0.2945073
18	0xbe9c4578	-0.3052175
19	0x3eace651	0.33769467
20	0x3e674826	0.22586116
21	0x3e8bbaee	0.27291054
22	0xbeac3d04	-0.336403
23	0xbd14a529	-0.03629032
24	0x3dabb727	0.08384543
25	0xbda01c89	-0.07817943
26	0xbe567125	-0.20941599
27	0x3da060f9	0.07830996
28	0x3e87dd87	0.265362
29	0x3d54b5bd	0.05193113
30	0x3d85f4e5	0.065408505
31	0xbe71c47e	-0.23610112
32	0xbe8992d0	-0.26869822
33	0x3d987887	0.07444864
34	0x3e7e6254	0.24842197
35	0x3e4f532e	0.20246574
36	0x3e82d701	0.2555466
37	0x3e56f95d	0.20993562
38	0x3e6cdf53	0.23132066
39	0xbe28d6be	-0.16488168
40	0x3e4d6c2d	0.20060797
41	0x3c95e8a5	0.01829941
42	0x3d657bfe	0.05602645
43	0x3e52fe06	0.20604715
44	0x3ca5367f	0.020167587
45	0xbdae3687	-0.08506494
46	0x3e19f1d2	0.15033653
47	0xbe2ad4c8	-0.16682732
48	0xbdb27ab0	-0.08714807
49	0xbde7544d	-0.11295376
50	0x3dc165ed	0.09443269
51	0xbe15c427	-0.14625607
52	0xbe4403fc	-0.19142145
53	0xbd929c74	-0.07158747
54	0x3e0d91fd	0.13825221
55	0xbd0ebe99	-0.034849737
56	0x3e62eb7c	0.22160143
57	0x3d1f528c	0.038897082
58	0x3e78c2f8	0.24293125
59	0x3e0e9d32	0.13927153
60	0xbe16e46d	-0.14735575
61	0x3b9d497e	0.0048000207
62	0xbe5ba450	-0.21449399
63	0xbd9116e3	-0.070844434
64	0xbdf891ed	-0.12137208
65	0x3dcc4062	0.099732175
66	0xbb1bdbd1	-0.0023782144
67	0x3db3d373	0.08780565
68	0xbc3581c7	-0.011078305
69	0x3e82cd27	0.25547144
70	0x3c18a6aa	0.00931708
71	0xbe734bff	-0.23759459
72	0x3e52fbd3	0.20603876
73	0x3e3b57b9	0.18295182
74	0xbe4421cd	-0.19153519
75	0x3dc98043	0.09838917
76	0x3cb7f832	0.022457216
77	0xbe672e1c	-0.22576183
78	0x3dded940	0.10881281
79	0xbc68f1d6	-0.014217814
80	0xbd26abe6	-0.04069128
81	0xbe8dda03	-0.27705392
82	0x3dcd01dd	0.10010121
83	0x3ce43fe5	0.027862499
84	0xbd48f492	-0.049061365
85	0xbdfac734	-0.12245026
86	0x3e28ad73	0.16472416
87	0xbb5c5338	-0.0033618938
88	0x3e422445	0.18959148
89	0x3d15517d	0.036454666
90	0x3d92ea32	0.071735755
91	0x3de8c10a	0.11364944
92	0xbce388c1	-0.02777517
93	0xbd765489	-0.060139213
94	0xbc538bc6	-0.012911743
95	0xbe19dbce	-0.15025255
96	0xbdc9e39c	-0.09857866
97	0x3dd5aac1	0.10432959
98	0x3d2a63e5	0.041599173
99	0x3de5f17e	0.112277016
100	0x3c1fe6b3	0.009759593
101	0x3d3fcd24	0.046826497
102	0x3cfb7258	0.030694172
103	0xbe432dab	-0.1906039
104	0x3db984bd	0.09058521
105	0xbcbfe961	-0.023426713
106	0xbd3ad9a7	-0.045617726
107	0x3e1cbcfb	0.15306465
108	0xbdfb1804	-0.1226044
109	0xbe03c7c9	-0.1286918
110	0x3e2ccd05	0.16875084
111	0x3ddf53ac	0.10904631
112	0x3df04baa	0.11733182
113	0xbdf7fe39	-0.12109036
114	0x3e06a200	0.13147736
115	0xbd928cba	-0.07155748
116	0xbdd6e521	-0.104929216
117	0xbe5a5ae0	-0.21323729
118	0x3dde174f	0.108442895
119	0xbdb295c9	-0.087199755
120	0x3d019940	0.03164029
121	0x3e38fd4a	0.18065372
122	0x3e857eb8	0.2607324
123	0x3db6a0ac	0.089173645
124	0x3cacd9a6	0.021099877
125	0xbdf393d3	-0.118934296
126	0xbe4d9853	-0.20077638
127	0xbe681de2	-0.2266765
128	0xbcdf8ff7	-0.027290327
129	0x3dec8e5b	0.1155059
130	0x3d48bde8	0.049009234
131	0x3e33a45b	0.17543165
132	0xbbdbae68	-0.0067041405
133	0x3dd7589a	0.10514946
134	0xbc3634c8	-0.0111209825
135	0xbdb58f98	-0.08865279
136	0x3d236535	0.03989144
137	0x3d2f567c	0.042807087
138	0x3d9d5175	0.07681552
139	0x3d8630e7	0.06552296
140	0xbcb8bfa3	-0.022552317
141	0xbe4d8ec1	-0.20073988
142	0x3d8faad0	0.07015002
143	0x3d3a6597	0.04550704
144	0x3d50c7ee	0.050971918
145	0xbe6b20aa	-0.22961679
146	0x3e97133f	0.2950687
147	0xbac1bb39	-0.0014780528
148	0x3dfc83c9	0.123298235
149	0x3d6bbefd	0.057555187
150	0xbd3b178b	-0.04567675
151	0x3bfd2667	0.007725525
152	0xbdb82168	-0.08990747
153	0xbbe5ac5e	-0.007009073
154	0x3da464b5	0.08027021
155	0x3e2084e6	0.15675697
156	0xbdab59f0	-0.083667636
157	0xbd9a312d	-0.07528911
158	0xbe40e39d	-0.18836828
159	0x3db44526	0.088022515
160	0x3e49e8be	0.1971769
161	0xbe836c98	-0.25668788
162	0xbaebf557	-0.0018002194
163	0x3e6598e1	0.224216
164	0x3e22a2d1	0.15882422
165	0xbe1bbcb0	-0.15208697
166	0x3d2c874f	0.042121228
167	0xbda3bcea	-0.07995017
168	0xbe284d0a	-0.16435638
169	0x3ac23d24	0.0014819247
170	0xbd57f4e0	-0.052723765
171	0xbe85e7d7	-0.26153442
172	0xba699424	-0.00089103193
173	0x3dcc81e0	0.09985709
174	0xbcba2845	-0.02272428
175	0xbda83451	-0.082131036
176	0x3db539bb	0.08848902
177	0x3da99415	0.082801975
178	0x3d1e2dbb	0.03861783
179	0x3e2b60ea	0.16736189
180	0x3cd9cb91	0.026586326
181	0x3e72c48a	0.23707786
182	0xbd8f46c5	-0.0699592
183	0x3d8221a2	0.06354071
184	0xbe22e6d6	-0.1590837
185	0xbe1634c8	-0.14668572
186	0xbe016452	-0.12635925
187	0x3cbc0922	0.022953574
188	0x3dce8f22	0.10085894
189	0x3e699929	0.22812332
190	0x3d27fcc7	0.04101255
191	0xbe3b2db0	-0.18279147
192	0x3e8654a4	0.2623645
193	0xbe8d3d99	-0.27586058
194	0xbe34a840	-0.17642307
195	0x3e774587	0.24147616
196	0x3d653cc8	0.05596617
197	0x3debe12c	0.115175575
198	0xba291ba8	-0.00064509595
199	0xbe6008ed	-0.21878405
200	0x3cbf3a85	0.023343334
201	0x3d2cd604	0.04219629
202	0xbcfae5ee	-0.030627217
203	0xbe24fbef	-0.1611173
204	0xbdc22310	-0.09479344
205	0xbd97aef9	-0.0740642
206	0xbe7ad420	-0.24494982
207	0xbe34272e	-0.17593071
208	0x3db8da6b	0.09026035
209	0x3dc15fd3	0.09442105
210	0xbe76de3c	-0.24108213
211	0x3e161fac	0.1466052
212	0x3e8702f1	0.26369432
213	0x3dd12776	0.10212605
214	0xbe8b3f9e	-0.27196974
215	0xbe04e501	-0.12977983
216	0xbe5b2892	-0.21402195
217	0xbc4cde89	-0.012504228
218	0xbe8a3d7d	-0.27000037
219	0x3d82e192	0.063906804
220	0x3e6cb7bd	0.23116966
221	0x3cf5188e	0.029918935
222	0x3e00f02e	0.12591621
223	0xbdeeb18e	-0.116549596
224	0xbe2d50ce	-0.16925356
225	0x3e71dc5b	0.23619215
226	0xbba7dd11	-0.0051227887
227	0x3e0e8df6	0.13921341
228	0x3e766e0a	0.24065414
229	0x3e1f81f3	0.15576915
230	0x3e5ff5c0	0.2187109
231	0xbe429b6a	-0.19004598
232	0x3e1abb6d	0.1511056
233	0xbdee33e4	-0.11630991
234	0x3da4ee18	0.08053225
235	0x3e0dbd43	0.13841729
236	0xbdf6cba7	-0.12050562
237	0x3d9bc1f9	0.07605357
238	0x3e75d3b5	0.24006541
239	0x3c0e9eb3	0.008704829
240	0x3cd031e1	0.02541441
241	0xbd8e1caf	-0.06939065
242	0xbc4a29b0	-0.012339041
243	0x3d2b125b	0.041765552
244	0xbe20648a	-0.15663353
245	0x3ce6507f	0.028114555
246	0x3e3176af	0.1733043
247	0x3d65f5f0	0.056142747
248	0x3d497cc7	0.049191263
249	0x3e31f2f1	0.17377831
250	0x3de296f8	0.11063951
251	0x3e6b7e1d	0.22997327
252	0xbe6d3f95	-0.23168786
253	0xbe669b93	-0.22520284
254	0xbe566e88	-0.20940602
255	0x3e18f0da	0.14935628

model.2.bias f4 [32]
0	0x3c78291d	0.015146521
1	0xbd54988e	-0.0519033
2	0xbd80b672	-0.06284799
3	0x3df5da03	0.12004473
4	0x3cf96be1	0.030446948
5	0x3e79ab97	0.24381863
6	0x3e658048	0.22412217
7	0x3e1e60cd	0.15466614
8	0x3e2cf2a2	0.16889432
9	0x3e07d681	0.1326542
10	0x3e058ee7	0.13042794
11	0x3e21cf76	0.15801796
12	0xbd9bb802	-0.07603456
13	0x3d8330f8	0.064058244
14	0xbdaf9f80	-0.08575344
15	0x3c156dfb	0.00912046
16	0x3b3ae54b	0.0028518017
17	0xb9b7b926	-0.00035042426
18	0x3de2814b	0.11059817
19	0x3db5f2e3	0.088842176
20	0xbe224e74	-0.1585024
21	0x3dd002b9	0.10156769
22	0x3d841bbe	0.06450604
23	0xbc94b780	-0.018153906
24	0xbd2c1425	-0.0420114
25	0xbd230980	-0.03980398
26	0xbdc507a0	-0.09620595
27	0xbdb15e41	-0.08660556
28	0x3cf5ad4b	0.02998986
29	0xbdf9fc70	-0.12206352
30	0x3d0c34ac	0.03422992
31	0xbe08801b	-0.13330118

model.4.weight f4 [1, 32, 1, 1]
0	0x3e55e81d	0.20889325
1	0xbe8d005f	-0.27539346
2	0xbe0ae6f8	-0.1356467
3	0xbe8fdf75	-0.28100172
4	0xbe4ee8ad	-0.20205946
5	0x3e57f6b3	0.21090202
6	0x3df1901a	0.11795063
7	0xbe06cdb7	-0.13164411
8	0x3e8bc027	0.27295038
9	0x3e33c5fa	0.17555991
10	0x3daa37e2	0.0831144
11	0x3e6278e8	0.22116435
12	0xbe85d00f	-0.261353
13	0xbe741e0d	-0.23839588
14	0xbe828f33	-0.25499877
15	0x3e5259f8	0.20542133
16	0x3e19d59b	0.1502289
17	0x3e8909de	0.2676534
18	0x3e152273	0.14563923
19	0x3e247889	0.16061606
20	0x3de9ce3c	0.11416289
21	0xbe6043d8	-0.2190088
22	0x3e46688b	0.19375817
23	0x3e186641	0.14882757
24	0xbe634b9c	-0.22196811
25	0x3e57684b	0.21035878
26	0xbe73e5d0	-0.23818135
27	0x3e79323f	0.24335574
28	0x3e29d0be	0.16583535
29	0xbe9f35be	-0.3109569
30	0x3e9c2785	0.304989
31	0xbe79ae4e	-0.24382898
