checkpoints_jonny/vgg_1/9_net_rank.pth (torch, 7127 bytes, 5 tensors)

model.0.weight f4 [32, 5, 1, 1]
000000 6b 6a dd 3e 19 7b 05 be c7 d1 12 3d 5e 4f ff 3e
       0.43245253 -0.1303524 0.03584459 0.4986524
000010 5d 46 40 be 9f 84 90 be 8d 5c b9 3e c8 98 6d be
       -0.18776841 -0.28226182 0.36203423 -0.23202813
000020 06 55 d0 bc 4b 80 ac 3e 93 b6 d8 3d a8 9b 80 3e
       -0.025431167 0.3369163 0.10581698 0.25118756
000030 cb 1f 13 bd b0 1e 22 be 27 f9 a8 3d 82 f7 91 3e
       -0.035918992 -0.15832019 0.08250647 0.28509146
000040 91 02 8e be 23 00 d4 bd 39 cf 65 3e 1e 55 2f 3e
       -0.27736333 -0.103515886 0.2244233 0.17122313
000050 6e 6e 1a 3f 42 03 02 3f 34 93 a2 bd eb d9 5b 3e
       0.6032475 0.5078622 -0.07938233 0.21469848
000060 99 81 78 3e 12 15 c8 bd d1 82 a3 3e 99 c5 8e be
       0.24268188 -0.09769644 0.31935742 -0.2788513
000070 c9 8c 32 be 57 55 08 3f 31 9d b6 3e 5e 3e cf 3e
       -0.17436518 0.5325522 0.35666803 0.4047727
000080 56 15 92 3e 6f 7a 40 be 01 04 e6 3e 6f e6 be be
       0.28531903 -0.18796705 0.4492493 -0.37285182
000090 ae 4b d2 be 78 8c de be 1c fc 1a bf cd 55 b9 be
       -0.41073364 -0.43466544 -0.6054094 -0.36198273
0000a0 27 db 31 3c f5 fb 48 3d 9b 2c 6a be 45 d8 12 be
       0.010855473 0.04906841 -0.22868578 -0.14340313
0000b0 7c b2 85 3e 15 3c 91 be 96 3c 9c 3e 5b 92 4c bd
       0.26112735 -0.2836615 0.30514973 -0.049944263
0000c0 63 64 86 3e c3 19 83 3d 98 3d eb be f5 ee 13 bd
       0.26248464 0.06401398 -0.4594543 -0.03611656
0000d0 b7 dc 5d 3d a7 c3 d9 be ef 90 d3 bd ab be 89 bd
       0.05416557 -0.42532083 -0.10330378 -0.0672582
0000e0 8e ed b3 3d bd 32 67 3e 63 d2 9c be 2d db c4 3e
       0.08785544 0.22577949 -0.30629262 0.38448468
0000f0 b2 ec b4 be 80 9a f8 3d 38 2a b2 be dc ec 10 be
       -0.35336834 0.121388435 -0.34797835 -0.14152855
000100 c1 0d 75 be 6b 6a 34 be 6e a3 53 bd e4 8e 82 3e
       -0.23931028 -0.1761872 -0.05166953 0.25499642
000110 00 40 88 3d 6e de 05 bf af 12 06 3e b5 ae 29 bc
       0.06652832 -0.52292526 0.13093065 -0.010356595
000120 02 b6 51 3e 87 05 c2 be 7f 5b c1 3e 94 f9 8a be
       0.20479587 -0.37894842 0.37765118 -0.27143538
000130 69 9e dd bc f2 f4 9a be 2e 8f bf be 85 02 15 3b
       -0.027053075 -0.30265003 -0.37413925 0.0022737097
000140 0a 36 82 3e b2 b4 ab 3e 8e 74 07 bf ad 08 d8 bb
       0.25431854 0.33536297 -0.52912223 -0.006592831
000150 81 5e 30 bc 24 f2 44 3d 39 32 91 be 7a 71 9c 3e
       -0.010764719 0.048082486 -0.2835863 0.30555326
000160 34 cd 09 3f e2 8a a1 bd dd 24 bc be 40 da 28 3e
       0.5382874 -0.07887818 -0.36746874 0.16489506
000170 90 e4 5e 3e 65 43 e8 be 16 10 13 3f d0 84 9a 3e
       0.21766877 -0.45363918 0.5744642 0.30179453
000180 55 f5 d3 bd a4 5d f4 b9 74 43 33 3e fd a2 05 be
       -0.10349528 -0.00046609074 0.175062 -0.13050456
000190 34 9c cb bd 35 66 2f 3c e5 23 c2 3e 7e 0e 32 3e
       -0.09941903 0.01070552 0.3791801 0.17388341
0001a0 9e ad b2 be a8 01 88 3e 55 5f 3e be e1 cd 34 be
       -0.34898084 0.26563764 -0.18591054 -0.17656662
0001b0 49 bd be 3e a4 23 8b be e1 77 b2 bc 6f 3d 6f be
       0.37253788 -0.2717563 -0.021785678 -0.23363279
0001c0 21 41 13 bf 82 d5 bf be 29 af b1 3e 09 e9 ce 3e
       -0.57521254 -0.3746758 0.3470395 0.40412167
0001d0 b3 0b 64 bd fb cd ef 3e 75 af ea ba 3f 29 88 3e
       -0.05567522 0.46836838 -0.0017905073 0.26593968
0001e0 a4 2b 56 3e c4 52 84 be 99 9a 78 bc d0 cc 99 be
       0.20915085 -0.25844395 -0.015173578 -0.30039072
0001f0 5f bc a8 3d 26 1a 75 be 4c ca 44 3d 1d a0 75 3e
       0.08239054 -0.23935756 0.048044488 0.2398686
000200 96 b4 a5 be 2c e0 0a 3f 49 1a 36 3e 59 fd f8 3e
       -0.3236434 0.5424831 0.17783464 0.4863079
000210 8f 25 d9 be bc 4c 01 bf 45 02 e4 3e 68 ad 67 3e
       -0.42411467 -0.5050771 0.44532982 0.22624743
000220 80 e5 ca 3e d4 48 d5 bd 5e 7b b0 bc 67 e8 ef 3e
       0.3962822 -0.104142815 -0.021543201 0.46856996
000230 e7 ed c2 3e b7 08 ef 3e bd ab c9 3e a6 be ce 3e
       0.3807213 0.46686336 0.39388838 0.40379828
000240 41 38 db bd 1e 29 55 be ad 40 45 be c8 f5 ea 3e
       -0.10704089 -0.20816466 -0.19262953 0.4589064
000250 79 88 bd 3e 1e 8b 92 3d c5 ad db bd 29 5d 54 bd
       0.37018183 0.07155441 -0.10726503 -0.051846657
000260 be 43 e3 3e aa d0 7d be 47 fd 10 bf 50 7a ff be
       0.4438762 -0.2478663 -0.5663647 -0.49898005
000270 02 b9 a4 bd 31 c0 ee be ad 21 2a be 3b d1 5c be
       -0.080431 -0.46631005 -0.16614409 -0.2156419

model.0.bias f4 [32]
000000 d0 5a 9b be 80 d8 84 be d5 ea 82 bd 98 42 7f 3e
       -0.30342722 -0.25946426 -0.06392447 0.24927747
000010 69 88 10 3d cd 97 c5 3e e0 1b d3 3e 78 75 a0 3e
       0.03528634 0.38592377 0.41232204 0.31339622
000020 d5 67 54 3d cc 9a a6 3e 6a 15 43 ba 22 aa 35 3e
       0.051856834 0.32539976 -0.00074418506 0.17740682
000030 6a 88 d4 bd b1 e1 c3 be 53 fd 5f be 9f b0 39 be
       -0.103775814 -0.38258126 -0.2187398 -0.18133782
000040 6a 5c 07 bf 04 ca 43 3d 9c 04 98 3d 50 40 af 3d
       -0.5287539 0.04780008 0.07422754 0.085571885
000050 56 a2 f1 3e b5 9d 8d bd 0c f1 d8 bd d5 a3 a9 3e
       0.47194165 -0.06914846 -0.10592851 0.33132806
000060 7a 65 9b 3e b8 18 cc 3e 4b 8c 3d 3e 39 fc cd bb
       0.30350858 0.3986261 0.18510549 -0.006286171
000070 35 54 50 be 04 ae d2 3d b0 2a ac bd 6f c7 d0 be
       -0.20344622 0.10287097 -0.084065795 -0.40777156

model.2.weight f4 [32, 32, 1, 1]
000000 95 28 94 3c 25 ca b1 be 50 9a 9f bd 21 22 22 bd
       0.018085757 -0.34724537 -0.07793105 -0.03958333
000010 ea a1 2b 3e 77 6a d1 bd 49 1c 09 3e b5 3c 01 be
       0.16760984 -0.10225385 0.13389696 -0.12620814
000020 7f 7f 56 be 71 35 85 3d f3 25 97 be 46 71 22 3d
       -0.20947073 0.06504334 -0.2952114 0.039658807
000030 e0 e4 14 be 6a 35 9c bd 20 5d ba bd e8 f9 d0 bc
       -0.14540434 -0.076273754 -0.090997934 -0.02550979
000040 fe 14 df bd 53 b5 99 3e a0 3e a1 be d1 0b b1 3e
       -0.10892676 0.30021152 -0.31493092 0.34579328
000050 af 48 70 3e 14 d3 8c 3e 2e b2 b1 be 47 0b 0d bd
       0.23465227 0.2750479 -0.34706253 -0.034434583
000060 53 83 b0 3d f6 f9 a2 bd 75 1e 5a be 74 d1 92 3d
       0.08618798 -0.079578325 -0.21300681 0.07168856
000070 f8 8b 86 3e 83 ac 63 3d 3e 6c 8a 3d 8a a8 74 be
       0.26278663 0.055584442 0.06758927 -0.23892418
000080 c5 07 8a be 00 4f 8a 3d 34 f3 74 3e 26 f2 50 3e
       -0.26959053 0.06753349 0.239209 0.20404872
000090 b7 3d 83 3e 91 a0 5a 3e a7 b5 6f 3e 42 04 2e be
       0.25633022 0.21350314 0.23409139 -0.16993812
0000a0 d3 00 53 3e 22 e3 9b 3c bf f5 66 3d cc 65 59 3e
       0.20605783 0.019029204 0.056386705 0.21230239
0000b0 46 c1 8f 3c 5b b6 b4 bd 76 f4 1b 3e 14 4b 2a be
       0.017548215 -0.08823844 0.15229973 -0.16630203
0000c0 2f 74 b5 bd 35 82 ec bd 1b 5d d3 3d c9 49 1a be
       -0.08860051 -0.115482725 0.10320493 -0.1506721
0000d0 94 06 47 be ac 1c 8d bd 45 57 12 3e 62 26 05 bd
       -0.19436103 -0.06890234 0.14291103 -0.032507308
0000e0 95 39 66 3e d1 ae 32 3d 36 72 7d 3e e1 4d 13 3e
       0.22482903 0.04362375 0.247506 0.14385177
0000f0 b9 47 13 be cf 21 b9 3b 3e 3a 5f be 2e ba 93 bd
       -0.14382829 0.0056497823 -0.21799561 -0.07213245
000100 ab ca f2 bd 02 52 bc 3d a2 e1 59 bc 4e 9a b9 3d
       -0.11855062 0.09195329 -0.013298424 0.090626344
000110 c9 74 15 bc 96 dd 84 3e 3b 9e 50 3c 9e b6 79 be
       -0.009122082 0.25950307 0.012733038 -0.24386069
000120 6f 60 58 3e 8b 4d 3d 3e 73 a0 45 be c5 14 d6 3d
       0.21130536 0.18486612 -0.19299488 0.1045318
000130 0c 02 98 3c a8 19 6b be 71 7b df 3d 5f cd 7b bc
       0.018555664 -0.22959006 0.109122165 -0.0153687885
000140 fd e5 30 bd 5d f0 8d be 5f 53 de 3d 67 2e d0 3c
       -0.043188084 -0.27722445 0.108557455 0.025412751
000150 bf 55 4f bd e7 6b ec bd f2 28 2c 3e 31 8f 06 b8
       -0.050618883 -0.11544018 0.16812494 -3.2081447e-05
000160 2a 93 45 3e 15 f5 29 3d 89 cf 9b 3d 67 d8 f2 3d
       0.1929442 0.041493494 0.076079436 0.11857682
000170 49 ad a9 bc 86 10 6b bd 14 aa 8d bc ea 5e 1c be
       -0.020712512 -0.057388805 -0.017293014 -0.15270582
000180 fc ff c3 bd 93 d1 c6 3d 2f 7a 00 3d 10 9d ea 3d
       -0.095703095 0.09707942 0.031366523 0.114557385
000190 46 de 3b 3c a9 62 4f 3d 9d 8b 0a 3d ad 81 49 be
       0.011466568 0.0506312 0.03382455 -0.19678374
0001a0 d8 9a c4 3d 29 fb b4 bc 3c 8c 3e bd 6b 12 23 3e
       0.095998466 -0.022092419 -0.046520457 0.15924995
0001b0 cc 20 01 be 28 68 07 be 42 25 2e 3e 65 75 de 3d
       -0.12610167 -0.13223326 0.170064 0.10862235
0001c0 25 90 ec 3d 35 9c fa bd 8b 78 0f 3e a7 e7 99 bd
       0.11550931 -0.122368254 0.14010827 -0.07514887
0001d0 40 10 dc bd b1 39 54 be f8 75 e6 3d dc a8 ac bd
       -0.10745287 -0.20725133 0.112529695 -0.08430645
0001e0 8b d8 0d 3d 1e ed 3d 3e 87 ca 87 3e 0b fc c0 3d
       0.03463034 0.18547484 0.26521704 0.094230734
0001f0 82 85 e6 3c a1 90 ef bd 72 de 51 be fa 19 6a be
       0.028139833 -0.11697508 -0.20495012 -0.22861472
000200 9e 6d 0a bd ba 02 e2 3d 03 2b 30 3d 4c 13 33 3e
       -0.033795945 0.11035676 0.04300977 0.1748783
000210 97 eb fd bb 8b 2b dd 3d 09 e7 19 bc 0f 46 bc bd
       -0.0077490318 0.10799321 -0.009393462 -0.0919305
000220 22 92 3a 3d 32 bb 29 3d 07 26 a4 3d f8 23 93 3d
       0.04554952 0.04143829 0.08015066 0.07184595
000230 41 10 bd bc 1c b7 4f be a4 1e 9a 3d 0d 4f 48 3d
       -0.02307904 -0.20284694 0.075253755 0.048903514
000240 a6 cf 52 3d 37 c8 71 be 2b d2 9b 3e e9 50 19 bc
       0.05146756 -0.23611532 0.30433783 -0.009357669
000250 20 1d f1 3d c7 78 5b 3d e7 53 1e bd d3 85 09 3c
       0.11773133 0.05358198 -0.038654234 0.008393723
000260 8f 35 b2 bd 49 9d 34 bb 7f 60 ae 3d f5 ed 24 3e
       -0.08701622 -0.002755957 0.08514499 0.16106398
000270 04 88 ae bd fb 14 9f bd d2 14 43 be 99 b9 b5 3d
       -0.08522037 -0.077676736 -0.19050911 0.088732906
000280 66 7b 4a 3e 2d 00 81 be 86 27 1d 3b d3 45 69 3e
       0.19773635 -0.25195447 0.0023979857 0.22780542
000290 07 bc 25 3e b1 cd 1a be 5b 27 34 3d 31 0f 9a bd
       0.16185008 -0.15117528 0.043982845 -0.07522429
0002a0 14 93 2a be 81 51 c4 3b 75 6b 6a bd 6f 50 87 be
       -0.16657668 0.0059911613 -0.057231385 -0.26428553
0002b0 7d 75 43 bb 04 47 c9 3d 65 df 02 bd c0 38 b3 bd
       -0.0029824667 0.09827998 -0.031951327 -0.087510586
0002c0 2b a7 ac 3d ef 1d b7 3d 69 44 04 3d 69 e2 33 3e
       0.08430322 0.08941256 0.032291804 0.17566837
0002d0 18 c2 0b 3d 95 fd 74 3e b3 4b 9e bd a4 90 87 3d
       0.03412065 0.23924859 -0.07729282 0.06619385
0002e0 da f8 21 be 22 da 16 be 83 83 02 be 23 79 ad 3c
       -0.15817586 -0.14731649 -0.1274548 0.021175927
0002f0 2d 44 cc 3d 24 23 6e 3e 68 82 24 3d 14 fd 3e be
       0.09973941 0.23255593 0.040163428 -0.18651229
000300 fa 80 87 3e 32 42 8b be e7 2f 31 be de 19 79 3e
       0.2646559 -0.2719894 -0.1730343 0.24326274
000310 9e 19 6b 3d 76 2e e8 3d f4 89 a2 ba 99 3c 5c be
       0.057397477 0.11336987 -0.0012400732 -0.21507491
000320 30 21 8f 3c 18 e7 37 3d 64 8b 0c bd b5 3c 2b be
       0.01747188 0.044898123 -0.03431262 -0.16722377
000330 d3 da c2 bd aa c4 95 bd 76 18 82 be b4 8e 38 be
       -0.09514394 -0.07312901 -0.25409287 -0.18023187
000340 b0 49 b4 3d b1 b4 ce 3d 37 c8 80 be 8e 6a 1e 3e
       0.08803117 0.10093058 -0.25152752 0.15470335
000350 30 43 8a 3e 01 45 d7 3d f8 fa 90 be 18 4f 04 be
       0.27004385 0.10511208 -0.28316474 -0.12920797
000360 3f 29 5d be 81 61 83 bc 3c b7 8c be 10 c1 73 3d
       -0.21597765 -0.016037704 -0.27483547 0.05951029
000370 8b 45 6c 3e 4f 99 08 3d d8 5f 02 3e 78 96 f2 bd
       0.23073404 0.03334933 0.12731874 -0.11845106
000380 9f d8 2f be 6d 9d 6b 3e fc ff 51 bc 1d 27 0f 3e
       -0.17172478 0.23009272 -0.012817379 0.13979764
000390 15 7b 76 3e b3 b5 22 3e e7 3e 62 3e 25 33 47 be
       0.2407039 0.15889625 0.22094308 -0.19453104
0003a0 a6 4d 20 3e f5 c6 ee bd bb 23 a8 3d 24 12 14 3e
       0.1565462 -0.11659042 0.0820994 0.14460045
0003b0 7d 4c fa bd 16 6d 96 3d 15 49 79 3e 9a a2 2b 3c
       -0.1222162 0.07345025 0.24344285 0.010475779
0003c0 fd 7c cc 3c 0f a6 96 bd 39 1e 62 bb 62 21 13 3d
       0.024961943 -0.07355892 -0.0034502877 0.03592051
0003d0 72 ae 24 be 79 40 e5 3c 7f 2c 37 3e 00 4c 6c 3d
       -0.1608217 0.027984845 0.17888068 0.057689667
0003e0 9e 61 55 3d b1 6c 36 3e 45 04 ec 3d ae 11 70 3e
       0.052095048 0.178149 0.11524252 0.23444244
0003f0 a4 67 6b be 81 34 67 be ec 5d 59 be 08 91 18 3e
       -0.22988755 -0.22578622 -0.21227235 0.14899075

model.2.bias f4 [32]
000000 e3 01 a4 3c 63 4c 51 bd ba 3c 7a bd f7 3b f8 3d
       0.02002043 -0.05109824 -0.06109307 0.121208124
000010 89 b2 f1 3c 5f 5a 7e 3e 52 19 68 3e 36 47 1e 3e
       0.029504078 0.24839161 0.22665909 0.15456852
000020 b4 27 31 3e 73 e8 0b 3e 9b dd 06 3e 23 23 25 3e
       0.17300302 0.13662891 0.13170473 0.16126685
000030 f6 0c a6 bd d6 4b 80 3d 41 79 a9 bd cb 91 6e 3c
       -0.08107941 0.062644646 -0.082750805 0.014561127
000040 b4 b6 05 3c c4 d5 dc 3b 9c 84 e6 3d 74 30 be 3d
       0.008161236 0.00673935 0.11255762 0.092865855
000050 4b 80 1e be a3 67 d3 3d e7 9b 8d 3d 82 01 52 bc
       -0.15478627 0.103225015 0.06914502 -0.012817742
000060 0d f9 28 bd e2 18 13 bd 5a b3 b4 bd ee df ad bd
       -0.04125314 -0.035912402 -0.08823271 -0.08489977
000070 2c 7a 0e 3d 82 77 f2 bd f5 3b 20 3d e2 9f f8 bd
       0.03478448 -0.118392006 0.03911968 -0.1213987

model.4.weight f4 [1, 32, 1, 1]
000000 f0 a7 5c 3e be 50 8f be ba a6 0f be 2b 48 92 be
       0.21548438 -0.2799129 -0.14028445 -0.28570685
000010 ad c3 52 be 17 9d 5e 3e 33 3c fe 3d 46 93 0a be
       -0.20582457 0.21739613 0.12413826 -0.13532743
000020 93 bd 8e 3e e9 4a 39 3e 1f 60 b3 3d 44 9a 67 3e
       0.2787901 0.18094982 0.08758568 0.22617441
000030 26 15 86 be 09 5c 77 be 1f a1 84 be c3 a0 5a 3e
       -0.2618801 -0.24156202 -0.25904176 0.21350388
000040 39 22 22 3e de b5 8d 3e 3b 3f 1c 3e 2c 83 2a 3e
       0.15833367 0.27677816 0.15258496 0.166516
000050 65 cc fa 3d 2a 20 64 be ba 8d 4c 3e 48 73 1d 3e
       0.122460164 -0.22277895 0.1997594 0.15376008
000060 6b 57 67 be 9f b0 5b 3e 7f da 7f be bd 74 80 3e
       -0.22591941 0.21454094 -0.24985693 0.25089064
000070 67 47 2f 3e 3a da a1 be 19 d5 a0 3e 1a 65 80 be
       0.17117082 -0.31611806 0.3141258 -0.25077134
