checkpoints_jonny/vgg_1/latest_net_rank.pth (torch, 7127 bytes, 5 tensors)

model.0.weight f4 [32, 5, 1, 1]
0	0x3edcf6b0	0.43156958
1	0xbe063ce8	-0.13109171
2	0x3d0f6e94	0.035017565
3	0x3eff0141	0.49805644
4	0xbe41381b	-0.18869059
5	0xbe913738	-0.2836244
6	0x3eb8a967	0.36066744
7	0xbe6c9c7d	-0.2310657
8	0xbcd79f56	-0.026321094
9	0x3eac2a81	0.33626178
10	0x3dd53aca	0.10411604
11	0x3e7f97cf	0.24960254
12	0xbd0f8445	-0.03503825
13	0xbe2325e0	-0.15932417
14	0x3da7d1bd	0.08194301
15	0x3e920aa8	0.28523755
16	0xbe8dea53	-0.27717838
17	0xbdd41f6c	-0.10357556
18	0x3e662e5d	0.22478624
19	0x3e2f1473	0.17097645
20	0x3f1a27ca	0.60216963
21	0x3f01c934	0.50697637
22	0xbda22db7	-0.07918876
23	0x3e5bf464	0.21479946
24	0x3e789038	0.24273765
25	0xbdc8c8ef	-0.0980395
26	0x3ea35401	0.31900027
27	0xbe8eb89a	-0.27875215
28	0xbe32d865	-0.1746536
29	0x3f086b1a	0.53288424
30	0x3eb61b92	0.3556791
31	0x3ececbba	0.40389806
32	0x3e924377	0.28567097
33	0xbe40c9a8	-0.18826926
34	0x3ee608e2	0.44928652
35	0xbebf1ce6	-0.37326735
36	0xbed20545	-0.41019645
37	0xbedf1392	-0.43569618
38	0xbf1b26eb	-0.6060626
39	0xbeb8fa84	-0.36128628
40	0x3c33ba30	0.0109696835
41	0x3d480d8c	0.048841044
42	0xbe69484b	-0.22781484
43	0xbe124b64	-0.14286572
44	0x3e85ece9	0.2615731
45	0xbe917318	-0.28408122
46	0x3e9bfed5	0.3046786
47	0xbd4d0356	-0.05005201
48	0x3e866507	0.26248953
49	0x3d81b0c5	0.06332544
50	0xbeeb4314	-0.45949614
51	0xbd147129	-0.03624073
52	0x3d5ea67b	0.054357987
53	0xbed9d29a	-0.4254349
54	0xbdd2a524	-0.10285404
55	0xbd89ee26	-0.06734876
56	0x3db37ba0	0.08763814
57	0x3e678239	0.2260827
58	0xbe9cc5ec	-0.30619752
59	0x3ec51764	0.38494408
60	0xbeb49fcd	-0.35278168
61	0x3dfa27b4	0.12214604
62	0xbeb22ed2	-0.34801346
63	0xbe10f32a	-0.1415526
64	0xbe746937	-0.23868261
65	0xbe342c08	-0.17594922
66	0xbd5236d6	-0.051321827
67	0x3e826808	0.25469995
68	0x3d886a4d	0.066609
69	0xbf05f5b3	-0.5232803
70	0x3e05c267	0.1306244
71	0xbc2d364f	-0.01057203
72	0x3e51c034	0.20483476
73	0xbec205ed	-0.37895146
74	0x3ec1a133	0.37818298
75	0xbe8ae9ba	-0.27131444
76	0xbcdd498e	-0.027012613
77	0xbe9ad974	-0.3024403
78	0xbebf9077	-0.37414905
79	0x3b388c87	0.0028159933
80	0x3e8265f9	0.25468424
81	0x3eabe4dd	0.33573046
82	0xbf076abf	-0.52897257
83	0xbbd5a219	-0.0065195677
84	0xbc237531	-0.009976671
85	0x3d45d98e	0.04830318
86	0xbe90f74e	-0.28313679
87	0x3e9c29a3	0.30500516
88	0x3f09d8f7	0.5384669
89	0xbda1bf85	-0.078978576
90	0xbebca8ec	-0.36847627
91	0x3e27fc91	0.1640494
92	0x3e5ee27a	0.21766081
93	0xbee8a22f	-0.45436236
94	0x3f130cb7	0.57441276
95	0x3e9a882d	0.3018202
96	0xbdd3afa0	-0.10336232
97	0xba3b8ea1	-0.0007154737
98	0x3e33622c	0.17517918
99	0xbe060899	-0.13089217
100	0xbdcba031	-0.099426635
101	0x3c2fc71b	0.010728623
102	0x3ec21857	0.37909195
103	0x3e321b3b	0.173932
104	0xbeb2fbcb	-0.34957728
105	0x3e875b2b	0.26436743
106	0xbe3fc8f8	-0.18729007
107	0xbe35739b	-0.17719881
108	0x3ebe440a	0.37161285
109	0xbe8c0ca1	-0.27353385
110	0xbcbc47e2	-0.022983495
111	0xbe70512c	-0.23468465
112	0xbf131a92	-0.5746242
113	0xbec0461b	-0.37553486
114	0x3eb18898	0.34674525
115	0x3eced8aa	0.40399677
116	0xbd6421f0	-0.055696428
117	0x3eefaa97	0.46809837
118	0xbaedce68	-0.0018143179
119	0x3e87e2de	0.26540273
120	0x3e55f957	0.20895897
121	0xbe84755e	-0.25870794
122	0xbc75adc4	-0.014995042
123	0xbe99d7b6	-0.30047387
124	0x3da98a0c	0.082782835
125	0xbe757c47	-0.2397319
126	0x3d436c93	0.047710966
127	0x3e75955d	0.23982759
128	0xbea5e513	-0.32401332
129	0x3f0af691	0.5428248
130	0x3e361db1	0.17784764
131	0x3ef8df42	0.48607832
132	0xbed8cf59	-0.42345694
133	0xbf0136ef	-0.50474447
134	0x3ee43908	0.4457476
135	0x3e67b27a	0.22626677
136	0x3ecac7d5	0.39605585
137	0xbdd425ad	-0.103587486
138	0xbcaed383	-0.021341091
139	0x3ef01f72	0.4689899
140	0x3ec2bf8f	0.38036773
141	0x3eef1cbe	0.46701616
142	0x3ec90e2a	0.3926862
143	0x3ece85fc	0.40336597
144	0xbddbcd8e	-0.10732566
145	0xbe551d62	-0.2081199
146	0xbe451606	-0.19246683
147	0x3eead322	0.45864207
148	0x3ebd9327	0.3702633
149	0x3d91a4f6	0.07111542
150	0xbddb245d	-0.10700295
151	0xbd529f60	-0.051421523
152	0x3ee30a55	0.4434382
153	0xbe7df19c	-0.24799198
154	0xbf111155	-0.5666707
155	0xbeff73d9	-0.49893072
156	0xbda4bf13	-0.08044257
157	0xbeeead10	-0.4661641
158	0xbe2a49a3	-0.16629653
159	0xbe5c5865	-0.21518095

model.0.bias f4 [32]
0	0xbe9ba7ad	-0.30401364
1	0xbe852674	-0.260059
2	0xbd83e85a	-0.06440802
3	0x3e7fa856	0.24966559
4	0x3d155b13	0.03646381
5	0x3ec5a66c	0.38603532
6	0x3ed365a1	0.41288474
7	0x3ea11710	0.31462908
8	0x3d56b2e1	0.052416686
9	0x3ea6c50d	0.32572213
10	0xba4dc038	-0.0007848772
11	0x3e35d82a	0.17758241
12	0xbdd5b28d	-0.104344465
13	0xbec3f2a6	-0.38271064
14	0xbe5f85c9	-0.21828379
15	0xbe39ce1e	-0.18145034
16	0xbf076ba8	-0.52898645
17	0x3d448a31	0.047983352
18	0x3d97e59c	0.074168414
19	0x3daf7842	0.08567859
20	0x3ef1a412	0.47195488
21	0xbd8ef23a	-0.06979795
22	0xbdd8d8eb	-0.10588249
23	0x3ea9b66a	0.33146983
24	0x3e9b6f8b	0.30358538
25	0x3ecc1e09	0.39866665
26	0x3e3ded65	0.1854759
27	0xbbbe1336	-0.00580063
28	0xbe50a913	-0.20376997
29	0x3dd2ae67	0.10287171
30	0xbdacf040	-0.084442616
31	0xbed0e30a	-0.40798217

model.2.weight f4 [32, 32, 1, 1]
0	0x3c8f855a	0.017519642
1	0xbeb1e100	-0.34741974
2	0xbd9fcd02	-0.07802774
3	0xbd218cc9	-0.039440904
4	0x3e2b9297	0.16755138
5	0xbdd1482e	-0.10218845
6	0x3e09331d	0.13398404
7	0xbe00767c	-0.12545198
8	0xbe56a42d	-0.20961066
9	0x3d85ac7d	0.0652704
10	0xbe972608	-0.29521203
11	0x3d220f3b	0.039565306
12	0xbe14e022	-0.14538625
13	0xbd9c5cb5	-0.0763487
14	0xbdbb5a80	-0.09148121
15	0xbcd261a0	-0.025681317
16	0xbddfb834	-0.10923806
17	0x3e99cb9a	0.30038148
18	0xbea1679b	-0.31524357
19	0x3eb13913	0.34613857
20	0x3e70c37a	0.23512068
21	0x3e8cbd52	0.2748819
22	0xbeb1d648	-0.34733796
23	0xbd0c9273	-0.034319352
24	0x3db0f27c	0.0864
25	0xbda2f09c	-0.07956049
26	0xbe5a1b8b	-0.2129957
27	0x3d92362e	0.0713924
28	0x3e863f10	0.26219988
29	0x3d642c9f	0.055706616
30	0x3d8a9d22	0.06768252
31	0xbe74cf7e	-0.23907277
32	0xbe89e814	-0.26934874
33	0x3d88fdc2	0.066890255
34	0x3e743db1	0.23851658
35	0x3e5120de	0.20422694
36	0x3e834f07	0.2564623
37	0x3e5ae364	0.21375805
38	0x3e6ff247	0.23432265
39	0xbe2e4dcb	-0.17021863
40	0x3e535ad1	0.20640112
41	0x3c9cd36b	0.01914378
42	0x3d66a2f4	0.056307748
43	0x3e59d0a6	0.21271
44	0x3c8da837	0.017292125
45	0xbdb537ca	-0.088485315
46	0x3e1be739	0.15224923
47	0xbe2a602c	-0.16638249
48	0xbdb5ce1b	-0.08877202
49	0xbdec89f8	-0.11549753
50	0x3dd46f82	0.10372831
51	0xbe1a7081	-0.1508198
52	0xbe471b4f	-0.19444011
53	0xbd8c8045	-0.06860403
54	0x3e127919	0.14304008
55	0xbd043b74	-0.03228326
56	0x3e667d75	0.22508796
57	0x3d3406db	0.04395185
58	0x3e7db661	0.24776603
59	0x3e13a026	0.1441656
60	0xbe12c503	-0.14332967
61	0x3bbeb58e	0.005819983
62	0xbe5f80c3	-0.21826462
63	0xbd9412b3	-0.07230129
64	0xbdf23473	-0.1182641
65	0x3dbad8e8	0.09123403
66	0xbc678fc7	-0.0141334
67	0x3dba20f6	0.09088318
68	0xbc128d03	-0.008944753
69	0x3e8503cd	0.25979462
70	0x3c551164	0.0130046345
71	0xbe7a0692	-0.24416569
72	0x3e58b934	0.211644
73	0x3e3d8123	0.18506293
74	0xbe45cc97	-0.19316326
75	0x3dd6ea09	0.104938574
76	0x3c955dc8	0.018233195
77	0xbe6b664b	-0.2298824
78	0x3ddf1fb0	0.10894716
79	0xbc7eb831	-0.015546844
80	0xbd31f2ad	-0.043444324
81	0xbe8ddffe	-0.27709955
82	0x3ddf5e81	0.10906697
83	0x3ccfecf6	0.025381546
84	0xbd4f3abc	-0.050593123
85	0xbdeb57e7	-0.114913754
86	0x3e2c3697	0.168177
87	0x39841dd8	0.00025199237
88	0x3e45defa	0.1932334
89	0x3d2b6f10	0.041853964
90	0x3d9c5354	0.07633081
91	0x3df37cdf	0.11889052
92	0xbca4db3d	-0.020124072
93	0xbd69e210	-0.057100356
94	0xbc904125	-0.017609188
95	0xbe1c9d52	-0.15294388
96	0xbdc384d1	-0.09546817
97	0x3dc53533	0.096292876
98	0x3cf94815	0.03042988
99	0x3deb3e66	0.11486511
100	0x3c3f0914	0.011659879
101	0x3d50aecb	0.050947946
102	0x3d0bc62c	0.03412454
103	0xbe49cfcf	-0.19708179
104	0x3dc54b61	0.09633518
105	0xbcb2e93a	-0.021839727
106	0xbd3f6897	-0.046730604
107	0x3e237e17	0.15966068
108	0xbe017ea7	-0.1264597
109	0xbe07bc97	-0.13255535
110	0x3e2de024	0.16980034
111	0x3dddf82f	0.10838353
112	0x3debe644	0.11518529
113	0xbdfa2f2c	-0.122160286
114	0x3e0ffc2c	0.1406104
115	0xbd99ce0a	-0.07510002
116	0xbddbd6b3	-0.1073431
117	0xbe538610	-0.2065661
118	0x3de67716	0.112531826
119	0xbdabfe1b	-0.08398076
120	0x3d0f34fc	0.03496264
121	0x3e3e526f	0.18586133
122	0x3e87eb14	0.26546538
123	0x3dc1991d	0.09453032
124	0x3ceb66c4	0.028735526
125	0xbdeed38c	-0.11661443
126	0xbe52365f	-0.20528553
127	0xbe6a64c7	-0.22890006
128	0xbd0903b5	-0.0334508
129	0x3de0a52d	0.10969005
130	0x3d2d2419	0.042270754
131	0x3e334c6b	0.1750962
132	0xbbf82ddd	-0.0075738267
133	0x3dddb9d5	0.1082646
134	0xbc15bcec	-0.009139281
135	0xbdbcee6d	-0.092251636
136	0x3d3bf75f	0.04589021
137	0x3d2a5b29	0.041590843
138	0x3da3daee	0.08000742
139	0x3d93f920	0.07225251
140	0xbcbf8413	-0.023378408
141	0xbe4ffdba	-0.20311633
142	0x3d99e761	0.07514835
143	0x3d47c076	0.04876753
144	0x3d51fc25	0.051265854
145	0xbe71b701	-0.23604967
146	0x3e9c15aa	0.30485278
147	0xbc1a940b	-0.00943471
148	0x3df10a72	0.117695704
149	0x3d5d1319	0.05397329
150	0xbd1dffcb	-0.03857402
151	0x3c0db9a1	0.008650214
152	0xbdb1ad30	-0.08675611
153	0xbb1e6181	-0.0024167004
154	0x3daee607	0.08539968
155	0x3e2544d0	0.16139531
156	0xbdad527d	-0.08462999
157	0xbd9e9ca3	-0.0774472
158	0xbe4363c3	-0.19081025
159	0x3db54d29	0.08852608
160	0x3e4a174b	0.19735448
161	0xbe80dabb	-0.25166878
162	0x3b28d103	0.0025759346
163	0x3e69539a	0.22785798
164	0x3e25b5bb	0.16182606
165	0xbe1adec2	-0.15124038
166	0x3d340638	0.043951243
167	0xbd994d5f	-0.074854605
168	0xbe2ad459	-0.16682567
169	0x3bc86fa0	0.0061168224
170	0xbd6aa7e5	-0.057289023
171	0xbe87739e	-0.26455396
172	0xbb3f1a8b	-0.0029160108
173	0x3dc95dbc	0.098323315
174	0xbd048685	-0.03235485
175	0xbdb37de3	-0.08764245
176	0x3dac654d	0.08417759
177	0x3db78053	0.08960023
178	0x3d0259b0	0.031823814
179	0x3e343642	0.17598823
180	0x3d0d0e44	0.034437433
181	0x3e74e247	0.23914443
182	0xbd9ef0c4	-0.07760766
183	0x3d879153	0.06619515
184	0xbe220642	-0.158227
185	0xbe17026a	-0.14747015
186	0xbe02a8ff	-0.1275978
187	0x3cab45b0	0.020907253
188	0x3dcb5424	0.09928158
189	0x3e6e3612	0.23262814
190	0x3d250298	0.040285677
191	0xbe3f0b57	-0.1865667
192	0x3e875a9e	0.26436323
193	0xbe8b2b1c	-0.27181327
194	0xbe31117f	-0.1729183
195	0x3e7910b7	0.24322782
196	0x3d6aa272	0.057283826
197	0x3de7c799	0.11317367
198	0xbab64062	-0.0013904686
199	0xbe5beb2e	-0.21476433
200	0x3c8bb382	0.01705337
201	0x3d380f98	0.044936746
202	0xbd0c94e9	-0.0343217
203	0xbe2bab7f	-0.1676464
204	0xbdc28a3b	-0.094990216
205	0xbd956e3b	-0.072964154
206	0xbe824eed	-0.2545084
207	0xbe38a30a	-0.18030944
208	0x3db434a6	0.087991044
209	0x3dcf13a8	0.10111171
210	0xbe811e5c	-0.25218475
211	0x3e1ebb92	0.1550124
212	0x3e8a6620	0.2703104
213	0x3dd725b3	0.105052374
214	0xbe913d78	-0.2836721
215	0xbe0468dd	-0.12930627
216	0xbe5d57ab	-0.21615474
217	0xbc85bf57	-0.01632659
218	0xbe8ce151	-0.27515653
219	0x3d721834	0.059105113
220	0x3e6bd592	0.2303069
221	0x3d08b351	0.033374134
222	0x3e029e44	0.12755686
223	0xbdf2851b	-0.11841794
224	0xbe2f91e8	-0.17145503
225	0x3e6aee69	0.22942509
226	0xbc5ded7a	-0.013545388
227	0x3e0f5cf8	0.14000309
228	0x3e76a356	0.24085745
229	0x3e22fbbd	0.15916343
230	0x3e627fa8	0.2211901
231	0xbe4780c5	-0.19482715
232	0x3e20a6dd	0.15688653
233	0xbdee7c2d	-0.116447784
234	0x3da7e760	0.08198428
235	0x3e147ca1	0.14500667
236	0xbdfadfd4	-0.12249723
237	0x3d95e329	0.07318718
238	0x3e792fc3	0.24334626
239	0x3c29b78b	0.010358701
240	0x3ccadc4b	0.024763247
241	0xbd9691fd	-0.07352064
242	0xbb40538a	-0.0029346668
243	0x3d12bc1d	0.03582393
244	0xbe24b91a	-0.16086236
245	0x3ce81e69	0.028334813
246	0x3e37446a	0.17897192
247	0x3d6d4e7f	0.057936188
248	0x3d567914	0.052361563
249	0x3e36c55a	0.17848721
250	0x3dec8a1d	0.115497805
251	0x3e7064e9	0.23475994
252	0xbe6ade71	-0.22936417
253	0xbe66fda8	-0.225577
254	0xbe59a8f1	-0.21255852
255	0x3e185e15	0.1487964

model.2.bias f4 [32]
0	0x3ca6834c	0.02032628
1	0xbd50c9c6	-0.050973676
2	0xbd796c49	-0.060894284
3	0x3df8c2f6	0.12146561
4	0x3cf2f3a5	0.029657194
5	0x3e7e8062	0.24853662
6	0x3e6826bc	0.22671026
7	0x3e1e6e54	0.15471774
8	0x3e315563	0.17317729
9	0x3e0c0152	0.13672379
10	0x3e06da60	0.13169241
11	0x3e253147	0.16132079
12	0xbda53ab3	-0.080678366
13	0x3d80798a	0.06273182
14	0xbda87eb0	-0.08227289
15	0x3c71286c	0.01471911
16	0x3c0ae1f8	0.008476727
17	0x3be35e79	0.0069387523
18	0x3de6a27d	0.11261461
19	0x3dbe7787	0.09300142
20	0xbe1e7010	-0.15472436
21	0x3dd3c0b7	0.10339492
22	0x3d8e0971	0.069353946
23	0xbc4e433d	-0.012589273
24	0xbd2892e7	-0.041155722
25	0xbd128b3f	-0.035777327
26	0xbdb4354b	-0.08799227
27	0xbdae2643	-0.085033916
28	0x3d0f04fd	0.034916867
29	0xbdf2088b	-0.11818036
30	0x3d20e749	0.03928307
31	0xbdf794f4	-0.120889574

model.4.weight f4 [1, 32, 1, 1]
0	0x3e5ce046	0.21569929
1	0xbe8f77d8	-0.2802112
2	0xbe0ff7fe	-0.14059445
3	0xbe92710c	-0.28601873
4	0xbe530d35	-0.20610507
5	0x3e5ed76a	0.21761861
6	0x3dfeae78	0.12435621
7	0xbe0ad7c0	-0.13558865
8	0x3e8ed9ad	0.27900448
9	0x3e396e50	0.18108487
10	0x3db3acdc	0.08773205
11	0x3e67bb1c	0.2262997
12	0xbe85ff5f	-0.26171395
13	0xbe779f58	-0.24181879
14	0xbe84bfdf	-0.25927636
15	0x3e5af362	0.21381906
16	0x3e227678	0.15865505
17	0x3e8de9bc	0.27717388
18	0x3e1c84c1	0.15285017
19	0x3e2ab0bd	0.16668983
20	0x3dfbbb1e	0.12291549
21	0xbe6463ef	-0.22303747
22	0x3e4cbee4	0.19994694
23	0x3e1d9306	0.15388116
24	0xbe679c0a	-0.22618118
25	0x3e5bc54e	0.21461985
26	0xbe804825	-0.25055042
27	0x3e808957	0.25104782
28	0x3e2f7afb	0.17136757
29	0xbea202d6	-0.3164279
30	0x3ea10b18	0.31453776
31	0xbe80a5d1	-0.25126508
