checkpoints_jonny/squeeze_1/3_net_rank.pth (torch, 7127 bytes, 5 tensors)

model.0.weight f4 [32, 5, 1, 1]
0.1754267 -0.13935094 -0.27384427 -0.37904322 0.42595306 -0.4894569 0.23875867 -0.6728419
0.2068813 0.5215915 0.23404358 0.19623126 -0.19664906 -0.122969225 0.15584609 0.09849892
0.39852288 -0.19485015 -0.022207648 0.23906131 -0.464583 -0.16469693 0.060757823 -0.5194734
0.57334507 0.33886197 -0.0021803854 -0.13183185 0.12511665 -0.23590708 0.5873777 -0.30968416
0.45911875 0.5639637 0.20246546 -0.10731431 -0.14721955 0.14220074 -0.17076822 0.17423002
0.5319261 0.08332514 0.72654384 0.5006665 -0.20409115 -0.40164366 0.55126506 -0.6989745
-0.14352429 0.30356434 -0.034421608 0.56392604 0.2039174 -0.56597304 0.5757304 0.40114862
-0.2423573 0.18419854 0.50960916 -0.52082825 0.19975059 0.42147344 -0.14943899 0.55761826
0.22710876 -0.014986496 0.11673683 -0.6060082 -0.5897712 0.21757396 -0.010186456 0.13747199
0.22264768 -0.38037813 0.4797304 -0.19955212 0.113940895 0.14749905 -0.033670977 -0.38431963
0.44960633 -0.4099242 0.09635328 0.48106828 -0.0014575988 -0.06759973 0.20858377 -0.18199016
-0.673873 0.6217175 -0.026695471 0.35223737 -0.52430737 -0.47984675 0.27671808 0.26887685
-0.02782739 0.19862792 0.28676876 -0.21691993 -0.23035261 0.20674273 0.18149905 -0.22190708
-0.43920925 -0.0061269123 0.16811456 0.26136932 0.59889233 -0.51848024 -0.15869536 0.076628976
-0.13610697 -0.5093695 0.09670779 -0.13543819 -0.40649566 0.4353183 0.3732312 -0.21464057
-0.079351425 -0.44967103 0.09163903 0.36114886 -0.6107395 0.36237454 -0.45853478 -0.113291666
0.06613555 -0.29521975 -0.0570955 0.078826554 -0.43849757 -0.65135986 0.5446053 -0.053806465
0.3049375 -0.5545182 -0.32239756 0.6096229 -0.3744112 -0.061149746 -0.35776412 -0.09961935
-0.5340948 -0.31228372 0.54467916 -0.3691642 -0.3669185 0.16770823 -0.39020568 -0.5401324
-0.16065317 0.20025969 0.04269949 -0.028214753 -0.5649066 0.006804146 0.50771546 -0.1832908
00000000: 0fa3 333e 03b2 0ebe 5135 8cbe f411 c2be
00000010: 8516 da3e 189a fabe 277d 743e 5e3f 2cbf
00000020: b1d8 533e 0587 053f 1fa9 6f3e d9f0 483e
00000030: 5f5e 49be 4ad7 fbbd 1e96 1f3e cdb9 c93d
00000040: 310b cc3e cc86 47be d0ec b5bc 7dcc 743e
00000050: d3dd edbe 50a6 28be 32dd 783d 35fc 04bf
00000060: bec6 123f 517f ad3e cce4 0ebb eefe 06be
00000070: 941e 003e a091 71be 635e 163f ec8e 9ebe
00000080: 9d11 eb3e ed5f 103f 1b53 4f3e 9bc7 dbbd
00000090: b9c0 16be 129d 113e dddd 2ebe 5b69 323e
000000a0: 4f2c 083f 5fa6 aa3d c7fe 393f ae2b 003f
000000b0: 45fd 50be 3da4 cdbe b51f 0d3f feef 32bf
000000c0: 08f8 12be c96c 9b3e acfd 0cbd 755d 103f
000000d0: b9cf 503e 9ce3 10bf 1163 133f 5a63 cd3e
000000e0: 832c 78be 8b9e 3c3e bf75 023f 0055 05bf
000000f0: 6b8b 4c3e 5ecb d73e 8906 19be 12c0 0e3f
00000100: 338f 683e ec89 75bc b813 ef3d 5a23 1bbf
00000110: 3ffb 16bf b5cb 5e3e 18e5 26bc 75c5 0c3e
00000120: c1fd 633e ecc0 c2be 399f f53e 6457 4cbe
00000130: d859 e93d fe09 173e 94ea 09bd 8bc5 c4be
00000140: cd32 e63e 96e1 d1be de54 c53d 954e f63e
00000150: e60c bfba ba71 8abd fc96 553e a15b 3abe
00000160: f182 2cbf e128 1f3f 76b0 dabc 7558 b43e
00000170: 0239 06bf 79ae f5be fead 8d3e 3aaa 893e
00000180: 44f6 e3bc 1e65 4b3e 5bd3 923e 4220 5ebe
00000190: 8ee1 6bbe 5eb4 533e e3da 393e 9c3b 63be
000001a0: 09e0 e0be 44c4 c8bb 3926 2c3e 33d2 853e
000001b0: 0251 193f 1fbb 04bf 0981 22be a7ef 9c3d
000001c0: a05f 0bbe 0a66 02bf bc0e c63d 4fb0 0abe
000001d0: 3320 d0be 0ae2 de3e 2918 bf3e bdca 5bbe
000001e0: 0083 a2bd 483b e6be 3ead bb3d 81e8 b83e
000001f0: 6d59 1cbf 2889 b93e 12c5 eabe 7605 e8bd
00000200: 1372 873d 0b27 97be f9dc 69bd d16f a13d
00000210: c182 e0be 85bf 26bf 416b 0b3f 2b64 5cbd
00000220: c520 9c3e e8f4 0dbf 4b11 a5be 3f10 1c3f
00000230: d3b2 bfbe 2878 7abd dc2c b7be 3b05 ccbd
00000240: 70ba 08bf a7e3 9fbe 1870 0b3f 1703 bdbe
00000250: bedc bbbe b5bb 2b3e 0ac9 c7be 1e46 0abf
00000260: 4482 24be e010 4d3e a9e5 2e3d a022 e7bc
00000270: b89d 10bf 50f5 de3b a4f9 013f 95b0 3bbe

model.0.bias f4 [32]
0.07042316 -0.0008344446 -0.21175756 -0.5352547 0.26681787 -0.22158106 -0.004091941 0.44516823
0.05617885 0.33531857 -0.43966043 0.07087732 -0.3330084 -0.23902158 -0.20355314 -0.073863655
0.018773511 0.11108197 -0.47537524 0.22585185 -0.43468103 0.33337194 0.38532013 0.41375268
0.10592956 -0.3864649 0.41732612 0.28555912 0.21004789 0.29816568 0.476992 0.046229973
00000000: 053a 903d a1be 5aba f9d6 58be 7406 09bf
00000010: 5a9c 883e 25e6 62be b015 86bb 17ed e33e
00000020: cb1b 663d e0ae ab3e 2c1b e1be 2128 913d
00000030: 1480 aabe 13c2 74be 3c70 50be d445 97bd
00000040: e8ca 993c f27e e33d 6264 f3be b545 673e
00000050: 838e debe baaf aa3e ae48 c53e 64d7 d33e
00000060: 99f1 d83d bade c5be c5ab d53e ce34 923e
00000070: cb16 573e 2ca9 983e 4c38 f43e a45b 3d3d

model.2.weight f4 [32, 32, 1, 1]
-0.0353889 -0.25017303 -0.084745586 0.07696744 -0.08366396 0.19385768 -0.08784638 -0.20326754
0.21272771 -0.014016515 0.10968445 -0.056122314 -0.067195654 0.16801688 -0.073855944 0.21980965
0.04702637 -0.3489104 -0.110990055 0.105861835 0.15022299 -0.053250622 0.029215334 0.047847986
0.015451548 0.02911658 -0.24965082 -0.13995828 0.24124599 0.02045633 -0.16107035 0.05124713
0.30872038 0.27337128 0.002299149 -0.025874047 0.23851472 -0.131833 -0.061159126 0.015895829
-0.1928684 -0.0069777933 -0.045841303 -0.4615548 -0.047159716 -0.07078715 -0.09949277 -0.023226779
-0.090035684 0.36507562 0.12904574 0.16857074 0.00017716934 0.13402875 0.13135178 -0.036979772
-0.45171213 -0.27686086 0.05524022 0.25057167 -0.072972596 0.07221556 -0.015884722 -0.31579986
0.22709206 0.1289253 0.108589746 -0.15461451 -0.0069680396 -0.25246492 -0.29424438 0.0818501
-0.5314565 -0.04307581 -0.09286916 -0.5059021 0.040121954 0.20837855 -0.10439915 -0.15752581
-0.16012517 0.3115009 0.102095485 -0.12513901 -0.11822004 -0.113389 0.15779562 -0.09153093
-0.24020995 -0.10253833 0.12841989 0.04962813 0.15030976 0.013789906 0.08086589 -0.46551904
-0.2333221 -0.17634796 -0.17871968 -0.06412316 -0.20745751 0.045555916 0.12426917 0.037392206
0.18473744 -0.06546998 -0.24842274 0.28336987 -0.13499823 -0.07463934 -0.026633585 0.085372835
0.07685075 -0.14573438 -0.18918402 0.1179398 -0.18752465 0.20410538 0.050617527 0.055614922
0.33996266 -0.20854434 -0.035516445 -0.20764661 0.17602608 0.14181903 0.07235999 0.20406216
0.39416805 0.22364369 -0.1248751 -0.14346582 0.3086303 -0.019334713 -0.21631147 0.008717229
-0.30934364 -0.019902898 -0.016834462 -0.5277537 0.08302155 0.069655955 0.24466443 -0.24002156
-0.15384607 0.2851416 -0.11153047 0.053504612 0.002512772 -0.18450017 0.031483743 0.04276007
-0.40746582 0.008313704 0.044297438 0.06300338 0.06582643 0.078047104 0.16788581 -0.23067112
0.18620928 0.16828384 -0.10179984 0.106188774 0.14404435 0.09763817 -0.19754486 0.15897426
-0.24007122 -0.0738869 0.12904872 -0.5294648 -0.15530498 0.2544339 -0.08498069 -0.21730433
-0.0992061 0.1768497 0.17414552 -0.0038791005 -0.034872577 0.054409083 0.0019972965 -0.06502047
-0.2176596 -0.15520872 0.23322372 0.22483726 -0.10407906 0.19025853 0.110966414 -0.14057992
-0.24553046 -0.21499154 -0.06291216 -0.20787391 -0.05367444 0.03646983 0.16742666 0.17979886
-0.00942274 0.16656195 -0.16659594 0.2465254 0.033459563 -0.12448957 -0.28929293 -0.0021659564
0.070983514 -0.40854135 -0.21712357 0.14458804 0.033876136 0.23947755 -0.14454065 0.1234628
0.26756293 0.04990951 -0.2114453 -0.00029061947 0.025593275 -0.10653767 0.024936255 0.21751963
-0.3140169 0.006276547 -0.15780522 0.15736489 -0.015995488 -0.0383726 0.06866084 0.043617047
0.040586818 0.0874627 0.09684094 0.116032474 -0.08628726 0.09270592 -0.19059631 0.018321743
-0.070342414 -0.25421983 0.06651397 0.009589326 0.21073131 -0.13321623 -0.105312094 -0.14056726
0.29797938 -0.08633828 0.062014844 -0.23837523 0.1204673 0.033832703 -0.18691218 0.1565061
00000000: f4f3 10bd ae16 80be 188f adbd 1ba1 9d3d
00000010: 0358 abbd a182 463e cee8 b3bd 5e25 50be
00000020: 4bd5 593e 86a5 65bc 3ea2 e03d 83e0 65bd
00000030: e09d 89bd 9e0c 2c3e c941 97bd c815 613e
00000040: b99e 403d 62a4 b2be c14e e3bd 17ce d83d
00000050: 0ed4 193e 531d 5abd ff54 ef3c 40fc 433d
00000060: 7d28 7d3c e585 ee3c 77a4 7fbe 3951 0fbe
00000070: 3009 773e 0994 a73c a0ef 24be 83e8 513d
00000080: 9910 9e3e 52f7 8b3e 52ad 163b cff5 d3bc
00000090: 343d 743e 3bff 06be fe81 7abd f837 823c
000000a0: 4b7f 45be f9a5 e4bb 17c4 3bbd e950 ecbe
000000b0: 8c2a 41bd daf8 90bd dec2 cbbd 1646 bebc
000000c0: a164 b8bd 31eb ba3e 9124 043e cf9d 2c3e
000000d0: 88c6 3939 d53e 093e 1581 063e 1a78 17bd
000000e0: d046 e7be b5c0 8dbe 9243 623d ee4a 803e
000000f0: a872 95bd c0e5 933d ad20 82bc 85b0 a1be
00000100: d28a 683e fe04 043e 4d64 de3d 4453 1ebe
00000110: 2754 e4bb 1543 81be 33a7 96be 06a1 a73d
00000120: 880d 08bf 4370 30bd 3032 bebd cd82 01bf
00000130: eb56 243d 3061 553e 39cf d5bd 724e 21be
00000140: daf7 23be 0c7d 9f3e 7017 d13d 7124 00be
00000150: 591d f2bd 7e38 e8bd 2d95 213e 9174 bbbd
00000160: 99f9 75be 9eff d1bd 8180 033e de46 4b3d
00000170: cdea 193e 0fef 613c 049d a53d 8358 eebe
00000180: fdeb 6ebe 8f94 34be 4b02 37be 0153 83bd
00000190: be6f 54be d798 3a3d d680 fe3d 9228 193d
000001a0: d02b 3d3e 2015 86bd 8862 7ebe db15 913e
000001b0: fa3c 0abe 83dc 98bd ad2e dabc f4d7 ae3d
000001c0: ed63 9d3d 653b 15be 75b9 41be 6c8a f13d
000001d0: 7606 40be 0001 513e 5354 4f3d 79cc 633d
000001e0: 960f ae3e a68c 55be b179 11bd 50a1 54be
000001f0: 2e40 343e 0239 113e 7931 943d acf5 503e
00000200: 65d0 c93e da02 653e 84be ffbd b4e8 12be
00000210: ca04 9e3e d563 9ebc c180 5dbe b5d2 0e3c
00000220: 4a62 9ebe 670b a3bc 6de8 89bc de1a 07bf
00000230: 3407 aa3d c8a7 8e3d 5089 7a3e 36c8 75be
00000240: d389 1dbe 14fe 913e 166a e4bd a727 5b3d
00000250: 52ad 243b 9ded 3cbe 19f5 003d 2f25 2f3d
00000260: 5c9f d0be 3436 083c 3b71 353d eb07 813d
00000270: 02d0 863d 29d7 9f3d 42ea 2b3e 0d35 6cbe
00000280: a5ad 3e3e 9952 2c3e 6f7c d0bd 8079 d93d
00000290: 5d80 133e 85f6 c73d 3349 4abe 26ca 223e
000002a0: 3bd5 75be 0452 97bd 5925 043e 018b 07bf
000002b0: 4508 1fbe 2945 823e 5b0a aebd 0785 5ebe
000002c0: 912c cbbd 1618 353e 3453 323e 8238 7ebb
000002d0: 8cd6 0ebd 0fdc 5e3d 13e5 023b 7429 85bd
000002e0: 28e2 5ebe 09ef 1ebe 33d2 6e3e bd3b 663e
000002f0: 6727 d5bd 22d3 423e 5c42 e33d 2ff4 0fbe
00000300: 566c 7bbe be26 5cbe 17d8 80bd e6dc 54be
00000310: bbd9 5bbd 6361 153d e571 2b3e 311d 383e
00000320: d661 1abc 378f 2a3e 2098 2abe 2871 7c3e
00000330: e50c 093d 63f4 febd 341e 94be b8f2 0dbb
00000340: ce5f 913d 552c d1be a455 5ebe e30e 143e
00000350: b4c1 0a3d 9a39 753e 7702 14be 11da fc3d
00000360: 02fe 883e ea6d 4c3d 1e85 58be 495e 98b9
00000370: fda8 d13c 6c30 dabd 1e47 cc3c 77bd 5e3e
00000380: d3c6 a0be 7eab cd3b b197 21be 4324 213e
00000390: f808 83bc 962c 1dbd 0e9e 8c3d caa7 323d
000003a0: 5d3e 263d a51f b33d 8b54 c63d 6fa2 ed3d
000003b0: 60b7 b0bd 9adc bd3d ae2b 43be 7b17 963c
000003c0: af0f 90bd 1a29 82be 7a38 883d 8c1c 1d3c
000003d0: f3c9 573e d669 08be dead d7bd ddf0 0fbe
000003e0: c190 983e 20d2 b0bd 4703 7e3d a318 74be
000003f0: 8fb7 f63d 2994 0a3d e865 3fbe 2343 203e

model.2.bias f4 [32]
0.06782935 -0.089672714 0.101198666 -0.08307595 0.07779687 -0.09563715 0.018494027 -0.06557812
0.06930305 -0.0661653 -0.021480124 -0.030709827 0.13539162 0.020634316 0.18857479 -0.15736029
-0.023882033 0.11538183 -0.005550641 0.13794537 0.020329399 0.027000923 -0.16667879 -0.09165329
0.042242367 0.06743249 0.13474444 -0.006564273 -0.0250951 -0.031952072 -0.11692897 0.14221638
00000000: 1dea 8a3d 54a6 b7bd 3f41 cf3d b923 aabd
00000010: f753 9f3d 69dd c3bd c980 973c d24d 86bd
00000020: c2ee 8d3d ac81 87bd 16f7 afbc 2d93 fbbc
00000030: 1aa4 0a3e 4c09 a93c c019 413e 0e23 21be
00000040: 41a4 c3bc 4f4d ec3d 27e2 b5bb 8d41 0d3e
00000050: d789 a63c 0a31 dd3c d8ad 2abe b8b4 bbbd
00000060: 5506 2d3d 0c1a 8a3d 72fa 093e 1d19 d7bb
00000070: 3d94 cdbc 2de0 02bd 7578 efbd 2ca1 113e

model.4.weight f4 [1, 32, 1, 1]
0.23140709 -0.20203266 -0.2427808 0.15245563 -0.16673516 -0.27273107 0.3356972 0.16064948
0.35471 -0.12210662 0.20649111 -0.21374835 0.11408811 -0.2982639 0.25485206 0.040488817
-0.24473532 0.26186678 -0.24531984 -0.27434853 0.33146065 0.2745303 0.2265491 -0.29890683
0.21654862 0.14692488 -0.26276603 0.24889977 0.16372065 0.3098752 0.107456625 0.1958426
00000000: fbf5 6c3e a6e1 4ebe 889b 78be 541d 1c3e
00000010: 9fbc 2abe 68a3 8bbe 81e0 ab3e 4c81 243e
00000020: 8d9c b53e 0913 fabd 6872 533e d9e0 5abe
00000030: 07a7 e93d 0cb6 98be f87b 823e 9ad7 253d
00000040: e59b 7abe 6713 863e 2035 7bbe 6977 8cbe
00000050: 36b5 a93e 3c8f 8c3e 7dfc 673e 510a 99be
00000060: ecbe 5d3e 7a73 163e 4589 86be 95df 7e3e
00000070: 63a6 273e f6a7 9e3e 3812 dc3d f68a 483e
