checkpoints_jonny/squeeze_1/4_net_rank.pth (torch, 7127 bytes, 5 tensors)

model.0.weight f4 [32, 5, 1, 1]
00000000: 1361 133e 6f30 17be 7101 9abe 0a87 d2be
00000010: 0c57 db3e 07f9 f3be bc75 873e cf48 2fbf
00000020: a83e 593e 8502 0d3f 46e6 833e c7f8 643e
00000030: cbee 46be 9d62 dfbd 0603 3a3e fd76 0c3e
00000040: c41b f93e 41e0 5ebe 34af 0e3b 999d a63e
00000050: 269e fdbe fad5 2fbe fb27 083d 6eae 0dbf
00000060: 806e 133f 607b b13e 05db ae3b 1679 06be
00000070: d902 083e 7e8b 72be 03d3 1f3f 9947 94be
00000080: ee3a f03e d2af 193f 3b76 583e c06e 52be
00000090: 616a 57be f8ce 183e ff2b 83be 3b4a 023e
000000a0: 07c9 0b3f d45b aa3d 9768 3f3f 4fd1 043f
000000b0: 324a 58be 711a d8be e348 0b3f a546 36bf
000000c0: 7338 2abe 7b57 9c3e 5e7a 23bc 455f 173f
000000d0: 07f3 543e e904 0dbf 67e8 193f 47c7 c93e
000000e0: f11c 90be 5198 6c3e 9d37 033f 2021 10bf
000000f0: 8eea 9c3e 5325 123f bed5 eebd 8811 273f
00000100: eb64 c13e a1e8 d9bc 5ade c93d c2c3 17bf
00000110: 2899 1abf c6d6 4f3e 6602 67bb ac91 033e
00000120: 392d 763e a033 c1be 73ba f13e 08d0 43be
00000130: 2c7e ea3d 8b82 203e cc2e b4bc 5d54 c8be
00000140: e1e9 f93e dc2a c7be 7e72 dc3d dec7 043f
00000150: 605d 033c c9a0 ddbd 7bc1 483e c96b 59be
00000160: 65f5 36bf 2eec 1e3f b635 22ba 0b6f cc3e
00000170: cdaa 08bf 40b9 edbe 1049 a53e 3e66 703e
00000180: d1b8 d6bd 4cd7 593e 58e0 873e 36d3 95be
00000190: 52fa 6fbe 06dc 4a3e a430 3f3e bc70 62be
000001a0: 291f e8be da06 78bb c98f 193e 486b 943e
000001b0: b673 1b3f 262a 0bbf f99b 7abe 477f 083d
000001c0: dc5c 0ebe caac 17bf 50e4 8a3d 8461 20be
000001d0: 5901 e7be ff01 e73e f139 b93e d59c 85be
000001e0: 2cce d1bd a120 05bf 879d 0c3e 4e9e b33e
000001f0: d85d 2ebf cf99 cb3e 397d e0be 63cf d9bd
00000200: 12b9 cd3d 3c3f 92be 17e3 a8bd cfcf 963d
00000210: 1049 edbe a13c 2ebf 6852 0c3f f38e 71bd
00000220: a1a2 a03e 63d4 12bf aee6 aabe 50dd 1f3f
00000230: 090a c7be d6cb 11be dbf1 9abe e749 cebd
00000240: 0977 1dbf c5a8 aebe 6847 093f b60a c9be
00000250: 492a ccbe bfa1 2c3e 3168 e1be f316 22bf
00000260: 4fb1 0dbe 108d 2a3e 6c97 31bd 9574 aabc
00000270: 728a 13bf 10ae 133d f767 053f af24 4dbe
0.143925 -0.1476457 -0.30079225 -0.41118652 0.4283985 -0.4765093 0.26457012 -0.6847047
0.21215308 0.5508197 0.25761622 0.22360526 -0.1942703 -0.10907481 0.18165216 0.13717265
0.48653996 -0.21765234 0.002177191 0.32542112 -0.4953472 -0.1717147 0.033241253 -0.55344284
0.57590485 0.3466444 0.0053361678 -0.13132128 0.13282336 -0.23686025 0.62431353 -0.28960875
0.4691996 0.60033906 0.21138851 -0.2055006 -0.21036674 0.14922702 -0.25619504 0.12723629
0.5460362 0.08318296 0.74768966 0.5188188 -0.21122053 -0.42207673 0.5440809 -0.71201545
-0.16623096 0.30535492 -0.009977905 0.59129745 0.20795833 -0.5508562 0.6012024 0.3940985
-0.2814708 0.23104979 0.51256734 -0.56300545 0.306477 0.570882 -0.11661862 0.65261126
0.37772307 -0.026600184 0.09856863 -0.5928308 -0.6038995 0.20296773 -0.0035249232 0.12848538
0.24040689 -0.377347 0.47212562 -0.19122326 0.114498466 0.15674798 -0.02199497 -0.39126864
0.48811248 -0.38899887 0.10764025 0.51867473 0.008017868 -0.10821683 0.19605057 -0.21232523
-0.7146819 0.6207913 -0.0006187813 0.3992847 -0.5338562 -0.46430397 0.32282305 0.23476502
-0.1048447 0.21273535 0.26538348 -0.29262704 -0.23435333 0.19810495 0.18670899 -0.22113317
-0.45336273 -0.003784588 0.14996256 0.289881 0.60723436 -0.5436119 -0.24473561 0.033324506
-0.1390261 -0.5924803 0.067818284 -0.156622 -0.45118216 0.4511871 0.36177018 -0.26096216
-0.10244402 -0.5200291 0.13731967 0.35081714 -0.68111944 0.39765784 -0.43845537 -0.10635259
0.10045065 -0.2856387 -0.08246439 0.07363855 -0.46344805 -0.6806126 0.5481324 -0.058974218
0.31374076 -0.57355326 -0.3337912 0.6244707 -0.38874844 -0.14237913 -0.30262646 -0.100726895
-0.6150976 -0.34113136 0.5362458 -0.39265984 -0.3987601 0.16858576 -0.44024804 -0.6331627
-0.13837169 0.16655374 -0.043357298 -0.020807544 -0.57633126 0.03605467 0.5211176 -0.20033525

model.0.bias f4 [32]
00000000: 62a1 903d 02d2 bcba 94bb 5bbe 9bfe 08bf
00000010: 1b14 873e 407d 62be 03c6 bbba 34b1 e33e
00000020: 83b6 763d 2604 ab3e c9e9 e2be eca4 953d
00000030: 8144 78be 8ef5 79be 120e 59be 0302 96bd
00000040: d542 a43c e53a e13d 6097 f3be c1b6 663e
00000050: def5 ddbe f685 aa3e 0f17 c53e ac00 d43e
00000060: ad32 cf3d a795 c5be a72a d43e b25f 913e
00000070: 25da 5a3e bf38 973e df79 f53e 4fce 4b3d
0.07062031 -0.0014405849 -0.21458274 -0.535135 0.26382527 -0.22118092 -0.001432598 0.44471133
0.06023265 0.33401603 -0.4431899 0.07306847 -0.24244882 -0.24410078 -0.21196774 -0.073246025
0.0200514 0.10997561 -0.47576427 0.22530653 -0.43351644 0.3330533 0.38494155 0.41406763
0.101170875 -0.38590738 0.4143879 0.28393322 0.21372278 0.2953548 0.47944543 0.049757298

model.2.weight f4 [32, 32, 1, 1]
00000000: fdd8 24bd f58e 81be 8fea a2bd d0c0 a23d
00000010: b547 afbd 82ac 453e fb8a cabd b6db 50be
00000020: 490e 503e 2fc5 5abc b21c f43d 557a 70bd
00000030: 304d bcbd 85ef 343e 8fef 61bd c121 643e
00000040: e2ba 143d ac3d b6be 34c3 d7bd 56d1 cd3d
00000050: eb7f 1d3e 8f9f 70bd e1a1 ec3c 47af 2f3d
00000060: 975e dd3c 6265 f83c 3f20 80be e629 0fbe
00000070: babb 843e 1de3 a83c 9a04 28be 8c3b 2f3d
00000080: 6eaf a23e ebd8 833e 55dc 78ba 594a edbc
00000090: a6f3 7a3e 9cc2 08be 3f6f c6bd e88a 983c
000000a0: 1a14 61be cc17 cbbb c850 4ebd 27d5 febe
000000b0: e85d 9dbd 0f48 84bd 6502 edbd 953f 7ebc
000000c0: a54a fcbd f979 c13e 89ad 053e 142e 293e
000000d0: a3a7 733b e674 033e 312d 0f3e 308e 1cbd
000000e0: 142b fabe f1b9 8dbe 5d56 783d 9b9c 803e
000000f0: 552d 97bd 8085 9f3d 69ae 7dbc e45a afbe
00000100: 335d 703e 3580 d13d 3042 d93d 31ec 20be
00000110: 95ea baba 400c 81be a036 b6be 4090 aa3d
00000120: 6e5a 13bf 3f6e 37bd 3c0a c5bd 673c 0dbf
00000130: 7c08 a438 7150 613e b4ea f7bd eb23 12be
00000140: 4006 5fbe 3ced a53e 63a2 d93d bc7a 06be
00000150: e6dc e1bd a69b fabd e837 2b3e 54e3 c2bd
00000160: 0b27 8dbe 484b ccbd 21ff 073e ba07 413d
00000170: 936f 1f3e 47e8 9b3c 6930 a23d 77e5 01bf
00000180: 3963 87be 7f43 6abe 740d 3dbe 8d83 8ebd
00000190: 9f96 5dbe f995 473d 0e22 cc3d 2738 1c3d
000001a0: 9d52 393e d657 90bd 0ccf 81be aeac 9a3e
000001b0: 2277 42be f988 96bd 0bf3 05bd 4fd9 de3d
000001c0: 6c4d 7f3d 0ab5 36be 9b00 44be cfdc f83d
000001d0: c9d8 38be 75dd 553e 3f10 5d3d 9b4d 6f3d
000001e0: 764d c33e 679a 51be d78a 26bd 6858 60be
000001f0: 8ad1 553e 53e0 0f3e 092b 963d 9f97 523e
00000200: 8b22 ce3e 4c4a 523e 19a9 febd 4f7d 12be
00000210: 074c a03e 24a9 93bc cf79 84be 92b6 073c
00000220: 81a6 afbe 3bd8 b4bc 1b70 8dbc c9e9 11bf
00000230: a9bc 5b3d 1d30 a53d 5abf 6d3e 19bc 6abe
00000240: f8ca 46be af7c 983e 62fc d8bd 3f1e 3c3d
00000250: 1e7d 1e3c 0a59 47be 135d 193d c8ac 193d
00000260: 4f9f e5be 2b56 3e3c bda1 413d 8bf3 793d
00000270: ee14 7f3d 3743 a63d d8ab 283e 002c 87be
00000280: 314b 473e d367 163e d48f d6bd 6f74 d33d
00000290: c6cf 193e a973 c63d 02df 7abe 5a07 253e
000002a0: 32a5 8cbe 311c 98bd 6f23 003e 1fcb 11bf
000002b0: 7d41 44be 6fcf 863e be35 cfbd 2af3 52be
000002c0: e8a0 12be 683d 423e e824 353e 2bd1 0bbc
000002d0: a40b efbc c57c 413d 092f 363c f1f1 89bd
000002e0: f46a 81be 908d 1dbe d5f0 733e 1a50 653e
000002f0: fd57 cfbd 4f8d 483e 912b e23d 701a 32be
00000300: 7aab 8abe b65c 80be 870a 8cbd deed 59be
00000310: 7fd1 7abd 655e 1d3d 2f62 1a3e 7530 393e
00000320: 2b78 22bc 4824 273e bcc9 2fbe f88b 873e
00000330: 3f91 53bc 652a 00be 3606 97be 4964 6b3c
00000340: 1b99 7e3d c754 dfbe 7342 61be 4030 183e
00000350: 89e3 1c3d 3b96 7a3e 10ba 11be c9c5 013e
00000360: 1afd 9c3e 8ce6 553d e1df 5cbe c9ff 0ebc
00000370: 00c9 583d 3296 dcbd 2601 d93c b1b7 623e
00000380: 936f a4be 0258 cb3b 5183 20be 73b8 203e
00000390: 5115 9abc 2928 22bd b3a5 873d 4fe4 343d
000003a0: 9df3 243d cdf5 b43d 6486 cf3d 3df2 013e
000003b0: e3eb d4bd 80c3 c13d 6717 34be 14c3 993c
000003c0: 7787 93bd a83e 87be 4501 893d 9b24 253c
000003d0: 10b6 573e 0809 07be 2278 d9bd 69d6 0fbe
000003e0: e917 a73e 86f6 b1bd a90f 793d 7b3b 74be
000003f0: bfc3 0d3e a62a 093d ab07 3fbe 2de2 213e
-0.040246 -0.2530438 -0.07954895 0.07946932 -0.08558599 0.19304088 -0.0988979 -0.20396313
0.2031795 -0.013352676 0.11919536 -0.058710415 -0.0919441 0.17669494 -0.0551601 0.22278501
0.036311038 -0.35593927 -0.10535279 0.10049693 0.15380828 -0.058745917 0.028885784 0.042891767
0.027022643 0.03032178 -0.25024602 -0.13980827 0.25924474 0.020616109 -0.16408005 0.042781398
0.31774467 0.25751433 -0.0009493281 -0.028966116 0.24507007 -0.13355488 -0.09689187 0.018620923
-0.21980324 -0.006197905 -0.050370008 -0.49771997 -0.07683927 -0.064590566 -0.11572722 -0.015518089
-0.12318925 0.3778837 0.1305448 0.16521484 0.0037178777 0.12837562 0.13982083 -0.038221538
-0.4886099 -0.27680925 0.060629237 0.2511948 -0.07381693 0.07789135 -0.015483477 -0.34249032
0.23473053 0.10229532 0.106083274 -0.157151 -0.0014260585 -0.25204659 -0.3558855 0.08328295
-0.5755986 -0.044782873 -0.09621093 -0.5517029 7.82171e-05 0.22003342 -0.12105313 -0.14271514
-0.21779728 0.32407558 0.10626676 -0.13132757 -0.11028461 -0.12236719 0.16720545 -0.09516016
-0.2756885 -0.09975296 0.13280918 0.04712651 0.15569906 0.019031657 0.0791939 -0.5074076
-0.26442888 -0.2287731 -0.18462163 -0.06958685 -0.21639489 0.04872701 0.09967433 0.03813949
0.1809792 -0.070480034 -0.25353277 0.3020987 -0.18990758 -0.07350344 -0.032702487 0.10881292
0.062329695 -0.17842498 -0.19140856 0.12151491 -0.18051447 0.2088526 0.05397057 0.05842362
0.38145036 -0.20469056 -0.04065975 -0.21908724 0.20880714 0.14050417 0.07332427 0.20565651
0.4026073 0.20536155 -0.124345966 -0.14305614 0.31308004 -0.018024988 -0.25874183 0.008283274
-0.3430672 -0.022075763 -0.01726537 -0.5699735 0.053646717 0.080658175 0.23217526 -0.22923316
-0.19413364 0.29782626 -0.10595013 0.045927282 0.009673385 -0.1946756 0.037442278 0.037518293
-0.44848105 0.011617224 0.047273386 0.061023276 0.06227582 0.08118289 0.16471803 -0.26400757
0.19462277 0.14688043 -0.10476652 0.10324942 0.15020666 0.09690029 -0.24499133 0.16116086
-0.27469784 -0.07427252 0.12513517 -0.56950563 -0.19165607 0.26330134 -0.101176724 -0.20600572
-0.14319193 0.18968737 0.1768986 -0.008533756 -0.029180355 0.04723813 0.0111196125 -0.067356
-0.2527691 -0.15386033 0.23822339 0.22393838 -0.10124204 0.19585155 0.11043466 -0.17392898
-0.2708395 -0.25070733 -0.068379454 -0.21282145 -0.061234947 0.0384201 0.15076517 0.18084891
-0.009916346 0.16322434 -0.171668 0.26473975 -0.012913047 -0.12516172 -0.29496926 0.014367172
0.06215773 -0.43619367 -0.21998005 0.14862156 0.038302932 0.24471371 -0.14231133 0.12673105
0.3066185 0.05222182 -0.21569778 -0.008727976 0.052926064 -0.10770835 0.026489805 0.22140385
-0.32116374 0.0062055597 -0.15675093 0.15695362 -0.018808993 -0.03958908 0.066234015 0.044163045
0.04027139 0.08835945 0.10133055 0.12690063 -0.10396554 0.09461117 -0.17587052 0.018769778
-0.07203572 -0.2641499 0.06689695 0.010079528 0.21065545 -0.13187039 -0.10618617 -0.14046635
0.3263543 -0.08689599 0.06080595 -0.23850815 0.13844202 0.03348794 -0.18655269 0.15808935

model.2.bias f4 [32]
00000000: 1a83 863d bdd6 b5bd 4d2b cd3d 34ac a8bd
00000010: 73fe 993d fad0 c3bd 9d25 a23c 0b2c 85bd
00000020: 8aed 8c3d 0388 80bd 4cb5 b2bc 720f 00bd
00000030: db46 0d3e 4ed2 a83c a9b7 403e 0faa 20be
00000040: 0d3b c0bc 7190 ee3d 101c b7bb cc32 0a3e
00000050: 3ea8 ad3c f64e f33c 360a 2bbe 37e5 bcbd
00000060: f50d 363d 2eb5 8c3d 8a40 073e f17d 1cbc
00000070: 2317 cdbc 7f48 ffbc 7eee efbd 51a6 103e
0.065679744 -0.08878849 0.100180246 -0.0823597 0.075192355 -0.095613435 0.019793326 -0.06502541
0.068812445 -0.06275942 -0.021814965 -0.03126473 0.1379656 0.020608094 0.18820061 -0.15689872
-0.023465658 0.11648644 -0.005588062 0.1349594 0.021198388 0.029700737 -0.16703114 -0.09223407
0.044446904 0.06870495 0.13208213 -0.009551511 -0.025035447 -0.031162499 -0.11715411 0.14125945

model.4.weight f4 [1, 32, 1, 1]
00000000: 82e8 703e a9e6 61be 7830 8fbe 0561 373e
00000010: b9a3 3ebe 9671 97be 93de b43e 21b1 2a3e
00000020: 2e07 c63e c793 3abe 0c62 563e d2d1 71be
00000030: 3ea3 ff3d 1012 afbe 5161 963e 04a8 2e3d
00000040: 5adb 8ebe b060 943e 1b50 8bbe 6819 93be
00000050: 6afe b63e 1ac9 a93e d3fa 693e 3f51 a5be
00000060: 3aaa 693e 08e4 2b3e 3dfb 92be 2610 813e
00000070: b869 283e 7ccd aa3e 881b e13d a2f9 633e
0.23526195 -0.22060646 -0.27966666 0.17908104 -0.18617143 -0.29578847 0.3532606 0.16669132
0.38677353 -0.18220435 0.2093584 -0.23615196 0.12482308 -0.34193468 0.29371122 0.0426407
-0.27901727 0.28980017 -0.27209553 -0.2873032 0.35740978 0.3316124 0.22849588 -0.32288548
0.22818843 0.16786206 -0.28707305 0.25207633 0.16446579 0.33359897 0.10991579 0.22263196
