checkpoints_jonny/squeeze_1/8_net_rank.pth (torch, 7127 bytes, 5 tensors)

model.0.weight f4 [32, 5, 1, 1]
0	0x3d9164bc	0.07099292
1	0xbe30e6ee	-0.17275593
2	0xbeb3addb	-0.3509358
3	0xbef68ccd	-0.48154297
4	0x3ed9261a	0.42411882
5	0xbeda455d	-0.42631045
6	0x3eb24d47	0.34824583
7	0xbf323ac6	-0.6962093
8	0x3e7be622	0.24599507
9	0x3f230213	0.6367504
10	0x3ea32c59	0.31869772
11	0x3e925aa3	0.28584775
12	0xbe307fa2	-0.17236188
13	0xbd878185	-0.06616501
14	0x3e72d33a	0.23713389
15	0x3e754324	0.23951393
16	0x3f3c1bb1	0.73479754
17	0xbe8a267a	-0.2698248
18	0x3d9a8bfb	0.075462304
19	0x3f117732	0.568225
20	0xbf13a774	-0.5767739
21	0xbe48b680	-0.19600868
22	0xbce13db4	-0.027495243
23	0xbf23d4d2	-0.63996613
24	0x3f11d3a8	0.56963587
25	0x3eb93aff	0.36177823
26	0x3cf3d519	0.029764699
27	0xbe118ff5	-0.14215071
28	0x3e16bafd	0.14719768
29	0xbe691050	-0.22760129
30	0x3f403ee2	0.7509595
31	0xbe5e7d8e	-0.21727583
32	0x3ef1576d	0.47137013
33	0x3f385f9e	0.720209
34	0x3e858016	0.26074284
35	0xbeda1fed	-0.42602482
36	0xbebbc555	-0.3667399
37	0x3e38f03d	0.18060394
38	0xbee5e495	-0.44900957
39	0x3a871e8c	0.0010308786
40	0x3f17145a	0.5901543
41	0x3dceee42	0.10104038
42	0x3f472f10	0.77806187
43	0x3f1105d7	0.56649536
44	0xbe558bdc	-0.20854133
45	0xbeec8176	-0.4619252
46	0x3f0571c7	0.52126735
47	0xbf39fef2	-0.7265464
48	0xbe559aed	-0.20859881
49	0x3e99114e	0.29896015
50	0x3d78fa56	0.060785614
51	0x3f3050d7	0.6887335
52	0x3e64d774	0.22347814
53	0xbeff9686	-0.49919528
54	0x3f312dbb	0.69210404
55	0x3ebd65ef	0.36991832
56	0xbec2e108	-0.3806231
57	0x3ea6fb4a	0.32613593
58	0x3f0225cd	0.5083893
59	0xbf2a1f8f	-0.66454405
60	0x3f052515	0.5200971
61	0x3f59d885	0.8509601
62	0xbdf61333	-0.12015381
63	0x3f5578a9	0.8338724
64	0x3f2240d3	0.63380164
65	0xbd58d5c3	-0.052938234
66	0x3d620bb0	0.055186927
67	0xbf10348a	-0.5633017
68	0xbf220340	-0.6328621
69	0x3e2d23ef	0.16908239
70	0x3d629965	0.05532207
71	0x3e3f3d94	0.18675834
72	0x3e89c60a	0.26908904
73	0xbeaad28c	-0.3336376
74	0x3f06de79	0.52683216
75	0xbe519229	-0.20465912
76	0x3db8b577	0.09018987
77	0x3e2ac904	0.16678244
78	0xbcce3ae6	-0.02517457
79	0xbed9300f	-0.42419478
80	0x3f1c820e	0.6113595
81	0xbea24a2b	-0.3169721
82	0x3ddf3e28	0.10900527
83	0x3f2288f5	0.6349023
84	0x3d698e4f	0.05702048
85	0xbe56e55f	-0.20985936
86	0x3e22bb77	0.15891825
87	0xbe8b61b8	-0.2722299
88	0xbf501f51	-0.81297785
89	0x3f1b3d50	0.6064043
90	0x3d852100	0.06500435
91	0x3efd8ceb	0.49521574
92	0xbf07bf21	-0.53026015
93	0xbed5c361	-0.41750625
94	0x3ed449f3	0.4146267
95	0x3e1de896	0.15420756
96	0xbe92d23a	-0.28676015
97	0x3e7aa4bc	0.24476904
98	0x3e55a47f	0.20863532
99	0xbef25b93	-0.4733549
100	0xbe89cd6a	-0.2691453
101	0x3e1bd293	0.15217046
102	0x3e3f6555	0.18690999
103	0xbe7932a3	-0.24335723
104	0xbf010ff6	-0.5041498
105	0xbba2cbc1	-0.004968137
106	0x3de5279a	0.11189194
107	0x3ead62eb	0.3386453
108	0x3f1d9fab	0.6157176
109	0xbf183765	-0.59459525
110	0xbee34bb6	-0.443937
111	0xbd93a690	-0.07209504
112	0xbe029667	-0.12752686
113	0xbf48858c	-0.78328776
114	0xbc36367c	-0.0111213885
115	0xbe59b7f2	-0.21261576
116	0xbf0e5e8f	-0.55613035
117	0x3ef164df	0.4714727
118	0x3ea5c259	0.32374838
119	0xbebc2444	-0.36746418
120	0xbe19e0fd	-0.15027232
121	0xbf2cd902	-0.6751863
122	0x3e614d67	0.22002183
123	0x3ea6cdd7	0.32578918
124	0xbf55cad3	-0.8351261
125	0x3eefcfbc	0.46838176
126	0xbec600a4	-0.38672364
127	0xbde173d0	-0.110084176
128	0x3e2b1903	0.1670876
129	0xbe814db6	-0.252546
130	0xbe12d60f	-0.1433947
131	0x3d5ced84	0.05393745
132	0xbf02ae13	-0.51046866
133	0xbf3f55f0	-0.74740505
134	0x3f0b63d4	0.544492
135	0xbd713c87	-0.058895614
136	0x3ead534e	0.3385262
137	0xbf1ad31a	-0.60478365
138	0xbeb11b6d	-0.34591237
139	0x3f287354	0.65800977
140	0xbedce30a	-0.43141967
141	0xbeabe416	-0.33572453
142	0xbe57a771	-0.21059968
143	0xbdf69290	-0.12039673
144	0xbf4ed1a5	-0.8078864
145	0xbed73104	-0.42029583
146	0x3f009c95	0.50238925
147	0xbedef589	-0.43546703
148	0xbef61e48	-0.48069978
149	0x3e1c8c9f	0.15288018
150	0xbf109a1c	-0.5648515
151	0xbf5d8180	-0.86525726
152	0xbdd368ea	-0.10322745
153	0x3d9555dd	0.07291768
154	0xbe83e514	-0.2576071
155	0xbbbc7318	-0.005751025
156	0xbf19e676	-0.6011728
157	0x3dc3556f	0.095377795
158	0x3f0c04e0	0.5469494
159	0xbe70aaa4	-0.23502594

model.0.bias f4 [32]
0	0x3d98d73a	0.07462926
1	0x3a2fe79c	0.00067102327
2	0xbe5f1c52	-0.21788147
3	0xbf0700f3	-0.52735823
4	0x3e835a53	0.2565485
5	0xbe6340f6	-0.2219275
6	0xb9ee5d91	-0.0004546461
7	0x3edfbfb2	0.4370094
8	0x3d847703	0.06468012
9	0x3ea9f5cd	0.33195344
10	0xbee3d260	-0.4449644
11	0x3d93454f	0.07190954
12	0xbdf343be	-0.11878155
13	0xbe7e4372	-0.24830416
14	0xbe5f8e2a	-0.21831575
15	0xbd979bdd	-0.074027754
16	0x3ca7d6f4	0.02048824
17	0x3ddcfcaa	0.10790379
18	0xbef22e2c	-0.4730085
19	0x3e5dd54c	0.21663398
20	0xbedd5bf0	-0.43234205
21	0x3ea7c320	0.32766056
22	0x3ec459ee	0.3834986
23	0x3ed1d9b1	0.40986398
24	0x3dbf7d38	0.093500555
25	0xbec5c7c7	-0.3862898
26	0x3ed17657	0.409106
27	0x3e90d1ce	0.28285068
28	0x3e5df857	0.21676765
29	0x3e944338	0.28957534
30	0x3ef29e52	0.47386414
31	0x3d583267	0.052782442

model.2.weight f4 [32, 32, 1, 1]
0	0xbd440188	-0.047853023
1	0xbe7ce406	-0.24696359
2	0xbd862daa	-0.065516785
3	0x3db5c3fd	0.088752724
4	0xbdb5922c	-0.08865771
5	0x3e4399fa	0.19101706
6	0xbdf419c3	-0.11918976
7	0xbe525f02	-0.20544055
8	0x3e3b0ddb	0.18267004
9	0xbc3fe2ce	-0.011711789
10	0x3e11c647	0.14235793
11	0xbd53357d	-0.051564682
12	0xbde61008	-0.112335265
13	0x3e44b858	0.19210947
14	0xbc1abf4d	-0.009445024
15	0x3e62dbd2	0.22154167
16	0x3c68d036	0.014209798
17	0xbebce070	-0.36889982
18	0xbdbf65c1	-0.0934558
19	0x3dbdc7a0	0.09266591
20	0x3e21dadd	0.15806146
21	0xbd8ee9f7	-0.06978219
22	0x3cc0bc57	0.023527307
23	0x3d083570	0.033254087
24	0x3da9d003	0.08291628
25	0x3cff863f	0.031191943
26	0xbe805a06	-0.25068682
27	0xbe0c44c2	-0.13698104
28	0x3e99c45e	0.3003263
29	0x3ca3e99d	0.020008856
30	0xbe2dfcaf	-0.16990922
31	0x3cd10b99	0.025518226
32	0x3eaa193e	0.33222383
33	0x3e517f3b	0.20458691
34	0xbc8e92d4	-0.017403997
35	0xbd37373a	-0.044730403
36	0x3e82ed11	0.25571492
37	0xbe0a6371	-0.13514496
38	0xbe3ca85a	-0.18423596
39	0x3cf0b781	0.029384376
40	0xbe8bae9d	-0.27281657
41	0xbbdae5c6	-0.006680223
42	0xbd8c8fc8	-0.068633616
43	0xbf12736a	-0.5720736
44	0xbe643188	-0.2228452
45	0xbd538b0b	-0.051646274
46	0xbe23c393	-0.15992574
47	0x3c21a052	0.0098648835
48	0xbe4c12b1	-0.19929005
49	0x3ecd6b4e	0.4012093
50	0x3e0318aa	0.12802377
51	0x3e28e95d	0.16495271
52	0x3c66d97d	0.014089939
53	0x3df9b095	0.121918835
54	0x3e276eed	0.16350909
55	0xbd144fbc	-0.036208853
56	0xbf10ced4	-0.56565595
57	0xbe8d8c98	-0.27646327
58	0x3d8d6897	0.069047146
59	0x3e7c7a57	0.24656044
60	0xbd98fc92	-0.07470049
61	0x3db7b9fb	0.0897102
62	0xbc1e2e42	-0.009654583
63	0xbec9befb	-0.3940352
64	0x3e7cd9d0	0.24692464
65	0x3cf86db4	0.030325748
66	0x3db99a23	0.09062602
67	0xbe3057b9	-0.17220964
68	0x3bd8482f	0.006600402
69	0xbe7f1bf2	-0.24913004
70	0xbefc10e1	-0.49231628
71	0x3dbcd621	0.09220529
72	0xbf2858ee	-0.65760696
73	0xbd4d8179	-0.050172303
74	0xbde73102	-0.112886444
75	0xbf243c85	-0.64154845
76	0xbe42f171	-0.19037415
77	0x3e7893cf	0.24275135
78	0xbe2b0a60	-0.16703176
79	0xbdd71eab	-0.10503896
80	0xbeaddc63	-0.33957204
81	0x3eb18953	0.34675083
82	0x3ddd7a24	0.10814312
83	0xbe0a2a70	-0.13492751
84	0xbdbbf666	-0.09177856
85	0xbe0a0281	-0.13477518
86	0x3e44bd00	0.19212723
87	0xbdc73c73	-0.09728327
88	0xbeb36009	-0.35034207
89	0xbdc16679	-0.09443373
90	0x3e0dc0d4	0.1384309
91	0x3d14db9b	0.036342245
92	0x3e269266	0.16266784
93	0x3cef14c2	0.029184703
94	0x3da79972	0.08183564
95	0xbf15ca71	-0.58512026
96	0xbea7f6f4	-0.32805598
97	0xbeb639a5	-0.35590854
98	0xbe457ff5	-0.19287093
99	0xbda2ee03	-0.079555534
100	0xbe70d821	-0.23519947
101	0x3d69c32f	0.057070907
102	0x3d019e20	0.03164494
103	0x3d2c9cd8	0.042141765
104	0x3e22a08f	0.1588156
105	0xbda83373	-0.08212938
106	0xbe83a676	-0.25712937
107	0x3eacbd70	0.3373828
108	0xbeb1ecd7	-0.34751007
109	0xbd78e135	-0.06076165
110	0xbd12004e	-0.03564482
111	0x3e26644b	0.16249196
112	0x3c575759	0.013143384
113	0xbe7be7e6	-0.24600181
114	0xbe435c9f	-0.19078301
115	0x3e062da0	0.13103342
116	0xbe24523b	-0.16046993
117	0x3e577791	0.21041705
118	0x3d79a4b7	0.0609481
119	0x3d74aeba	0.059736945
120	0x3ef70b4d	0.4825081
121	0xbe47ffac	-0.19531125
122	0xbd51ef9e	-0.051253907
123	0xbe795114	-0.24347335
124	0x3e902776	0.28155106
125	0x3e0cbaa3	0.13743071
126	0x3d9a3861	0.07530285
127	0x3e48854a	0.19582096
128	0x3ed4c7ff	0.41558835
129	0x3e169115	0.14703782
130	0xbe0b1099	-0.1358055
131	0xbe1dd3f2	-0.15412882
132	0x3ea4061b	0.32035908
133	0xbc763206	-0.015026575
134	0xbeb7d254	-0.35902655
135	0x3c7150b8	0.0147287175
136	0xbed06fcf	-0.40710303
137	0xbcddfcc6	-0.02709807
138	0xbcf6621d	-0.030076081
139	0xbf272b20	-0.6530018
140	0xbdd2f58c	-0.103007406
141	0x3dcdfd4b	0.100580774
142	0x3e45b3cb	0.19306867
143	0xbe4b35f5	-0.19844802
144	0xbe9100c5	-0.283209
145	0x3ea40a3d	0.3203906
146	0xbdd2863d	-0.1027951
147	0x3d23d346	0.039996408
148	0x3cd1f74d	0.025630618
149	0xbe547297	-0.20746838
150	0x3d6cd2f2	0.05781836
151	0x3d0b1e00	0.033964157
152	0xbf07c6aa	-0.5303751
153	0x3c899730	0.016795725
154	0x3d54a795	0.05191763
155	0x3d553d66	0.052060507
156	0x3d6ea28d	0.05826049
157	0x3db6cbd4	0.08925596
158	0x3e298950	0.16556287
159	0xbea6fe99	-0.32616118
160	0x3e540284	0.20704085
161	0x3da28a5c	0.07936546
162	0xbdf7f14c	-0.121065706
163	0x3db2f524	0.08738163
164	0x3e22cca2	0.15898374
165	0x3dc96b32	0.09834899
166	0xbeba1f54	-0.36352026
167	0x3e2f28c3	0.17105393
168	0xbeb0a802	-0.3450318
169	0xbda00bd3	-0.07814755
170	0x3ddc5bed	0.10759721
171	0xbf265fbc	-0.6498983
172	0xbebe1957	-0.37128708
173	0x3e90a4c6	0.28250712
174	0xbe161c35	-0.14659198
175	0xbe2f9c1b	-0.17149393
176	0xbe7d5fc0	-0.24743557
177	0x3e594dfc	0.21221155
178	0x3e352e1b	0.17693369
179	0xbc25b4a5	-0.01011387
180	0xbc57d3cb	-0.013173054
181	0x3d19679b	0.03745232
182	0x3d1434f7	0.036183324
183	0xbd8a8d5c	-0.067652434
184	0xbea5c80c	-0.32379186
185	0xbe19c9c7	-0.15018378
186	0x3e7a9877	0.24472223
187	0x3e5beccf	0.21477054
188	0xbdc1cad3	-0.09462514
189	0x3e53a8f2	0.20669916
190	0x3dea92cb	0.1145378
191	0xbe762295	-0.2403663
192	0xbea6758a	-0.3251155
193	0xbeb1c263	-0.34718618
194	0xbd99cfc4	-0.07510331
195	0xbe6250c7	-0.22101127
196	0xbda11226	-0.0786479
197	0x3d3e0733	0.046393584
198	0x3dbbba99	0.0916645
199	0x3e3c2422	0.18373159
200	0xbcf3c8ff	-0.029758928
201	0x3e1c14c1	0.15242292
202	0xbe327b01	-0.17429735
203	0x3e98aa73	0.29817542
204	0xbe1d4fee	-0.15362522
205	0xbde87533	-0.11350479
206	0xbe980501	-0.29691318
207	0x3d72ba97	0.059259977
208	0x3c9a0b69	0.018804269
209	0xbefd42bd	-0.4946498
210	0xbe6029f1	-0.21891
211	0x3e20af73	0.15691929
212	0x3d6661c3	0.056245577
213	0x3e7b9b77	0.24571024
214	0xbe0cb70b	-0.137417
215	0x3e027262	0.12738946
216	0x3ece7291	0.40321782
217	0x3d79fd55	0.061032612
218	0xbe676ae0	-0.22599363
219	0xbcf80af8	-0.030278668
220	0x3df2819b	0.118411265
221	0xbde451a2	-0.11148383
222	0x3ce32991	0.027729781
223	0x3e5a0363	0.21290354
224	0xbea90b78	-0.33016562
225	0x3c63410a	0.013870487
226	0xbe144bb9	-0.14482011
227	0x3e28d323	0.16486792
228	0xbcb75d5f	-0.02238339
229	0xbd29d475	-0.04146238
230	0x3d585450	0.05281478
231	0x3d2fa37a	0.042880513
232	0x3cda6308	0.02665855
233	0x3db86a2c	0.09004626
234	0x3df8cf07	0.12148862
235	0x3e13a17e	0.14417073
236	0xbdeef4de	-0.116677985
237	0x3dd84c34	0.105614096
238	0xbe0862a9	-0.13318886
239	0x3c863abb	0.016385427
240	0xbdb26624	-0.08710888
241	0xbe8ec925	-0.27887836
242	0x3d9b6085	0.07586769
243	0x3bb9c056	0.00566868
244	0x3e5a1fb5	0.21301158
245	0xbe0e291e	-0.13882872
246	0xbde53ef5	-0.11193649
247	0xbe16dc9d	-0.14732595
248	0x3ec9ad46	0.3939001
249	0xbdb18a1d	-0.08668921
250	0x3d75f5af	0.060048755
251	0xbe7174bf	-0.23579691
252	0x3e381916	0.1797832
253	0x3d05826e	0.03259509
254	0xbe43559a	-0.19075623
255	0x3e17c844	0.14822489

model.2.bias f4 [32]
0	0x3d7b6f22	0.06138528
1	0xbdb1fc74	-0.0869073
2	0x3dc84536	0.09778826
3	0xbdb0389c	-0.086045474
4	0x3d937307	0.07199674
5	0xbdc57f1b	-0.09643384
6	0x3c817f1c	0.01580768
7	0xbd8b3956	-0.06798045
8	0x3d84e89e	0.06489681
9	0xbd62cc08	-0.05537036
10	0xbcd06dc1	-0.02544296
11	0xbd060b0a	-0.03272537
12	0x3e0af3a4	0.13569504
13	0x3c98b478	0.018640742
14	0x3e3ce740	0.1844759
15	0xbe2371ef	-0.15961431
16	0xbcccdb2b	-0.025006851
17	0x3de5eadc	0.112264365
18	0xbbd62748	-0.0065354444
19	0x3e045dfc	0.12926477
20	0x3c89fb82	0.016843561
21	0x3d0b7df7	0.034055676
22	0xbe2e7a05	-0.17038734
23	0xbdbff0e1	-0.09372116
24	0x3d2be852	0.041969605
25	0x3d84904c	0.06472835
26	0x3e03ce11	0.12871577
27	0xbc786f17	-0.015163205
28	0xbcf30d61	-0.029669465
29	0xbd14adb0	-0.036298454
30	0xbdf7236c	-0.12067303
31	0x3e0a121a	0.13483468

model.4.weight f4 [1, 32, 1, 1]
0	0x3e78b878	0.24289119
1	0xbe8a088e	-0.26959652
2	0xbec3a9ea	-0.38215572
3	0x3e87f98b	0.26557574
4	0xbe745557	-0.2386068
5	0xbebe936c	-0.3722185
6	0x3ecb35ab	0.39689383
7	0x3e3b4f55	0.18291982
8	0x3ef2e030	0.47436666
9	0xbeb259ba	-0.3483408
10	0x3e5c7570	0.21529174
11	0xbe977ca1	-0.29587272
12	0x3e109f6c	0.14123315
13	0xbef0521b	-0.46937642
14	0x3ed1a8df	0.4094915
15	0x3d47b6fe	0.0487585
16	0xbec41927	-0.3830044
17	0x3ec0ff4a	0.3769477
18	0xbeb8764a	-0.36027747
19	0xbea9553c	-0.3307284
20	0x3ee129e6	0.43977278
21	0x3efadd82	0.48997122
22	0x3e6e8333	0.23292236
23	0xbecc29d0	-0.3987565
24	0x3e827cee	0.2548594
25	0x3e65c908	0.22439969
26	0xbeb3325a	-0.34999353
27	0x3e85d8f6	0.2614209
28	0x3e2c327b	0.16816132
29	0x3ecf4402	0.40481573
30	0x3debfbff	0.11522674
31	0x3ea0b3fe	0.31387323
