checkpoints_jonny/squeeze_1/9_net_rank.pth (torch, 7127 bytes, 5 tensors)

model.0.weight f4 [32, 5, 1, 1]
00000000: 5588 863d 12a5 33be 16b2 b4be b7fd f8be
00000010: ff8e d83e 426e d7be 6c5b b63e 56e3 31bf
00000020: 1228 803e d0fe 243f 6849 a63e 4766 953e
00000030: e6e0 2cbe 8883 7bbd c80c 783e 141e 7f3e
00000040: f3ea 413f fc60 8dbe 2a72 a93d 430f 173f
00000050: e4d7 15bf 5e15 4cbe 5240 04bd 700e 26bf
00000060: 075a 113f 6a0b b93e a133 043d de94 14be
00000070: 0c54 163e 9874 67be 333e 433f 034d 57be
00000080: 4560 f03e 9d27 3b3f 6a3f 883e 5c2c e2be
00000090: 0f22 c2be 004a 3d3e 21a5 ecbe 6c3f 19bc
000000a0: b8d5 173f bc3d d13d b99c 473f e8ce 113f
000000b0: 9291 55be 7371 edbe d9e4 043f a5d6 39bf
000000c0: dfa0 57be 6f83 983e 59e6 8a3d 1921 333f
000000d0: cf40 673e 5fbc fcbe ffd6 333f 0f13 bc3e
000000e0: 0ac9 c6be be72 a93e dbda 013f 330c 2cbf
000000f0: d0f7 083f ac1b 5e3f 277b f6bd 57ac 583f
00000100: 56e6 253f 2b4b 5fbd 59c7 4c3d 6300 0fbf
00000110: 7767 22bf a790 283e 0a93 813d 4974 513e
00000120: b7ff 883e 4da1 a7be 446c 0b3f d6ec 54be
00000130: 673c b23d b892 293e 50a4 e1bc 3fef dabe
00000140: b06e 1f3f 1e94 9ebe 5297 da3d 0b3c 253f
00000150: 7b3f 803d 38a9 5ebe 680f 1f3e 7fb1 8cbe
00000160: 63e6 51bf 24bf 1a3f 175b 913d 9b1b 003f
00000170: a4c3 06bf 8c56 d3be d39c d63e 90ce 163e
00000180: 9acf 9abe 5c06 7c3e 273e 503e c13f fabe
00000190: 2140 8cbe 7ca8 163e ff23 3d3e 0a09 7dbe
000001a0: e258 02bf 32fe cabb ad45 de3d f19e ae3e
000001b0: eb79 1d3f 774d 19bf 993e ebbe 2859 a5bd
000001c0: 32b9 ffbd d13d 4cbf 0648 93bc 5f2c 5fbe
000001d0: f484 10bf ee20 f13e ebac a33e e765 c0be
000001e0: 662f 1ebe b5ce 2fbf 8ffc 643e f070 a53e
000001f0: d0aa 58bf ed68 f13e d9ce c3be f111 e7bd
00000200: 85cb 2d3e 9c6d 7fbe aedf 18be 4dd0 513d
00000210: a679 03bf 31f0 40bf 62fd 0a3f 4a10 6ebd
00000220: a154 ae3e 301d 1bbf 632c b1be 4012 293f
00000230: 146a debe 28cd b3be fe6d 51be 8fbb f9bd
00000240: 50c8 52bf d72c dbbe f035 ff3e fd4c e0be
00000250: 951f fabe 72e5 193e ea3f 13bf 3b30 62bf
00000260: 5414 d1bd bdae 843d 9d43 8cbe c375 cdbb
00000270: 65cf 1abf d4f5 cb3d f921 0c3f c9bd 74be
0.06568972 -0.17543438 -0.3529212 -0.4863107 0.42296597 -0.42076308 0.35616624 -0.6948751
0.2503057 0.64451313 0.3247788 0.29179594 -0.16882667 -0.061404735 0.24223626 0.24913818
0.7574913 -0.27613056 0.08273728 0.5900766 -0.5853255 -0.19930026 -0.032287903 -0.6486578
0.56777996 0.3614152 0.0322758 -0.14509913 0.14680499 -0.2260307 0.76266783 -0.21025471
0.46948448 0.7310732 0.2661088 -0.4417447 -0.3791661 0.1848526 -0.46219733 -0.0093535
0.59310484 0.10216853 0.77973515 0.5695634 -0.20856312 -0.46375617 0.51911694 -0.72593147
-0.21057461 0.29787776 0.067822166 0.6997238 0.22583316 -0.49362466 0.70249933 0.3673329
-0.38825256 0.33095354 0.5072457 -0.67206115 0.5350313 0.86760974 -0.12035208 0.8463797
0.6480459 -0.054515045 0.0499948 -0.55859965 -0.63439125 0.1646143 0.063268736 0.20454516
0.26757595 -0.3274025 0.54462075 -0.2079347 0.08702927 0.16559875 -0.02754417 -0.42760655
0.6227827 -0.3097238 0.10673393 0.64544743 0.06262108 -0.2174424 0.15533221 -0.2747917
-0.8199217 0.6044791 0.07097452 0.5004212 -0.52642274 -0.41276968 0.41916522 0.14727235
-0.30236512 0.24611801 0.20336209 -0.48876765 -0.27392676 0.14712709 0.18470763 -0.2471048
-0.50916874 -0.006194853 0.10853133 0.34105638 0.6151416 -0.59883827 -0.45946196 -0.08073646
-0.12486495 -0.79781824 -0.01797868 -0.2179427 -0.5645287 0.47095436 0.31967863 -0.37577745
-0.15447769 -0.68674785 0.22361968 0.32312727 -0.8463564 0.47150365 -0.3824375 -0.11282719
0.16972168 -0.24944156 -0.14929077 0.05122404 -0.51357496 -0.75366503 0.5429288 -0.058121003
0.34048942 -0.6059141 -0.34604177 0.6604347 -0.43440306 -0.3511746 -0.20452115 -0.12193977
-0.823369 -0.42807648 0.4984584 -0.43808737 -0.4885222 0.15028933 -0.575194 -0.88354844
-0.102089554 0.06478641 -0.27395335 -0.006270142 -0.6047271 0.09958997 0.5473934 -0.23900522

model.0.bias f4 [32]
00000000: 3040 9b3d 9728 af3a f2aa 5ebe 2795 06bf
00000010: 9c0c 833e 51c7 63be b2dd 1dba 2294 df3e
00000020: d813 843d f12f aa3e 5191 e3be a321 933d
00000030: 813f eabd 1155 7ebe cbac 5ebe 818d 98bd
00000040: cbab a73c 6f69 de3d eeeb f1be 89b8 5c3e
00000050: cc9d ddbe b855 a73e e95c c43e 928a d13e
00000060: f45d be3d 1111 c6be 9e3e d13e cafc 903e
00000070: 85ad 5d3e 5a1b 943e 8f46 f23e 750f 573d
0.07580602 0.0013363537 -0.21744898 -0.5257134 0.25595558 -0.22244002 -0.000602211 0.43667704
0.064490974 0.332397 -0.44446805 0.0718415 -0.11437894 -0.24837138 -0.21745603 -0.07448865
0.02046766 0.108599536 -0.47250313 0.2155477 -0.43284452 0.32682586 0.38352135 0.40926033
0.09295264 -0.38684896 0.40868086 0.28317863 0.21648224 0.28927118 0.47319457 0.052504975

model.2.weight f4 [32, 32, 1, 1]
00000000: d67e 45bd 0770 7bbe cd5a 82bd 4b6a b93d
00000010: 9708 b6bd 0d8d 433e 80b5 f7bd 06af 52be
00000020: 26e1 383e 79f2 3cbc 41c2 143e 5802 51bd
00000030: f4c1 e6bd 774b 463e e4d1 5dbb 7653 623e
00000040: 0021 463c 5439 bdbe 785d bcbd fe61 bc3d
00000050: fb36 223e af84 91bd 6d77 b93c faa5 033d
00000060: 7181 b23d ef39 003d 3052 80be 9abd 0bbe
00000070: fe72 9b3e 88e3 a23c 04c9 2ebe f789 c23c
00000080: 2e90 aa3e a19a 4c3e cd73 a4bc b11b 43bd
00000090: 2f70 833e 2ce3 0abe 2ae1 42be e3f5 fd3c
000000a0: f0fe 8cbe 9109 d1bb 3d36 93bd 4397 13bf
000000b0: aa36 6ebe f090 53bd 2fdb 2abe dad2 423c
000000c0: f6eb 50be 222d ce3e 3dab 013e a2d3 293e
000000d0: 76ac 6c3c 23d6 fa3d 4100 2a3e 45b0 0fbd
000000e0: 13f0 11bf 29cb 8dbe 7b28 8f3d be2a 7c3e
000000f0: fb54 99bd 4066 ba3d b527 07bc 200d cbbe
00000100: 0f08 7d3e 6f37 bf3c c6de b53d 7485 32be
00000110: b6c2 d93b 6c65 7ebe ccd9 00bf 244b be3d
00000120: 56c3 29bf ff2c 51bd 3c22 ecbd a9ca 25bf
00000130: c3f9 50be 0838 7a3e 75bf 31be d558 cfbd
00000140: a996 b2be f5ff b13e dfef dc3d 9344 0abe
00000150: 4f30 b8bd 82c3 0abe f8a0 463e 7c40 c7bd
00000160: b2d5 b5be 8bea bfbd 3d96 0d3e f058 0e3d
00000170: d930 263e 3e46 f23c fe60 a83d 6125 17bf
00000180: 2499 aabe 5576 bbbe 2e47 45be 0114 a3bd
00000190: 61cf 72be e0ac 6d3d 0f70 ce3c 03d9 2c3d
000001a0: df6e 1f3e e097 aabd 4e3d 83be e669 ad3e
000001b0: eba2 b7be 4b4b 70bd c641 0dbd 58df 2a3e
000001c0: ef63 013c e9bd 80be f569 42be 3d76 063e
000001d0: 5f1f 22be e980 563e 84ea 783d 82dd 713d
000001e0: a559 fa3e e7ea 46be b691 56bd e05b 7bbe
000001f0: 469a 923e 6b0d 0c3e 6d95 993d 675b 463e
00000200: 383b d53e 3ca4 113e 9798 0dbe 2799 20be
00000210: 2b7a a43e 87b7 7bbc e518 bbbe 6985 843c
00000220: 19ea d1be 16a6 dcbc 92b8 07bd 8469 28bf
00000230: bf43 e7bd 7865 ce3d 3fc8 3e3e a508 49be
00000240: 039a 93be 34ca a43e 59fb d4bd ee87 263d
00000250: 1023 d63c 7c19 54be 0976 763d 5fea 0e3d
00000260: 81f6 08bf 15ef 863c b8a2 573d 1b8a 533d
00000270: 3759 6d3d 1731 b93d ebc7 2a3e a780 a8be
00000280: fe8e 543e 62d7 953d 18c5 fcbd 4d90 ad3d
00000290: c75c 233e e796 c93d d7c6 bebe bc6f 303e
000002a0: 9ecd b2be e4a1 a0bd 8b56 d63d 3eb4 27bf
000002b0: 1c86 c4be b00d 913e 5e29 1dbe 947d 2cbe
000002c0: 2e79 82be eb89 5a3e 1243 343e 4c36 1dbc
000002d0: b162 45bc 8f4e 193d f999 1d3d 9641 89bd
000002e0: 6002 a8be 2aaf 19be 89fb 7a3e 49ed 5a3e
000002f0: b2d4 c1bd ac96 543e 6c90 ec3d 5c3e 7abe
00000300: b535 a8be 9b59 b5be c7f5 9abd 1e2d 63be
00000310: 0fb2 a2bd c51d 3e3d 3a89 b03d c70c 3d3e
00000320: b827 04bd 55e0 1b3e aa72 32be f078 993e
00000330: 4159 27be 07de e5bd 8cce 97be afa1 7e3d
00000340: 7f7f 6b3c 0129 ffbe 9909 60be 46a9 213e
00000350: 2b12 6b3d fc65 7b3e 3300 0cbe 3f8d 023e
00000360: 8dbc d13e d985 7a3d 458d 67be b741 ffbc
00000370: 5b30 fd3d 95c1 e3bd 6f3f e73c 6861 583e
00000380: 9124 a9be 2e6b 773c 9145 12be 85b2 2a3e
00000390: c889 b8bc af40 2bbd 1928 4f3d 3483 2e3d
000003a0: 2073 c53c 40d4 b83d 7238 ff3d 6d80 133e
000003b0: 2eee f0bd da2a dc3d cff4 01be 0894 823c
000003c0: 81a1 b7bd 1807 8fbe 81d7 9e3d 72f5 9a3b
000003d0: 4f9f 5a3e 52cb 0fbe 10e7 e6bd fd34 18be
000003e0: 0575 cb3e 068e b1bd 7a72 763d 5de4 70be
000003f0: 5f7f 3b3e f13f 053d 0834 44be 8c7e 153e
-0.048216663 -0.24554454 -0.06364975 0.09053477 -0.08888357 0.19096775 -0.12095165 -0.20574579
0.18054637 -0.011532419 0.14527227 -0.051027626 -0.112674624 0.19364725 -0.0033847028 0.2210215
0.012092829 -0.369578 -0.09197515 0.09198378 0.15841286 -0.071053855 0.022639954 0.03214071
0.08716095 0.03130525 -0.25062704 -0.13646546 0.3036117 0.019883886 -0.17068869 0.023747427
0.33313125 0.19980861 -0.02007475 -0.04763383 0.25671527 -0.13563222 -0.19031206 0.031001037
-0.27538252 -0.006379314 -0.071880795 -0.5765268 -0.2326304 -0.051651895 -0.16685174 0.011891091
-0.20402512 0.4026881 0.12662978 0.16584638 0.014445415 0.122478746 0.1660166 -0.035080213
-0.5700695 -0.2769406 0.06990143 0.2462568 -0.07486912 0.09101534 -0.008249213 -0.3965845
0.24710105 0.023341862 0.08880381 -0.17433721 0.006645526 -0.24843377 -0.5033233 0.09291676
-0.66313684 -0.051068302 -0.11529967 -0.6476236 -0.20407777 0.24435437 -0.17358191 -0.10124365
-0.3488057 0.34765592 0.10787939 -0.13502721 -0.08993589 -0.13551143 0.19397342 -0.09729096
-0.355146 -0.093709074 0.13826843 0.034752786 0.16229571 0.02957451 0.08221625 -0.5904141
-0.33319962 -0.36613718 -0.19265434 -0.079628 -0.23711921 0.058026195 0.025199918 0.042199146
0.15569638 -0.08329749 -0.2563271 0.33869857 -0.35866484 -0.058665555 -0.034486555 0.16686761
0.007897361 -0.2514489 -0.18985732 0.13131042 -0.1583228 0.20947613 0.060770527 0.059049137
0.48896518 -0.19425546 -0.052385055 -0.24546766 0.28633326 0.13676994 0.07499204 0.19370805
0.41646743 0.14222807 -0.1382774 -0.15683423 0.32124457 -0.015363581 -0.3654243 0.016176896
-0.40998915 -0.026934665 -0.033135004 -0.65786004 -0.112922184 0.100779474 0.18631075 -0.19632204
-0.2882844 0.3218552 -0.10399503 0.040656976 0.026139766 -0.20712847 0.06017116 0.034891482
-0.53501135 0.016471425 0.052645415 0.05164538 0.05794641 0.09042566 0.16677825 -0.32910654
0.20757672 0.07316472 -0.1234228 0.08474789 0.1595336 0.098432355 -0.37261078 0.17230123
-0.34922498 -0.07843378 0.104657255 -0.655094 -0.38383567 0.28330755 -0.15347812 -0.16844779
-0.25483078 0.21341674 0.1760371 -0.009595465 -0.012047456 0.037428435 0.038476918 -0.06701963
-0.32814312 -0.15008226 0.24510016 0.2137958 -0.094643965 0.20760602 0.11550984 -0.2443785
-0.32853475 -0.35419926 -0.075664096 -0.2218518 -0.07944118 0.04641511 0.08619924 0.18461905
-0.03226444 0.15222295 -0.17426553 0.2997508 -0.16342641 -0.11223989 -0.2964977 0.062165912
0.014373659 -0.4983597 -0.21878661 0.15787229 0.057390373 0.24550623 -0.13671951 0.12749194
0.40964165 0.061162803 -0.22612484 -0.031159265 0.12362739 -0.11120907 0.02822849 0.21130908
-0.3303571 0.015101237 -0.1428435 0.16669662 -0.022526637 -0.041809734 0.05057535 0.042605594
0.024102747 0.090248585 0.12461938 0.1440446 -0.11764179 0.10750361 -0.12691043 0.015939727
-0.08966351 -0.279351 0.07755948 0.0047289664 0.21349834 -0.14042404 -0.112745404 -0.14863963
0.39737716 -0.08669667 0.060167767 -0.23524614 0.18310307 0.032531682 -0.19160473 0.14599055

model.2.bias f4 [32]
00000000: c140 793d 3b81 b0bd 7e51 c73d 7a32 b2bd
00000010: 0796 943d 4b26 c5bd a0c4 803c f571 8cbd
00000020: f40e 833d 6a29 5fbd 8651 d5bc c996 04bd
00000030: 1588 0a3e 9437 983c 9c95 3b3e d605 24be
00000040: c20f cfbc c865 e43d 466f dbbb e070 053e
00000050: 6345 843c f6eb 093d ad16 2fbe de80 c0bd
00000060: bef7 2a3d c3c6 833d 7b1e 043e 365c 81bc
00000070: 5ce9 f7bc 9961 15bd d057 f8bd e0f0 083e
0.06085277 -0.08618399 0.0973234 -0.08701034 0.07255178 -0.096264444 0.015718758 -0.06857673
0.063993365 -0.054482855 -0.02603985 -0.032370362 0.13528474 0.01858119 0.1831879 -0.16017851
-0.025276069 0.11152226 -0.0066966144 0.1303134 0.016146367 0.033672296 -0.17098494 -0.093995795
0.04174017 0.06434395 0.12902252 -0.01579104 -0.030262642 -0.03647003 -0.12126124 0.13373137

model.4.weight f4 [1, 32, 1, 1]
00000000: b754 793e cf4f 8cbe 9283 c8be 73dd 8b3e
00000010: b912 79be c878 c2be 561c cd3e ced1 3c3e
00000020: 2a80 f63e 1913 b9be 6cf3 5c3e 7427 9abe
00000030: c9be 113e 73ab f6be f3d3 d63e 1a1b 4a3d
00000040: 7656 c9be 30f6 c43e b3c0 bcbe 9f9e abbe
00000050: 11e0 e43e 6c8a 003f a1dd 6e3e 6c07 d0be
00000060: af9e 833e fbe4 6a3e fbe6 b5be e04b 863e
00000070: 0397 2c3e fa6a d23e 88d4 ec3d 7a13 a53e
0.24348722 -0.2740464 -0.3916288 0.2731739 -0.24323548 -0.37982774 0.4006068 0.18439409
0.48144656 -0.36147383 0.21577233 -0.30108225 0.14232935 -0.4817768 0.4195858 0.049342252
-0.39323777 0.38469076 -0.36865768 -0.33519456 0.447022 0.50211215 0.23326732 -0.40630662
0.25707003 0.22938912 -0.35527787 0.26229763 0.16854481 0.41097242 0.115639746 0.32241422
