checkpoints_jonny/squeeze_1/latest_net_rank.pth (torch, 7127 bytes, 5 tensors)

model.0.weight f4 [32, 5, 1, 1]
0.06275698 -0.17632191 -0.35477886 -0.48908365 0.42282668 -0.41867554 0.3599119 -0.6949349
0.25175047 0.6482047 0.3270154 0.29433933 -0.1677521 -0.059831277 0.24442305 0.25328687
0.76773226 -0.27991816 0.085671686 0.59978914 -0.5899761 -0.20051563 -0.03557217 -0.653476
0.56727177 0.36165005 0.033140805 -0.14571898 0.14706695 -0.22565803 0.7684362 -0.20740104
0.46931195 0.7365412 0.26814917 -0.44833925 -0.38439307 0.1866444 -0.46751276 -0.013572617
0.59486383 0.102216244 0.7816346 0.5715026 -0.20907056 -0.46516007 0.5184791 -0.72662616
-0.21214774 0.2977844 0.070607394 0.7049021 0.2263026 -0.49158597 0.7074101 0.3668563
-0.39134198 0.33374023 0.5075013 -0.6750904 0.5414614 0.8747255 -0.12039281 0.851635
0.6539563 -0.05575623 0.048260212 -0.5575387 -0.6357017 0.1632778 0.066690445 0.21390249
0.26537225 -0.32491535 0.5538493 -0.20900857 0.08532319 0.16580524 -0.028119527 -0.42946085
0.6284467 -0.30674398 0.10637635 0.6507928 0.064788274 -0.22119002 0.15410918 -0.2767752
-0.8234543 0.60405564 0.07330156 0.50264674 -0.5251024 -0.41108677 0.42106047 0.14467701
-0.30952653 0.2475263 0.20160088 -0.4958541 -0.27563533 0.14476882 0.18433332 -0.24825168
-0.51152223 -0.0063281744 0.10643092 0.3433422 0.6154077 -0.60139793 -0.46657234 -0.084239654
-0.12421492 -0.8044998 -0.020622155 -0.21989736 -0.5685139 0.47148132 0.31837437 -0.37974513
-0.15573487 -0.6917559 0.22597605 0.32264087 -0.851215 0.47313845 -0.38087416 -0.113403864
0.17120904 -0.24846575 -0.1527859 0.05024353 -0.5161827 -0.75741345 0.5425545 -0.05829687
0.34162673 -0.6073823 -0.34671357 0.66183263 -0.4349435 -0.35793865 -0.20072286 -0.12176473
-0.8301599 -0.4321956 0.49699762 -0.44027546 -0.4927748 0.14949273 -0.5793888 -0.8916432
-0.10122782 0.061651085 -0.28107515 -0.0061231805 -0.60660434 0.10236428 0.54811054 -0.24104856
00000000: bb86 803d bb8d 34be 93a5 b5be 2c69 fabe
00000010: bd7c d83e a45c d6be 5f46 b83e 41e7 31bf
00000020: 70e5 803e bef0 253f 906e a73e a5b3 963e
00000030: 35c7 2bbe a411 75bd 094a 7a3e d1ae 813e
00000040: 1a8a 443f 6f51 8fbe a374 af3d c88b 193f
00000050: ac08 17bf f853 4dbe 20b4 11bd 344a 27bf
00000060: b938 113f 322a b93e a7be 073d 5b37 15be
00000070: b898 163e e612 67be 3cb8 443f f060 54be
00000080: a849 f03e f78d 3c3f d94a 893e b98c e5be
00000090: 2bcf c4be b61f 3f3e d55d efbe af5f 5ebc
000000a0: ff48 183f c056 d13d 3519 483f ff4d 123f
000000b0: 9816 56be 7629 eebe 0cbb 043f 2c04 3abf
000000c0: 423d 59be 3277 983e 9c9a 903d 7774 343f
000000d0: debb 673e 28b1 fbbe d418 353f 97d4 bb3e
000000e0: fa5d c8be 00e0 aa3e 9beb 013f b9d2 2cbf
000000f0: 379d 0a3f 03ee 5f3f 8190 f6bd c004 5a3f
00000100: ae69 273f a560 64bd 80ac 453d dbba 0ebf
00000110: 59bd 22bf 4c32 273e 0095 883d 4109 5b3e
00000120: dfde 873e 4e5b a6be 11c9 0d3f 5806 56be
00000130: edbd ae3d d9c8 293e ec5a e6bc 4be2 dbbe
00000140: e2e1 203f 8c0d 9dbe d8db d93d 5b9a 263f
00000150: b7af 843d a37f 62be ccce 1d3e 7bb5 8dbe
00000160: e7cd 52bf 64a3 1a3f 211f 963d 75ad 003f
00000170: 1c6d 06bf f779 d2be 3d95 d73e 3626 143e
00000180: 437a 9ebe 8977 7d3e 7670 4e3e 97e0 fdbe
00000190: 1320 8dbe 473e 143e e0c1 3c3e b035 7ebe
000001a0: 1ff3 02bf 935c cfbb 74f8 d93d 8dca af3e
000001b0: 5c8b 1d3f 37f5 19bf 92e2 eebe d785 acbd
000001c0: 6464 febd b3f3 4dbf cbef a8bc c62c 61be
000001d0: 208a 11bf 0066 f13e f701 a33e f46d c2be
000001e0: f678 1fbe ea16 31bf 4466 673e 2f31 a53e
000001f0: 3ae9 59bf 343f f23e f001 c3be 4940 e8bd
00000200: 6c51 2f3e ce6d 7ebe e873 1cbe 29cc 4d3d
00000210: 8d24 04bf d9e5 41bf dae4 0a3f b3c8 6ebd
00000220: b3e9 ae3e 687d 1bbf 7184 b1be dd6d 293f
00000230: eab0 debe bc43 b7be 4b8a 4dbe c95f f9bd
00000240: 5c85 54bf be48 ddbe 7976 fe3e c96b e1be
00000250: fb4c fcbe 9f14 193e d352 14bf bb42 64bf
00000260: 8850 cfbd d985 7c3d 15e9 8fbe f6a4 c8bb
00000270: 6c4a 1bbf 5da4 d13d f950 0c3f 6fd5 76be

model.0.bias f4 [32]
0.07612473 0.0010603504 -0.21798953 -0.5257015 0.2553915 -0.22242135 -0.00069946324 0.4374412
0.06458694 0.3323556 -0.4449579 0.07245001 -0.11343156 -0.24862622 -0.21766569 -0.07421605
0.020423977 0.10881697 -0.47291872 0.21580325 -0.43238005 0.32673827 0.38376194 0.40954104
0.09331584 -0.3870453 0.40820885 0.28290132 0.21709287 0.28895435 0.47376886 0.05275444
00000000: 48e7 9b3d 75fb 8a3a a638 5fbe 6094 06bf
00000010: adc2 823e 6cc2 63be 2f5c 37ba 4bf8 df3e
00000020: 2846 843d 832a aa3e 86d1 e3be ac60 943d
00000030: ce4e e8bd df97 7ebe c1e3 5ebe 96fe 97bd
00000040: 2f50 a73c 6edb de3d 6722 f2be 87fb 5c3e
00000050: eb60 ddbe 3d4a a73e 727c c43e 5daf d13e
00000060: 601c bf3d cd2a c6be c000 d13e 71d8 903e
00000070: 984d 5e3e d3f1 933e d591 f23e 0a15 583d

model.2.weight f4 [32, 32, 1, 1]
-0.048790555 -0.24509555 -0.06319127 0.0910054 -0.08899713 0.19072744 -0.12141027 -0.20559677
0.18019333 -0.011255959 0.14620791 -0.049899038 -0.112842426 0.19388351 -0.0007959418 0.22073638
0.011572698 -0.37033927 -0.0917421 0.092307344 0.15830734 -0.071099475 0.022407094 0.03208128
0.090079345 0.031112822 -0.25049746 -0.136139 0.30582342 0.019962568 -0.17065586 0.02364877
0.33401862 0.19809255 -0.021328963 -0.049036037 0.25744432 -0.13602105 -0.19296114 0.03183884
-0.27677286 -0.0060523893 -0.07341057 -0.5791157 -0.23666725 -0.05165697 -0.17024547 0.012492737
-0.20617563 0.40385205 0.12598857 0.16607869 0.014445078 0.12266055 0.1672834 -0.03456393
-0.5726364 -0.2773105 0.07050828 0.24637954 -0.075274564 0.091796495 -0.0075635463 -0.39810565
0.24752338 0.020396577 0.08803078 -0.17529735 0.006814842 -0.24814573 -0.508575 0.09323335
-0.66616094 -0.051428672 -0.1163514 -0.6511692 -0.21012296 0.24524958 -0.17676587 -0.09964104
-0.35335377 0.34843805 0.10788195 -0.13535942 -0.08909691 -0.13606152 0.19484717 -0.09741705
-0.35795265 -0.09339393 0.13828328 0.03413468 0.16170144 0.029819852 0.082320966 -0.59343225
-0.33549678 -0.37057903 -0.19323705 -0.08032773 -0.23758118 0.057876877 0.022748996 0.042841036
0.15494896 -0.08324616 -0.25665104 0.3401225 -0.36354408 -0.058393866 -0.03462751 0.16835858
0.006062655 -0.25395322 -0.19012494 0.13220811 -0.15796188 0.20976558 0.061179552 0.059430946
0.49285185 -0.19437498 -0.052398458 -0.24584602 0.28922713 0.13697864 0.07552631 0.19347537
0.41733718 0.14046933 -0.1394554 -0.1581616 0.32192433 -0.015687719 -0.36825913 0.016946828
-0.41153568 -0.026669856 -0.034588575 -0.66063404 -0.11708443 0.10086532 0.18298024 -0.1956627
-0.29061705 0.32300964 -0.10455552 0.04079567 0.02621065 -0.20703927 0.06137767 0.035325434
-0.5376763 0.01616734 0.053196844 0.0517133 0.057473596 0.09114906 0.16738729 -0.33080006
0.20829731 0.07082379 -0.12452288 0.08348047 0.16005538 0.09830975 -0.37665674 0.17295794
-0.3514268 -0.07837957 0.10327831 -0.65818256 -0.3890791 0.28368634 -0.15686317 -0.167389
-0.25822777 0.21445769 0.17564018 -0.009573323 -0.011692931 0.037314698 0.039630223 -0.066748284
-0.33081296 -0.15018265 0.24548522 0.21361318 -0.09504588 0.20819607 0.11598309 -0.24665818
-0.32997465 -0.35707942 -0.07665143 -0.22295092 -0.07934233 0.04579382 0.08427838 0.18568395
-0.032665867 0.1527595 -0.17499396 0.30134973 -0.1675769 -0.11240312 -0.29703343 0.06293898
0.012988242 -0.4999945 -0.21947186 0.15912959 0.057246108 0.246186 -0.13586454 0.12828478
0.4135272 0.060574558 -0.22563826 -0.030986244 0.12673971 -0.110529944 0.029179467 0.21137701
-0.33093283 0.015549334 -0.14238535 0.1671665 -0.022639487 -0.042046454 0.050160386 0.042756308
0.023788083 0.090526 0.1255533 0.1451429 -0.11776854 0.10773844 -0.124331355 0.015654013
-0.090134315 -0.28011397 0.07779233 0.0050515067 0.2133926 -0.14046943 -0.112977795 -0.14869878
0.40021765 -0.08688951 0.060298394 -0.23491882 0.1853178 0.03261126 -0.19157144 0.14592278
00000000: 9bd8 47bd 54fa 7abe 6d6a 81bd 0a61 ba3d
00000010: 2144 b6bd 0e4e 433e f3a5 f8bd f687 52be
00000020: 9a84 383e ea6a 38bc 87b7 153e ef62 4cbd
00000030: ee19 e7bd 6689 463e c0a6 50ba b808 623e
00000040: 6a9b 3d3c 1c9d bdbe 48e3 bbbd a20b bd3d
00000050: 521b 223e 9a9c 91bd 158f b73c a967 033d
00000060: 857b b83d 51e0 fe3c 3441 80be 0668 0bbe
00000070: e394 9c3e 8a88 a33c 69c0 2ebe 11bb c13c
00000080: 7d04 ab3e c6d8 4a3e 14ba aebc 03da 48bd
00000090: becf 833e 1a49 0bbe 9b97 45be 7269 023d
000000a0: 2cb5 8dbe 1f53 c6bb 4858 96bd ed40 14bf
000000b0: e658 72be 4296 53bd d454 2ebe 56ae 4c3c
000000c0: b41f 53be b2c5 ce3e 2603 013e 8810 2a3e
000000d0: 0cab 6c3c 7435 fb3d 574c 2b3e e892 0dbd
000000e0: 4d98 12bf a4fb 8dbe a566 903d eb4a 7c3e
000000f0: 8d29 9abd cdff bb3d a0d7 f7bb 81d4 cbbe
00000100: c576 7d3e b916 a73c 7b49 b43d 2681 33be
00000110: 0a4f df3b ea19 7ebe f931 02bf 20f1 be3d
00000120: 8689 2abf dfa6 52bd a549 eebd 06b3 26bf
00000130: 792a 57be b522 7b3e 1d02 35be 9a10 ccbd
00000140: c9ea b4be 7966 b23e 36f1 dc3d a99b 0abe
00000150: 7178 b6bd b653 0bbe 0486 473e 9782 c7bd
00000160: 9245 b7be 5145 bfbd 229a 0d3e ced0 0b3d
00000170: 1095 253e c348 f43c e597 a83d 2deb 17bf
00000180: 3cc6 abbe 89bc bdbe efdf 45be dd82 a4bd
00000190: 7b48 73be 4e10 6d3d 1a5c ba3c 157a 2f3d
000001a0: f1aa 1e3e f67c aabd c467 83be 8924 ae3e
000001b0: 7322 babe 682e 6fbd 93d5 0dbd 3166 2c3e
000001c0: 3ca9 c63b 2806 82be 1db0 42be 9061 073e
000001d0: c2c0 21be cacc 563e 6997 7a3d dd6d 733d
000001e0: 1457 fc3e 3c0a 47be c49f 56bd 0fbf 7bbe
000001f0: 9415 943e 2144 0c3e 8aad 9a3d 681e 463e
00000200: 38ad d53e 31d7 0f3e 65cd 0ebe 1df5 21be
00000210: 44d3 a43e 8883 80bc 768c bcbe 13d4 8a3c
00000220: ceb4 d2be be7a dabc c0ac 0dbd 501f 29bf
00000230: f6c9 efbd 7a92 ce3d 2c5f 3b3e ce5b 48be
00000240: c2cb 94be 8561 a53e 3421 d6bd 5c19 273d
00000250: b8b7 d63c 1a02 54be 2767 7b3d 67b1 103d
00000260: 27a5 09bf 5f71 843c efe4 593d 53d1 533d
00000270: 6f69 6b3d 5cac ba3d 9367 2b3e a05e a9be
00000280: e44b 553e 100c 913d da05 ffbd cff7 aa3d
00000290: 8fe5 233e 9f56 c93d 27d9 c0be e31b 313e
000002a0: 37ee b3be 7885 a0bd 9483 d33d a77e 28bf
000002b0: 6035 c7be 563f 913e bda0 20be 0668 2bbe
000002c0: 6e36 84be cc9a 5b3e 05db 333e 6dd9 1cbc
000002d0: b593 3fbc 4cd7 183d 4d53 223d 53b3 88bd
000002e0: 5160 a9be 7bc9 19be 7a60 7b3e 6abd 5a3e
000002f0: 6aa7 c2bd 5a31 553e 8b88 ed3d f693 7cbe
00000300: 70f2 a8be 1dd3 b6be 6dfb 9cbd 3f4d 64be
00000310: 3b7e a2bd 4d92 3b3d 259a ac3d ef23 3e3e
00000320: a5cc 05bd fd6c 1c3e 9e31 33be 834a 9a3e
00000330: 4799 2bbe 9b33 e6bd c414 98be 27e6 803d
00000340: a3cc 543c 47ff ffbe 3bbd 60be def2 223e
00000350: e57a 6a3d 2f18 7c3e 1320 0bbe 165d 033e
00000360: d6b9 d33e 071d 783d b70d 67be ddd6 fdbc
00000370: 0ec8 013e 865d e2bd c709 ef3c 3773 583e
00000380: 0770 a9be a2c2 7e3c 77cd 11be b22d 2b3e
00000390: 7276 b9bc e738 2cbd fa74 4d3d 3d21 2f3d
000003a0: 3adf c23c b265 b93d 0b91 003e 57a0 143e
000003b0: a230 f1bd f9a5 dc3d 70a1 febd d83c 803c
000003c0: 5798 b8bd 196b 8fbe 9651 9f3d 1c87 a53b
000003d0: 9783 5a3e 38d7 0fbe e760 e7bd 7e44 18be
000003e0: 54e9 cc3e 21f3 b1bd 73fb 763d 8f8e 70be
000003f0: f3c3 3d3e 6293 053d 4e2b 44be c86c 153e

model.2.bias f4 [32]
0.060939074 -0.085760355 0.09706992 -0.08680963 0.07290301 -0.09610533 0.01636674 -0.06848967
0.064347975 -0.05400177 -0.025953572 -0.032122824 0.1356504 0.01839014 0.18320805 -0.16011912
-0.025555339 0.11181055 -0.0065766913 0.13061522 0.016438305 0.03399686 -0.17089862 -0.09385176
0.042319268 0.064805664 0.12923639 -0.015769484 -0.030208834 -0.03593971 -0.121173374 0.13385788
00000000: 409b 793d 20a3 afbd 98cc c63d 3fc9 b1bd
00000010: 2c4e 953d dfd2 c4bd 8b13 863c 5044 8cbd
00000020: dfc8 833d f630 5dbd 969c d4bc 3993 03bd
00000030: f0e7 0a3e eba6 963c e49a 3b3e 44f6 23be
00000040: 6e59 d1bc eefc e43d 4981 d7bb ffbf 053e
00000050: a0a9 863c 4b40 0b3d 0c00 2fbe 5a35 c0bd
00000060: f856 2d3d d5b8 843d 8b56 043e 012f 81bc
00000070: 8478 f7bc 8435 13bd bf29 f8bd 0a12 093e

model.4.weight f4 [1, 32, 1, 1]
0.2438345 -0.2767462 -0.39693147 0.27797738 -0.24598677 -0.38417926 0.40341565 0.18500954
0.48597017 -0.36809555 0.21597917 -0.30423275 0.14381315 -0.48842153 0.4256685 0.04949802
-0.39897615 0.38956717 -0.37339225 -0.33775353 0.45163822 0.5089302 0.23333937 -0.41068882
0.25914422 0.23286337 -0.3584276 0.26266 0.16862208 0.41502374 0.11574816 0.32776636
00000000: c0af 793e aeb1 8dbe 9a3a cbbe 0d53 8e3e
00000010: f5e3 7bbe 25b3 c4be 7f8c ce3e 2473 3d3e
00000020: 15d1 f83e 0577 bcbe a529 5d3e 65c4 9bbe
00000030: c143 133e 6312 fabe 39f1 d93e 70be 4a3d
00000040: 9a46 ccbe 5975 c73e 452d bfbe 08ee acbe
00000050: 203d e73e 4049 023f 84f0 6e3e ce45 d2be
00000060: 8dae 843e bc73 6e3e d383 b7be 5f7b 863e
00000070: 44ab 2c3e fe7d d43e 5f0d ed3d fed0 a73e
