checkpoints_jonny/vgg_1_tune/4_net_rank.pth (torch, 7127 bytes, 5 tensors)

model.0.weight f4 [32, 5, 1, 1]
0	0x3e02add0	0.12761617
1	0xbd83825f	-0.06421351
2	0xbe23173d	-0.15926833
3	0xbe4e1ec2	-0.2012892
4	0xbe4c77b3	-0.19967537
5	0x3df1cd49	0.11806733
6	0x3e72720d	0.2367632
7	0x3de950db	0.11392375
8	0xbe0f8b33	-0.14017944
9	0x3e1cf05b	0.15326063
10	0x3e962e82	0.29332358
11	0xbe8f5997	-0.2799804
12	0x3edc8558	0.43070483
13	0x3ef060e4	0.46948922
14	0xbec90695	-0.39262834
15	0xbf004583	-0.50106066
16	0xbe9662a0	-0.2937212
17	0xbeb0a176	-0.34498185
18	0xbd1bebec	-0.03806679
19	0x3e735c4a	0.23765674
20	0x3d1f0c07	0.03882983
21	0x3dfc1ece	0.12310563
22	0xbf16abf4	-0.5885613
23	0xbeffe8f2	-0.4998241
24	0xbdf216c6	-0.1182075
25	0xbe15115b	-0.14557402
26	0x3e73d00e	0.23809835
27	0xbe3054f8	-0.17219913
28	0xbdd97f33	-0.106199645
29	0xbed85829	-0.4225476
30	0x3cec4340	0.028840661
31	0xbe034884	-0.12820631
32	0xbed5e406	-0.4177553
33	0xbd187de8	-0.03722945
34	0xbed6343a	-0.4183672
35	0xbef32c1d	-0.47494593
36	0x3e8986a3	0.26860532
37	0xbdc6dc8a	-0.09710033
38	0x3c0382cf	0.008026793
39	0x3de0825c	0.10962364
40	0x3dca3a15	0.098743595
41	0x3ef30cb4	0.4747063
42	0x3e516c92	0.20451573
43	0x3d48e783	0.04904891
44	0x3edc3422	0.43008524
45	0xbea1919b	-0.315564
46	0x3e5304c5	0.20607288
47	0x3e2645fe	0.16237637
48	0x3e5f5743	0.21810631
49	0xbee79ab5	-0.4523522
50	0xbea35250	-0.31898737
51	0x3e1c4fdc	0.15264839
52	0x3bfdee47	0.007749352
53	0x3dc7a44d	0.09748135
54	0x3f05032f	0.5195798
55	0x3e9e826f	0.30958888
56	0xbe44aced	-0.19206591
57	0xbe59965d	-0.21248765
58	0x3e692fe1	0.2277217
59	0xbee37413	-0.44424495
60	0x3f00862d	0.50204736
61	0xbe3343f2	-0.17506388
62	0xbcb0cec8	-0.021582976
63	0x3ee02da7	0.4378483
64	0x3e16c710	0.14724374
65	0x3c6e9e32	0.014564084
66	0x3e3fa8fe	0.18716809
67	0xbe523a7b	-0.20530121
68	0x3ef56946	0.4793188
69	0xbe010e54	-0.12603122
70	0xbe3ad98e	-0.18247053
71	0xbe4a130d	-0.1973383
72	0x3c65e9bb	0.0140327765
73	0xbe1e8ce3	-0.15483432
74	0xbe4d8914	-0.20071822
75	0xbec1f1e4	-0.3787986
76	0x3e24718a	0.16058937
77	0xbe60d436	-0.21955952
78	0xbeefe729	-0.4685605
79	0xbe33ac82	-0.17546275
80	0xbeb4f4bc	-0.35342968
81	0xbe976593	-0.29569682
82	0xbe6d41a7	-0.23169576
83	0x3ecb73f8	0.39736915
84	0x3e5d972c	0.21639699
85	0x3ec0ff83	0.3769494
86	0xbe0194c4	-0.12654406
87	0x3ec4efd2	0.38464218
88	0x3d93f4f3	0.07224455
89	0xbe7172af	-0.23578905
90	0x3e67f676	0.22652611
91	0xbe6b681b	-0.22988932
92	0xbe813a74	-0.2523991
93	0x3ea55a9c	0.32295692
94	0x3e2d4d1b	0.16923945
95	0xbe9b0cff	-0.30283353
96	0x3ddef69b	0.1088688
97	0x3e24d316	0.16096148
98	0x3e865f32	0.26244503
99	0xbe741f51	-0.23840071
100	0x3e40d26a	0.18830267
101	0x3eb15059	0.34631613
102	0x3d8d81bb	0.0690951
103	0x3ea2e1ed	0.31812993
104	0xbef116c0	-0.4708767
105	0xbe0adc02	-0.13560489
106	0xbebab98e	-0.36469692
107	0x3e4ef6c9	0.20211329
108	0x3e68ab3f	0.22721575
109	0xbee9cb7c	-0.4566306
110	0x3e8e5297	0.27797386
111	0xbe10a181	-0.14124109
112	0xbeaa4334	-0.33254397
113	0x3e78c60b	0.24294297
114	0x3eedf2ff	0.46474454
115	0x3dd22761	0.10261417
116	0xbd4d88ea	-0.0501794
117	0xbe9f11c5	-0.31068245
118	0x3e56e98b	0.20987527
119	0xbe780f7e	-0.2422466
120	0xbe9e93df	-0.30972192
121	0xbd365842	-0.044517763
122	0x3d6bcd00	0.05756855
123	0xbf0754b0	-0.528636
124	0x3e9719c0	0.29511833
125	0x3eb680f4	0.35645258
126	0xbdc8d1f8	-0.09805673
127	0xbce33db1	-0.027739378
128	0xbea1cbfc	-0.3160094
129	0x3e2df4b5	0.1698788
130	0x3e61bf83	0.22045712
131	0x3e0d00a8	0.13769782
132	0x3b551779	0.0032515211
133	0x3dfcaec2	0.1233802
134	0x3e9dd613	0.30827388
135	0x3e98da1a	0.29853898
136	0xbed57b11	-0.41695455
137	0x3f0b492f	0.54408544
138	0xbe0ef37d	-0.13960071
139	0xbed0c130	-0.4077239
140	0x3e1f39cc	0.15549392
141	0x3dc22825	0.09480313
142	0x3df38733	0.118910216
143	0x3e805072	0.25061375
144	0xbed2ba64	-0.4115783
145	0xbdc15d28	-0.09441596
146	0x3ed1d85c	0.40985382
147	0xbec6e8ae	-0.38849396
148	0xbef94b63	-0.48690328
149	0x3c3c7e45	0.011504714
150	0x3e5aab55	0.2135442
151	0x3e6c0957	0.23050438
152	0x3e08af71	0.13348176
153	0x3d831e4c	0.06402263
154	0xbec9cd8c	-0.39414632
155	0xbd226ffa	-0.03965757
156	0x3eafb1fa	0.34315473
157	0xbeb0fdd3	-0.34568653
158	0x3e95ecba	0.2928217
159	0x3e3a4e51	0.18193938

model.0.bias f4 [32]
0	0xbef0df5d	-0.47045413
1	0x3ed3e111	0.4138265
2	0xbeb36154	-0.35035193
3	0x3eacea8e	0.337727
4	0x3e5d2ef5	0.21599944
5	0xbe5a4818	-0.21316564
6	0xbd271b37	-0.04079744
7	0x3ee822e3	0.45339116
8	0x3e77a06c	0.2418229
9	0x3ee0c5a8	0.439008
10	0xbcce34a7	-0.025171591
11	0x3ef740af	0.48291537
12	0xbe7aa6a4	-0.24477631
13	0x3eb5ebf1	0.35531572
14	0xbd682b3b	-0.056681853
15	0x3e9d9f4c	0.30785596
16	0x3c122fa5	0.008922492
17	0x3e0e0ee6	0.13872871
18	0xbe193d6e	-0.1496484
19	0xbe1fe86b	-0.15616004
20	0x3ef39532	0.47574764
21	0x3e188659	0.14895
22	0x3e68370f	0.22677253
23	0x3d851801	0.06498719
24	0xbd9aaf7c	-0.07553002
25	0x3cfc659f	0.030810175
26	0x3dedc4f8	0.116098344
27	0x3eb8e370	0.3611102
28	0x3ec98c6b	0.39364943
29	0x3eb65443	0.35611162
30	0x3e4c1521	0.19929935
31	0x3eab2fcd	0.33434907

model.2.weight f4 [32, 32, 1, 1]
0	0x3d8c09e0	0.06837821
1	0x3d82069e	0.063489184
2	0x3db446ef	0.08802592
3	0x3c42d3f2	0.011891352
4	0x3e474ec9	0.19463648
5	0xbde2b48d	-0.110695936
6	0x3d8ff442	0.0702901
7	0x3d4bf10c	0.049790427
8	0xbde65c63	-0.1124809
9	0xbdc4e782	-0.09614469
10	0xbdac8f83	-0.0842581
11	0x3da08b00	0.07839012
12	0xbe3dcf37	-0.18536077
13	0xbe59831a	-0.21241418
14	0xbe02136b	-0.1270272
15	0x3e50915b	0.20367949
16	0x3cf686df	0.030093608
17	0xbd44ec5c	-0.048076972
18	0xbcd221ea	-0.025650937
19	0xbd225973	-0.039636087
20	0x3d6f51ed	0.05842774
21	0xbe3f3684	-0.1867314
22	0x3c2b524e	0.010456635
23	0xbcf2b2f8	-0.029626355
24	0x3c24fdc8	0.010070272
25	0x3e915f4b	0.28393015
26	0x3d770e15	0.060316164
27	0x3e0bf0c1	0.13666059
28	0xbd3cd43c	-0.04610084
29	0x3d9dd195	0.0770599
30	0xbe501899	-0.20321883
31	0x3da26e25	0.07931165
32	0xbe31c498	-0.17360151
33	0x3e1d51e0	0.15363264
34	0x3e3924d0	0.18080449
35	0xbe4d3025	-0.20037897
36	0xbdc8c825	-0.098037995
37	0xbe3a0a12	-0.18167904
38	0x3d1b5af6	0.037928544
39	0x3dc88a9b	0.09792062
40	0x3e0bde22	0.13658956
41	0x3e7da17b	0.24768631
42	0xbda3c0c8	-0.079957545
43	0x3e390c45	0.18071087
44	0x3e25ec14	0.16203338
45	0x3c25365d	0.010083762
46	0x3d3d612d	0.046235252
47	0xbdbc4a83	-0.091938995
48	0x3e2f144b	0.17097585
49	0xbc8e647c	-0.017381899
50	0x3dd79579	0.105265565
51	0x3c4fd544	0.012685124
52	0x3e66ef0e	0.2255213
53	0x3c024b1b	0.007952477
54	0xbd111ef9	-0.03542993
55	0x3e259b92	0.16172627
56	0x3c9ecc1a	0.019384433
57	0xbe647156	-0.22308859
58	0x3de43694	0.111432225
59	0x3e68c281	0.22730447
60	0x3e040e2a	0.12896028
61	0xbe6bdea0	-0.23034143
62	0x3cde5532	0.027140234
63	0xbcc8574c	-0.024455689
64	0x3bb54041	0.0055313413
65	0xbd90a26d	-0.0706223
66	0xbe159b0f	-0.14609931
67	0xbc589957	-0.013220153
68	0xbe03a4e8	-0.12855875
69	0xbcbd582d	-0.023113335
70	0xbdff172a	-0.1245559
71	0xbcdfce1e	-0.027319964
72	0x3d884eb3	0.06655636
73	0x3d721797	0.05910453
74	0xbe6e6a00	-0.23282623
75	0x3dcc0df3	0.09963598
76	0xbc55b8f3	-0.013044584
77	0xbdc674a6	-0.09690218
78	0x3df4e168	0.11957055
79	0x3dce602d	0.10076938
80	0x3d8af4ee	0.06784998
81	0x3e1a7701	0.15084459
82	0xbd82c2b9	-0.06384797
83	0x3db51c36	0.088432714
84	0x3c1b12d2	0.009464936
85	0xbbfaf9db	-0.0076591796
86	0x3cebbe7c	0.028777353
87	0x3ca03539	0.019556629
88	0x3c186f5e	0.009303896
89	0xbe8d6aa0	-0.2762041
90	0xbcafe3c2	-0.021470908
91	0x3d4b6482	0.0496564
92	0x3dae0b6f	0.084982745
93	0x3d1aebd0	0.037822545
94	0xbbcf72b5	-0.006330813
95	0xbdbe7dd6	-0.09301345
96	0x3d3b7a6a	0.04577104
97	0x3d42c271	0.047548715
98	0xbdcff9e1	-0.101550825
99	0xbdf2cd83	-0.118556045
100	0xbd049dbc	-0.03237699
101	0xbe35a529	-0.17738785
102	0x3d215246	0.039385103
103	0xbdbcfa6a	-0.0922745
104	0xbd97e5ad	-0.07416854
105	0x3e7400df	0.23828457
106	0xbd865c41	-0.06560565
107	0x3e0eab9b	0.1393265
108	0x3c9c81cc	0.01910486
109	0x3de4f0eb	0.11178764
110	0xbe7aa3eb	-0.24476592
111	0xbe4c0461	-0.19923545
112	0x3e5cb919	0.21554984
113	0x3e91aa31	0.28450158
114	0x3d40ef07	0.047102954
115	0x3e3d0851	0.18460204
116	0x3e214ef5	0.15752776
117	0x3d01843a	0.03162024
118	0xbd6b8ee3	-0.057509314
119	0x3ddee526	0.1088355
120	0x3d00386c	0.031303808
121	0xbe8c609c	-0.27417457
122	0x3dce42a2	0.10071303
123	0xbd9e540b	-0.07730874
124	0x3e1f2fad	0.1554553
125	0xbe8056c9	-0.25066212
126	0x3e2f4c56	0.17118964
127	0xbc97d69c	-0.01853495
128	0xbde74933	-0.112932585
129	0x3e64bd42	0.22337821
130	0xbd16742e	-0.03673189
131	0x3e48a9ea	0.19596067
132	0x3e298373	0.1655405
133	0xbc8e901d	-0.017402703
134	0x3d7f700f	0.062362727
135	0x3c45259f	0.012032895
136	0x3e46e737	0.19424139
137	0xbd1e8a63	-0.038706195
138	0x3c0a3ea3	0.008437785
139	0xbd9d9fb2	-0.07696475
140	0xbe44bda1	-0.19212963
141	0xbddffd95	-0.10937039
142	0xbd6273b5	-0.055286128
143	0xbd33760e	-0.043813758
144	0x3d0b22ac	0.033968613
145	0x3d9dfd75	0.07714359
146	0x3df32627	0.11872511
147	0xbe0bdc73	-0.13658313
148	0x3dce6e32	0.10079612
149	0xbe0089b3	-0.12552528
150	0x3e4482ae	0.19190475
151	0xbe87a736	-0.2649476
152	0x3dd856b6	0.10563414
153	0xbcb25f99	-0.0217741
154	0x3d982972	0.0742978
155	0xbe1bf5db	-0.15230505
156	0xbe2702ce	-0.16309664
157	0x3e4e11a7	0.20123921
158	0xbd24dec6	-0.040251516
159	0x3a8ef7e8	0.0010907622
160	0xbe076bd1	-0.13224722
161	0xbdbb7768	-0.09153634
162	0xbe0e2495	-0.13881142
163	0x3e6668bc	0.2250089
164	0x3d7e5519	0.062092874
165	0xbe2e137b	-0.16999619
166	0x3db8701b	0.090057574
167	0x3e679632	0.22615889
168	0xbc32bd29	-0.010909357
169	0x3d900223	0.070316575
170	0x3e18a5b1	0.14906956
171	0xbcc7bf1d	-0.024383122
172	0xbd481a0d	-0.04885297
173	0xbd98aa39	-0.074543424
174	0xbe4a3b95	-0.19749291
175	0xbd90fb74	-0.07079211
176	0x3e0edb35	0.13950808
177	0xbd41e199	-0.047334287
178	0xbdab72b6	-0.08371489
179	0xbe62266c	-0.2208497
180	0x3da0a62b	0.07844194
181	0xbe8a743f	-0.27041814
182	0x3dca1f9d	0.09869311
183	0xbe1d4213	-0.15357237
184	0x3e425eb0	0.18981433
185	0x3a0a205c	0.0005269104
186	0xbd88b420	-0.06674981
187	0xbc680f33	-0.01416378
188	0xbe686da4	-0.22698075
189	0x3e4e7e3c	0.20165342
190	0xbe6dce58	-0.23223245
191	0xbc98470f	-0.01858857
192	0xbe313c55	-0.17308171
193	0x3d6201b4	0.055177405
194	0xbe110a3e	-0.14164063
195	0x3e86efec	0.2635492
196	0x3c070e54	0.008243162
197	0xbe005474	-0.12532216
198	0xbe181e91	-0.1485541
199	0x3e203465	0.15644987
200	0x3e57bae8	0.21067393
201	0x3dad4971	0.084612735
202	0x3e055a04	0.1302262
203	0xbd299054	-0.041397408
204	0xbe723e3a	-0.2365655
205	0xbe3be078	-0.18347347
206	0x3d64019b	0.055665594
207	0x3d1d1cf2	0.038357683
208	0x3df690bc	0.12039325
209	0x3cf263c5	0.02958859
210	0x3c492dc2	0.012278976
211	0x3c109c5f	0.008826344
212	0xbe7dd2e6	-0.24787483
213	0xbe29d443	-0.16584878
214	0x3c70d2b1	0.01469867
215	0xbd58a9e2	-0.052896388
216	0x3d3b16a7	0.0456759
217	0x3e99f5ca	0.30070335
218	0x3e59db67	0.21275102
219	0xbe68a567	-0.22719346
220	0xbe77d146	-0.24200925
221	0x3e3e9aa3	0.18613677
222	0xbc334988	-0.010942824
223	0x3e66a9a9	0.22525658
224	0xbc610ba0	-0.013735682
225	0x3d9e05d4	0.077159554
226	0xbcfdde9e	-0.030989941
227	0x3d966be1	0.07344795
228	0x3e4bde9e	0.1990914
229	0xbe85c5ee	-0.2612757
230	0xbe75f6c3	-0.24019913
231	0x3e421100	0.18951797
232	0x3e276cae	0.16350052
233	0xbde4850d	-0.1115819
234	0x3dbfda53	0.09367814
235	0x3d4872f3	0.04893775
236	0xbd53a459	-0.051670406
237	0x3e06134f	0.13093303
238	0xbdfc905f	-0.12332224
239	0x3e2c6057	0.16833626
240	0x3e3324dd	0.17494531
241	0xbe660a50	-0.22464871
242	0x3dfca9de	0.12337087
243	0xbd2e2eaa	-0.04252497
244	0xbe6a3250	-0.22870755
245	0x3d0977b5	0.033561427
246	0xbd08c693	-0.0333925
247	0xbe919349	-0.28432682
248	0x3e8326bc	0.2561549
249	0x3e6c7f2a	0.23095384
250	0x3e893192	0.26795632
251	0xbcce312c	-0.025169931
252	0xbabb2895	-0.0014279062
253	0x3e98dd41	0.29856303
254	0xbe8f73fe	-0.28018183
255	0x3d46d6c3	0.048544656

model.2.bias f4 [32]
0	0x3dfbb5b9	0.1229052
1	0xbba55a25	-0.0050461465
2	0x3c904de6	0.01761527
3	0x3d9b1a6a	0.075733975
4	0xbcda62c8	-0.02665843
5	0x3e2661e1	0.16248275
6	0x3e116fd6	0.14202818
7	0xbd31a8ef	-0.043374
8	0xbdd0265b	-0.10163566
9	0xbca851d8	-0.020546839
10	0x3dfa5a45	0.12224249
11	0xbe135430	-0.14387584
12	0x3dc39525	0.095499314
13	0x3e11c0c7	0.14233695
14	0xbcfed9d9	-0.031109737
15	0x3cd42409	0.02589609
16	0xbdc961ea	-0.09833129
17	0x3cfb600b	0.030685445
18	0x3d9e9eac	0.07745108
19	0x3e1fbc75	0.15599234
20	0x3e26bd97	0.1628326
21	0x3e077434	0.13227922
22	0x3c64bd6f	0.01396118
23	0x3dec37ef	0.11534106
24	0x3d568fb6	0.052383147
25	0x3e0aa26b	0.1353852
26	0x3dc5fe7f	0.09667682
27	0x3e14eec5	0.14544208
28	0xbd5be840	-0.053688288
29	0x3e415537	0.18880163
30	0x3ddab2da	0.106786445
31	0x3d9b3d05	0.07579998

model.4.weight f4 [1, 32, 1, 1]
0	0xbe5204a9	-0.2050959
1	0x3e72df90	0.23718095
2	0x3e2f3533	0.17110138
3	0x3e9aadcf	0.3021073
4	0xbe826d27	-0.25473902
5	0xbe422013	-0.18957548
6	0xbdecff6e	-0.11572157
7	0xbe0b83b3	-0.13624458
8	0x3e05ee99	0.13079299
9	0x3e7ed02b	0.24884097
10	0xbe8e7e22	-0.27830607
11	0x3e806c75	0.25082746
12	0xbe563bae	-0.20921203
13	0xbe780a16	-0.24222597
14	0x3e7d0379	0.24708356
15	0x3e85d32c	0.26137674
16	0x3e599d34	0.21251374
17	0x3e362f70	0.17791533
18	0xbe965d5d	-0.29368106
19	0xbe187f80	-0.14892387
20	0xbe7216b3	-0.23641472
21	0xbd77b7cd	-0.06047802
22	0xbe6761c3	-0.22595887
23	0xbe3b8d9a	-0.18315735
24	0x3e20a1ff	0.15686797
25	0x3e27bd95	0.16380914
26	0xbde0f0ea	-0.10983451
27	0xbdd3c4b3	-0.10340252
28	0x3de7dd8d	0.11321554
29	0x3e58373f	0.21114825
30	0xbe40b396	-0.18818507
31	0x3d9e5dd3	0.07732739
