checkpoints_jonny/alex_1/2_net_rank.pth (torch, 7127 bytes, 5 tensors)

model.0.weight f4 [32, 5, 1, 1]
0.28786796 -0.1826132 0.17248504 0.4497763 0.35087407 -0.09996491 0.039345633 -0.41446292
0.01783125 0.029744936 -0.30419683 0.31533915 -0.41850814 -0.15175265 0.058146942 0.4548014
0.22189951 0.23910794 -0.25784606 0.42977777 0.087198235 -0.24950176 0.11782612 -0.52548057
0.523003 0.14680384 0.18948835 -0.4068037 -0.37440464 -0.2840117 -0.26728535 0.42109168
-0.42853597 -0.22258118 0.08920569 0.53289336 -0.33017305 0.004791848 0.22467151 -0.08410847
0.15261781 -0.25671226 -0.3878645 -0.49404448 -0.12882741 -0.33135572 0.39235705 0.13111557
0.3212904 -0.44927976 0.21475273 0.35529083 -0.21365416 0.18606065 -0.22282878 -0.055375155
-0.14442553 -0.30393696 0.3141693 -0.014409065 -0.20456558 0.46578833 0.30081517 0.23574181
-0.26811507 -0.33170298 0.51489764 -0.25604424 -0.3821185 0.31259945 0.33588627 0.14812581
-0.062074706 -0.18873258 0.46187496 0.2589178 0.1643748 -0.44929522 -0.57001454 -0.27957803
-0.23500009 0.123922706 -0.28347993 -0.21250494 0.10429149 0.4375844 -0.018213097 0.60420835
0.18180715 -0.51818436 0.25859523 0.0066580996 0.15659663 -0.28439 -0.040069465 -0.45670655
0.25503826 0.12566371 -0.53618866 -0.09020429 0.4285368 -0.023240793 0.5748764 0.12673989
-0.28705472 -0.35692668 0.39093703 0.21759397 -0.3411561 0.3870691 0.24285105 0.19144228
-0.04433164 0.47408247 0.24596049 0.24811646 0.018519554 0.18994161 0.17921923 -0.15703373
0.11517296 -0.35152495 -0.46047792 -0.05109928 0.38561773 0.1533664 -0.39334196 0.33615384
-0.2581567 -0.4522934 -0.09845522 -0.42293707 0.42980313 0.20198674 0.08292669 0.12105017
0.13878907 -0.016564868 -0.17103697 0.14030321 -0.30717152 0.54432255 0.03114839 -0.041597735
0.49441218 0.140402 0.16102806 -0.37780735 -0.182826 0.3074175 -0.00806055 -0.43664953
-0.2596447 -0.18767734 0.40202165 0.124544166 0.35816592 0.518787 0.38559315 -0.34712967
00000000: 6e63 933e f4fe 3abe eb9f 303e 1449 e63e
00000010: c4a5 b33e 67ba ccbd e328 213d 7c34 d4be
00000020: d712 923c a7ab f33c b0bf 9bbe 2274 a13e
00000030: b346 d6be 0c65 1bbe 7d2b 6e3d bbdb e83e
00000040: a039 633e b6d8 743e 6604 84be d50b dc3e
00000050: fd94 b23d 647d 7fbe d24e f13d e585 06bf
00000060: 86e3 053f bf53 163e 3c09 423e 9348 d0be
00000070: f7b1 bfbe fb69 91be a0d9 88be 5499 d73e
00000080: 1169 dbbe 52ec 63be 79b1 b63d b36b 083f
00000090: 710c a9be ef04 9d3b 4a10 663e 1041 acbd
000000a0: d847 1c3e ca6f 83be 2d96 c6be 66f3 fcbe
000000b0: 55eb 03be 75a7 a9be 06e3 c83e 2943 063e
000000c0: 2d80 a43e ff07 e6be 24e8 5b3e aee8 b53e
000000d0: 28c8 5abe af86 3e3e 3a2d 64be 0fd1 62bd
000000e0: 49e4 13be a09d 9bbe ccda a03e 0014 6cbc
000000f0: a479 51be cf7b ee3e 7204 9a3e 4d66 713e
00000100: 6146 89be f9d4 a9be 55d0 033f 3b18 83be
00000110: 09a5 c3be 090d a03e 49f9 ab3e 4bae 173e
00000120: 0c42 7ebd 1d43 41be e07a ec3e e090 843e
00000130: de51 283e 060a e6be 79ec 11bf da24 8fbe
00000140: dda3 70be 30cb fd3d 4824 91be e59a 59be
00000150: c796 d53d 100b e03e a233 95bc 66ad 1a3f
00000160: a72b 3a3e bba7 04bf 9866 843e 302c da3b
00000170: de5a 203e 919b 91be e11f 24bd 71d5 e9be
00000180: 6094 823e fdad 003e a943 09bf 07bd b8bd
00000190: 2d69 db3e 7a63 bebc 1a2b 133f 1ac8 013e
000001a0: d6f8 92be 18bf b6be e628 c83e f4d0 5e3e
000001b0: 03ac aebe ec2d c63e f2ad 783e 7209 443e
000001c0: 1895 35bd f0ba f23e 11dd 7b3e 3e12 7e3e
000001d0: 52b6 973c 0e80 423e 3f85 373e 73cd 20be
000001e0: cddf eb3d 14fb b3be c3c3 ebbe 7b4d 51bd
000001f0: b06f c53e 150c 1d3e 1e64 c9be 5b1c ac3e
00000200: 1d2d 84be 0093 e7be e4a2 c9bd 358b d8be
00000210: 280f dc3e 9dd5 4e3e 78d5 a93d 27e9 f73d
00000220: b91e 0e3e 0cb3 87bc 5124 2fbe a5ab 0f3e
00000230: 9645 9dbe b958 0b3f e92a ff3c 6362 2abd
00000240: 9823 fd3e 8bc5 0f3e 8ae4 243e f76f c1be
00000250: bd36 3bbe d465 9d3e 6610 04bc 8790 dfbe
00000260: 26f0 84be 7d2e 40be c8d5 cd3e 0311 ff3d
00000270: 8661 b73e 3acf 043f 776c c53e fbba b1be

model.0.bias f4 [32]
-0.017436823 -0.45247754 -0.38173297 -0.11159118 0.021194411 -0.36347836 -0.10694305 0.37567443
-0.20173366 0.10983928 -0.057047997 -0.032330237 0.07983222 0.073456824 0.17263767 0.15628654
0.098245695 -0.17554241 -0.111668475 -0.50585544 -0.043886 0.31928164 0.1217643 -0.10694746
0.15965721 0.16543557 0.4871782 0.3717316 0.061024204 -0.063190326 0.17355226 0.060008824
00000000: abd7 8ebc 23ab e7be 8172 c3be eb89 e4bd
00000010: e79f ad3c d619 babe f504 dbbd 6658 c03e
00000020: 4593 4ebe 6bf3 e03d 29ab 69bd b66c 04bd
00000030: 137f a33d 8870 963d eec7 303e 9409 203e
00000040: 0a35 c93d 64c1 33be 71b2 e4bd be7f 01bf
00000050: cec1 33bd e278 a33e 905f f93d 4507 dbbd
00000060: 2e7d 233e f167 293e 6c6f f93e 9b53 be3e
00000070: 84f4 793d ee69 81bd afb7 313e d0cb 753d

model.2.weight f4 [32, 32, 1, 1]
0.019927656 -0.14617725 -0.005832276 -0.08982982 -0.018893402 0.123646304 -0.023856202 -0.046944614
0.0049725617 -0.05693241 0.044465844 -0.11544506 -0.00842187 0.048876002 0.028221281 -0.11627776
0.27885425 -0.21022157 0.03954668 -0.03802906 -0.17430715 0.144751 0.034385532 0.07686193
0.07785273 0.10115765 -0.06552457 0.10382686 0.024092093 0.23404165 0.22797868 -0.19199821
0.13590816 0.07057403 0.039465845 -0.005071052 0.16785596 0.0040469053 0.06799266 -0.013382788
0.033625413 0.06551227 -0.19624054 -0.037940618 -0.11398455 0.17978345 0.025459852 0.099765286
0.26666644 0.08349499 0.04166883 0.17739691 -0.018165382 0.25117865 -0.06717409 0.08746725
-0.04018835 -0.039879024 0.1683625 -0.10772061 0.17278703 -0.06831732 -0.028588094 -0.13512482
0.17964606 -0.068107575 -0.20117493 -0.24404009 -0.123480015 -0.15157907 -0.22877994 0.21881652
-0.0043088067 0.19044685 0.016321082 0.257186 0.09492962 -0.25453126 -0.05033841 -0.2029193
-0.08123024 0.15914242 -0.24448927 -0.03514052 0.04243446 -0.15146509 0.24778783 -0.0012523076
0.09179629 0.1519664 -0.007499868 0.0036024565 0.097122446 -0.23505957 0.045629464 0.03582089
0.082846716 0.07103194 -0.2236171 -0.04441441 -0.2031524 -0.063047774 0.06683785 -0.027439404
0.026545811 0.012326687 0.10406933 0.024224265 -0.0042168805 -0.24048163 -0.008088027 0.050271276
-0.29310414 0.22047393 -0.03181843 -0.25896728 0.13733856 -0.01797378 0.24999483 0.2382632
-0.12448721 -0.0035996728 0.0330307 0.0070826183 -0.00083909713 0.0085547585 0.015415444 0.17287382
0.12732498 -0.10930651 -0.029438619 -0.060300987 0.07387391 -0.11219519 0.039263755 -0.07466661
-0.027751224 0.09500595 -0.01747682 0.053426582 -0.23873909 0.07309955 0.11377701 0.16944696
-0.010768793 0.0032930914 0.18398331 -0.012540206 0.035598613 -0.051758155 -0.0121204555 -0.000918481
-0.008286401 0.036972824 -0.12546489 0.19838178 0.18996622 0.18947053 0.07074228 0.014696229
0.0018312385 -0.20371321 0.08076564 -0.045951415 -0.10963434 -0.2074516 0.0010149853 0.15369432
-0.03484828 0.18852617 0.19980358 0.19841217 0.18117587 -0.1887652 -0.06717606 -0.1655362
-0.24327324 -0.054089285 0.0024553756 -0.23721437 0.06338052 -0.09707712 0.059433255 0.22161242
-0.17251803 0.17489648 0.15349221 -0.15030663 0.10406233 0.027211925 -0.024737537 0.20475896
0.20787007 0.08782588 -0.16222213 -0.011254059 -0.19840826 -0.021642562 -0.18036842 0.2604577
-0.18175662 0.12320571 0.062495284 0.19409992 0.11985417 -0.1053074 -0.080842406 -0.1464406
0.047764394 0.23979883 0.057050347 -0.16085608 0.24984054 0.07881637 0.16767867 -0.045022666
-0.1403845 -0.048104666 0.1965687 -0.06971502 -0.17944059 -0.14017469 0.06392319 -0.010810026
-0.025502156 -0.15180345 0.18144366 0.16905534 0.01608323 -0.08806331 -0.05273354 -0.17034087
-0.061095938 0.049247034 -0.1572825 -0.23181742 -0.06691227 0.24360216 0.0402628 0.04213466
0.22670761 0.09306966 -0.099498264 -0.015133212 -0.21617441 0.14301041 0.042406745 -0.030594941
0.18758266 -0.054648153 0.047162592 -0.021730414 0.22876655 -0.041915238 -0.085945494 -0.22821376
00000000: 533f a33c 7daf 15be ad1c bfbb b2f8 b7bd
00000010: 56c6 9abc 463a fd3d 156e c3bc ff48 40bd
00000020: dff0 a23b f531 69bd d121 363d 766e ecbd
00000030: e2fb 09bc 3432 483d 5130 e73c 0923 eebd
00000040: fcc5 8e3e 5344 57be b3fb 213d 5cc4 1bbd
00000050: 937d 32be 9b39 143e d8d7 0c3d ca69 9d3d
00000060: 4171 9f3d be2b cf3d bf31 86bd 2da3 d43d
00000070: c85c c53c 9da8 6f3e 3e73 693e 2e9b 44be
00000080: 822b 0b3e 1e89 903d f0a6 213d 112b a6bb
00000090: 6fe2 2b3e e79b 843b bc3f 8b3d 7b43 5bbc
000000a0: cdba 093d 4c2b 863d 48f3 48be 9f67 1bbd
000000b0: bb70 e9bd 2719 383e 2e91 d03c be51 cc3d
000000c0: 8188 883e 6cff aa3d efac 2a3d 89a7 353e
000000d0: 91cf 94bc 7d9a 803e 9292 89bd 0822 b33d
000000e0: 8a9c 24bd 3058 23bd 3867 2c3e a09c dcbd
000000f0: 15ef 303e f3e9 8bbd 9431 eabc 295e 0abe
00000100: 23f5 373e fc7b 8bbd cd00 4ebe a5e5 79be
00000110: 17e3 fcbd 8b37 1bbe 4a45 6abe 7011 603e
00000120: e430 8dbb 8004 433e cab3 853c e2ad 833e
00000130: 766a c23d ec51 82be a62f 4ebd 14ca 4fbe
00000140: 0a5c a6bd 3bf6 223e 655b 7abe 82ef 0fbd
00000150: c2cf 2d3d aa19 1bbe 18bc 7d3e 7824 a4ba
00000160: b1ff bb3d 149d 1b3e 74c1 f5bb 3117 6c3b
00000170: 22e8 c63d 75b3 70be f6e5 3a3d edb8 123d
00000180: 8aab a93d 3279 913d e2fb 64be e2eb 35bd
00000190: 2f07 50be 311f 81bd 48e2 883d 9ac8 e0bc
000001a0: 9a76 d93c dff5 493c 4d22 d53d f771 c63c
000001b0: c22d 8abb d140 76be a583 04bc 41e9 4d3d
000001c0: bf11 96be ebc3 613e 0b54 02bd 5c97 84be
000001d0: 7ba2 0c3e c03d 93bc a5fe 7f3e 45fb 733e
000001e0: 26f3 febd 7de8 6bbb 334b 073d 4f15 e83b
000001f0: dbf6 5bba 4229 0c3c 0f91 7c3c d605 313e
00000200: 7b61 023e 17dc dfbd 4229 f1bc 2bfe 76bd
00000210: 344b 973d 97c6 e5bd 08d3 203d cfea 98bd
00000220: 8956 e3bc 7b92 c23d 8c2b 8fbc d5d5 5a3d
00000230: 0578 74be 38b5 953d ec03 e93d 8183 2d3e
00000240: 976f 30bc e8d0 573b 1f66 3c3e 7075 4dbc
00000250: dacf 113d 5c00 54bd e094 46bc 37c6 70ba
00000260: afc3 07bc d170 173d de79 00be 9824 4b3e
00000270: 8186 423e 9004 423e 54e1 903d 74c8 703c
00000280: 2b06 f03a 329a 50be 7568 a53d 8d37 3cbd
00000290: f887 e0bd 316e 54be 4109 853a 0b62 1d3e
000002a0: 12bd 0ebd 010d 413e 4f99 4c3e 8f2c 4b3e
000002b0: 2b86 393e aa4b 41be 9a93 89bd 5282 29be
000002c0: 9f1c 79be ba8c 5dbd 5eea 203b 53e8 72be
000002d0: a5cd 813d 5ed0 c6bd 4970 733d 5eee 623e
000002e0: 91a8 30be 1018 333e 102d 1d3e fbe9 19be
000002f0: a21e d53d 8beb de3c 60a6 cabc 55ac 513e
00000300: e4db 543e 0ede b33d 8f1d 26be f262 38bc
00000310: 892b 4bbe be4b b1bc 80b2 38be b65a 853e
00000320: 681e 3abe 4653 fc3d 0efb 7f3d 21c2 463e
00000330: 1a76 f53d 68ab d7bd b490 a5bd 86f4 15be
00000340: 99a4 433d d38d 753e a0ad 693d 75b7 24be
00000350: 33d6 7f3e 7a6a a13d f5b3 2b3e b069 38bd
00000360: f4c0 0fbe 6609 45bd 4e49 493e c0c6 8ebd
00000370: 46bf 37be f489 0fbe 29ea 823d 891c 31bc
00000380: e6e9 d0bc 5d72 1bbe 5ecc 393e d81c 2d3e
00000390: fac0 833c 895a b4bd 20ff 57bd d66d 2ebe
000003a0: bc3f 7abd 42b7 493d aa0e 21be 8c61 6dbe
000003b0: 4d09 89bd d872 793e 9bea 243d 6595 2c3d
000003c0: 0a26 683e 4e9b be3d bfc5 cbbd 4bf1 77bc
000003d0: d35c 5dbe 5271 123e b2b2 2d3d 3ea2 fabc
000003e0: ab15 403e bed6 5fbd 902d 413d fb03 b2bc
000003f0: c741 6a3e 50af 2bbd 3104 b0bd deb0 69be

model.2.bias f4 [32]
0.13875255 0.057302576 0.031023612 0.18632014 0.039189257 0.20238148 -0.0056133624 0.15416995
0.08644635 0.015276478 -0.026361562 0.112611756 -0.12212597 0.075672634 -0.053949825 -0.03692847
0.120611735 -0.08547172 -0.052869674 -0.06664954 -0.036576495 0.015923355 0.20248073 0.043549273
0.24539432 -0.035427175 -0.10309838 0.13163462 -0.053800985 0.026914643 -0.010823813 -0.1270179
00000000: 2615 0e3e 1bb6 6a3d 3b25 fe3c b5ca 3e3e
00000010: ea84 203d 173d 4f3e 4cf0 b7bb bade 1d3e
00000020: c90a b13d 314a 7a3c 34f4 d7bc fea0 e63d
00000030: 2e1d fabd 41fa 9a3d 7efa 5cbd 4f42 17bd
00000040: 4903 f73d cc0b afbd df8d 58bd 8e7f 88bd
00000050: 3cd1 15bd b271 823c 1c57 4f3e b960 323d
00000060: a648 7b3e 161c 11bd 3e25 d3bd 3acb 063e
00000070: 6c5e 5cbd 197c dc3c 5d56 31bc fb10 02be

model.4.weight f4 [1, 32, 1, 1]
-0.16317458 -0.21942948 0.17537922 0.12550637 -0.13074602 0.2625453 0.24900785 -0.18699656
0.24600066 -0.1838116 0.15958859 0.2342809 -0.15781194 -0.12514466 0.25457186 -0.110993475
-0.18027008 -0.15430056 -0.059886727 -0.1925553 0.15588613 -0.27546984 0.15272564 0.12659417
0.10816214 -0.25802514 -0.27919167 -0.10918615 0.14573944 -0.21983847 0.047181915 0.1819125
00000000: 3d17 27be 1fb2 60be 9c96 333e be84 003e
00000010: 49e2 05be 566c 863e eafb 7e3e 077c 3fbe
00000020: 99e7 7b3e 1c39 3cbe 316b 233e 55e7 6f3e
00000030: 7499 21be ec25 00be 3e57 823e 8c50 e3bd
00000040: b898 38be f700 1ebe c94b 75bd 372d 45be
00000050: 9da0 1f3e 620a 8dbe 1c64 1c3e e7a1 013e
00000060: 1d84 dd3d df1b 84be 36f2 8ebe fd9c dfbd
00000070: b83c 153e 561d 61be d341 413d 4547 3a3e
