checkpoints_jonny/alex_1/4_net_rank.pth (torch, 7127 bytes, 5 tensors)

model.0.weight f4 [32, 5, 1, 1]
00000000: 8d2e 893e 5d0d 5abe 3807 333e ba47 e63e
00000010: a541 ac3e 1c7b 96bd b5e4 933d 6ce2 d8be
00000020: 2ae2 923c 8771 153d 77c8 99be 9116 9e3e
00000030: 2368 cdbe 44b3 20be 662e 633d 3e0f e63e
00000040: 20ec 523e 97fc 873e 3c70 83be acf4 da3e
00000050: 744d 543d 005c 90be aef3 0b3e 7273 0dbf
00000060: 516d 033f a83a 233e 4c7f 4f3e 9f50 cdbe
00000070: 278c c0be 9d75 8abe aa86 8fbe e6a0 cd3e
00000080: ce91 d1be 78fe 70be f13e aa3d 2c00 073f
00000090: 1728 a9be d4f7 b1bb 5e03 6a3e 21ed bebd
000000a0: 725b 213e 3c83 84be 9dfb bfbe b2c9 febe
000000b0: 14b6 f9bd 0aaf b6be 7e16 b93e 3047 ff3d
000000c0: 338e 9f3e 6803 f8be a8bc 4a3e f7a7 ae3e
000000d0: 25ba 66be e86d 393e 2f98 76be db95 61bd
000000e0: 14a6 04be 7ee7 a9be 7a1e a33e 74bd b5bb
000000f0: 8edd 5cbe df55 eb3e 2b06 933e 888a 6f3e
00000100: 8540 8ebe b2ad b6be 8517 fa3e fbce 73be
00000110: 9b7b ccbe 591f 9d3e 7e27 ab3e 1838 0e3e
00000120: 6159 3ebd e916 46be ac02 ef3e 5a19 863e
00000130: ee65 343e d519 edbe 4075 13bf eb5f 82be
00000140: b714 87be efb9 c53d f5b7 89be e2dc 6dbe
00000150: 00bb cb3d 1147 dd3e 5c7b 96bc bb91 183f
00000160: 9090 3e3e 7ca8 06bf 129c 8c3e 4771 be3c
00000170: 1748 283e deb2 90be edf1 b4bc 9ac0 e5be
00000180: 1501 843e 5c15 0c3e 8ebb 09bf 3e87 a3bd
00000190: 958b d23e 53ed 34bd b65c 113f 4c4e 023e
000001a0: a0a6 9ebe 540a b9be aadb c13e 035f 703e
000001b0: 5865 b1be 5395 c73e 2f79 773e 4803 4a3e
000001c0: 292e 68bd 48bc f53e 232e 773e 3bd4 673e
000001d0: 9efb 09bb 15b0 323e 1233 2e3e d4e7 3bbe
000001e0: ee98 e33d d91b b9be a756 e5be 6d15 77bd
000001f0: ba85 c73e 5912 2c3e 8eab c6be 0a4c b43e
00000200: 11f2 6fbe 5ae3 ecbe f994 dbbd 2e03 dbbe
00000210: 8155 d73e e943 513e 784c 963d 547c eb3d
00000220: 617a 003e 93f4 82ba 155d 37be f46f 123e
00000230: 946a 9ebe 2a86 083f f480 463d 5828 3abd
00000240: 6a19 ff3e b28d fd3d f0a9 0e3e 484d b7be
00000250: 3b85 47be cab1 9a3e 6160 28bb 0a47 e0be
00000260: be87 7bbe 0bb3 40be 510b d33e 0b97 e63d
00000270: 7abc b33e 241e 013f f4b8 c33e 4286 b7be
0.26793328 -0.2129416 0.17483222 0.44976598 0.33643833 -0.073477 0.07221357 -0.42360246
0.017930109 0.03648522 -0.30035755 0.30876592 -0.40118513 -0.15693384 0.05546417 0.44933504
0.20597887 0.26559898 -0.25671566 0.42764795 0.051831678 -0.2819519 0.13667175 -0.5525428
0.5133868 0.15940344 0.20263404 -0.40100572 -0.37606928 -0.27042857 -0.28032428 0.40161818
-0.40931553 -0.23534572 0.08312786 0.5273464 -0.330384 -0.0054311547 0.22852847 -0.093225725
0.1575754 -0.25881374 -0.37496653 -0.49763256 -0.12192932 -0.3568042 0.36149973 0.1246475
0.31163177 -0.484401 0.19798529 0.34112522 -0.22531946 0.18108332 -0.24081491 -0.055074554
-0.12953979 -0.33184427 0.3185919 -0.005546266 -0.21568891 0.45963952 0.28715643 0.23392689
-0.277836 -0.35679394 0.4884607 -0.23809426 -0.39938053 0.3068798 0.33428568 0.13888586
-0.046471957 -0.19344677 0.46681726 0.26191217 0.17617008 -0.4630877 -0.57600784 -0.25463805
-0.26382992 0.09654605 -0.2689816 -0.23228791 0.09947777 0.43218282 -0.01836937 0.5959737
0.18609834 -0.52600837 0.27462822 0.023247374 0.1643375 -0.28261465 -0.022088015 -0.44873506
0.25782076 0.13680023 -0.5380181 -0.0798478 0.41122118 -0.044171643 0.5678209 0.1272518
-0.309865 -0.36140692 0.37862903 0.23473744 -0.34647632 0.38981113 0.24167322 0.19727814
-0.056684647 0.4799521 0.24138694 0.22639553 -0.0021054517 0.17449982 0.1701167 -0.18350154
0.111131534 -0.3615406 -0.44792673 -0.060323168 0.38969213 0.16803874 -0.3880276 0.35214263
-0.23432185 -0.46267205 -0.10721774 -0.42775863 0.42057422 0.20436062 0.07338804 0.11498323
0.12546684 -0.0009991102 -0.17906602 0.14300519 -0.30940688 0.5332972 0.048462823 -0.04544863
0.49824077 0.12380542 0.13932014 -0.35801148 -0.19484417 0.30213767 -0.0025692212 -0.43804199
-0.245635 -0.188183 0.4121957 0.11259278 0.35104734 0.50436616 0.38227046 -0.35844618

model.0.bias f4 [32]
00000000: 0ae8 cf3b cf4d fabe e3c4 c7be b27d c5bd
00000010: 973c f73c 1ec9 c0be 3cc2 d6bd e397 c33e
00000020: 4f02 54be 5ca8 e43d 76c4 52bd 2142 c1bc
00000030: 879d b13d a884 a23d 3a34 333e 07b1 213e
00000040: 3378 cb3d 7ba1 28be 8e55 f8bd 1819 03bf
00000050: cb98 d1bc 5206 a53e e68a 013e 32a6 dbbd
00000060: ca1e 243e f6eb 373e dcb9 fd3e c61c c03e
00000070: b3be 843d 3428 58bd fef1 303e 62af 8b3d
0.0063448 -0.48887488 -0.390174 -0.09643115 0.030180259 -0.3765344 -0.10486266 0.38201818
-0.20704006 0.111649245 -0.05145689 -0.023591103 0.08672624 0.079354584 0.17500392 0.15790187
0.099350356 -0.1646785 -0.12125693 -0.51210165 -0.025585553 0.32231385 0.12650642 -0.107250586
0.1602737 0.17961106 0.49555862 0.37521952 0.064816855 -0.052772716 0.17279813 0.06820561

model.2.weight f4 [32, 32, 1, 1]
00000000: 2c5f 923c 2814 1abe 9874 26bc 177a d5bd
00000010: d303 04bc 9506 f93d 4ef7 29bd c507 3bbd
00000020: 2d0e d23b 9bb4 9bbd 3423 343d a2ba 00be
00000030: 95fb 8fbc 0ed8 553d 4d9c 013d b793 ecbd
00000040: f43d 953e 6d59 5abe f63d 293d 4b5b 1cbd
00000050: 02c5 37be 31a9 1a3e 8a89 013d 790a 9f3d
00000060: b693 a73d 3bcc b33d 1eef 7bbd 6707 dd3d
00000070: 28b8 ce3c 4653 633e dd35 713e 89cf 49be
00000080: 9454 0a3e 4d68 863d 2e69 0c3d da8e 9fbc
00000090: 88c8 363e b527 923a 3616 4b3d dc59 37bc
000000a0: 5c0a 0b3d 243a 443d 2f85 47be 8ca0 3dbd
000000b0: f50e f9bd b360 3b3e b69e ef3c c581 cb3d
000000c0: 1cea 8e3e e6d2 a43d 66c2 2d3d d68a 343e
000000d0: de7f b0bc f3e3 833e 80f9 8cbd 741f b83d
000000e0: ace8 12bd 9bd6 5bbd dd4c 313e 615f d3bd
000000f0: 5e7b 323e c1bf a4bd 172d abbc 0ccb 0dbe
00000100: ecf1 383e 7d18 96bd b0cb 52be a99c 69be
00000110: 0de0 08be e02a 1fbe 129b 68be dbc7 653e
00000120: cf4c 10bc 4da3 563e aa58 2f3c 0fbb 863e
00000130: 2b62 d63d fcb1 82be 5de6 53bd 6f54 4cbe
00000140: 9bf8 b4bd 31d8 1c3e 119b 80be 623d 25bd
00000150: f07c 2e3d 84bc 1bbe f6b7 803e 3a75 31bc
00000160: 5d7f bd3d e28b 313e 36f1 33bb 6de8 f23b
00000170: c4e2 c43d 7383 61be e195 313d 5f66 253d
00000180: ed41 aa3d 901f 8a3d c482 68be 88c9 fcbc
00000190: 3bb7 5dbe 5538 86bd 1b83 8e3d c4eb bbbc
000001a0: 1670 bb3c bd1a 023d f08c cb3d 9d16 fa3c
000001b0: 1533 ba3b 5cdf 79be d53d 3bbc e542 5a3d
000001c0: 4a39 9bbe da95 5d3e b5a2 19bd d3b1 86be
000001d0: 2ea9 0d3e 75e2 abbc 8d70 813e 0653 6b3e
000001e0: 36fe 00be e9d8 923c 8f90 143d c08c 123c
000001f0: 21b1 6fbb 3a36 a83c 1d32 2c3c 33e4 353e
00000200: 5798 043e 3392 ebbd 860f 13bd 7aa3 98bd
00000210: fbf4 ab3d efd0 eebd a4b9 a13c 735f 91bd
00000220: 2606 f3bc 5a97 a43d a723 38bc 93aa 493d
00000230: 1b0a 79be 454c 9b3d 9e6a f23d de18 2a3e
00000240: fb9d 773a 89ee 193b 8f85 3b3e 5e88 7abc
00000250: 28c6 193d dd4c 3abd 909e 39bc 3ab0 e33b
00000260: 76c9 6bbb b24e b23c b22b f5bd 5823 503e
00000270: 97ef 443e c777 353e 9249 a03d 4b86 783c
00000280: 42e1 c83a 5f6e 54be 8703 9e3d 149d 08bd
00000290: ae85 febd d0d7 56be 3ffb 073b 0305 223e
000002a0: ec9a 1cbd d61c 553e 77bf 473e 7432 513e
000002b0: bbbf 433e 1222 46be 5909 92bd 23fa 25be
000002c0: a7f9 81be da60 6cbd 9469 47bb 25f3 76be
000002d0: a891 843d 65bf cdbd a4cf 7c3d fd67 5a3e
000002e0: a5b9 32be dfac 4a3e 30a2 203e a128 18be
000002f0: c81a cd3d d6ac 1c3d e43b f6bc 66a2 563e
00000300: 2f59 553e 94a2 aa3d 9c66 2abe f5e3 673b
00000310: 88b0 57be 9893 cbbc ee38 37be 84f6 873e
00000320: 313f 3ebe 53f3 113e 4ac2 6a3d a4da 4c3e
00000330: fcd0 043e 5dc6 dcbd 19d7 aabd fca1 12be
00000340: 5ae2 1f3d a37a 703e 8c59 503d bb7a 29be
00000350: e344 803e 5d9e 9d3d 2eda 2e3e 265c 5dbd
00000360: df37 10be 3adb d4bc 4983 4d3e abea 88bd
00000370: 0005 3abe 8db9 01be 2d04 773d 2080 c8bb
00000380: d332 e2bc 21f2 20be 5125 343e 5cb1 1d3e
00000390: 5e3b da3c e427 babd 97d5 92bd 1d0b 2cbe
000003a0: d1ec 76bd 499c 023d e7c8 21be e653 77be
000003b0: 151a 99bd 69ae 7c3e 7865 313d 7f86 2f3d
000003c0: c01d 753e 00c4 b83d 8a5c cabd f1c8 83bc
000003d0: e0e0 61be 01fd 183e 6218 233d 6aa8 f8bc
000003e0: bb40 443e 582e 89bd be65 563d 192b 8cbc
000003f0: dde6 6a3e ed85 5ebd 334f a0bd 9bc8 6dbe
0.017867647 -0.15046751 -0.010159634 -0.104236774 -0.008057552 0.121594585 -0.041495614 -0.045661706
0.0064103813 -0.07602807 0.043978885 -0.12571195 -0.017576018 0.052208 0.0316432 -0.11551612
0.2914883 -0.21323176 0.041318856 -0.038173 -0.17946246 0.15103604 0.031625308 0.077656694
0.081824705 0.08779188 -0.061507337 0.107924275 0.025234297 0.22199735 0.23555703 -0.19708075
0.13508826 0.065628625 0.034279995 -0.019477297 0.17849934 0.001115075 0.04958173 -0.011190858
0.033945426 0.04790701 -0.194844 -0.046295688 -0.12161056 0.18298607 0.029250484 0.09936861
0.27912986 0.08048038 0.04242172 0.17631087 -0.021545347 0.2575985 -0.06883526 0.08990374
-0.035866424 -0.05367146 0.17314477 -0.103209265 0.17429873 -0.08044387 -0.020895524 -0.13846987
0.18061036 -0.073288895 -0.20585513 -0.22813667 -0.13366719 -0.155437 -0.22715405 0.2243952
-0.008807375 0.20960732 0.0107022915 0.2631459 0.10467943 -0.25526416 -0.051733363 -0.19954084
-0.0883648 0.15316845 -0.25118306 -0.040341742 0.04259962 -0.15208632 0.2514035 -0.010831172
0.09252808 0.17338517 -0.0027457005 0.007412961 0.096135646 -0.220228 0.043355826 0.04038083
0.083133556 0.06744301 -0.22706133 -0.030857816 -0.21651928 -0.06553713 0.069586 -0.02293957
0.022880595 0.03176378 0.09938991 0.030528361 0.005682359 -0.24401611 -0.011428316 0.05328645
-0.30317146 0.21639195 -0.037508685 -0.26307544 0.13834068 -0.020982007 0.25281182 0.2298089
-0.12596974 0.017925696 0.036270674 0.00894469 -0.0036574083 0.02053367 0.010509995 0.17762832
0.12948738 -0.11502495 -0.035903476 -0.07453056 0.08396336 -0.11660945 0.01974184 -0.070982836
-0.029666018 0.080366805 -0.011238969 0.049234938 -0.24320261 0.07582907 0.11836742 0.16611049
0.0009445843 0.0023488125 0.18312667 -0.0152913015 0.037542492 -0.04548346 -0.011329308 0.006948498
-0.0035978234 0.02176604 -0.11971225 0.20325983 0.19232021 0.17721473 0.078265324 0.015168737
0.0015325921 -0.20745228 0.077155165 -0.033352926 -0.12427841 -0.20980763 0.002074912 0.15822224
-0.038233683 0.20811781 0.19506632 0.20429403 0.19116108 -0.19348934 -0.07130689 -0.16208701
-0.25385782 -0.057709552 -0.003042792 -0.2411619 0.06473094 -0.10046271 0.06172146 0.21328731
-0.1745363 0.19792508 0.1568687 -0.14859249 0.10014874 0.038250767 -0.030057855 0.20960388
0.20834802 0.083317906 -0.16640705 0.0035383676 -0.21063435 -0.024850652 -0.1789281 0.26555264
-0.18578793 0.14252977 0.057314195 0.2000528 0.12970346 -0.10780022 -0.08341808 -0.14319605
0.039034225 0.23484282 0.05086665 -0.16550724 0.25052556 0.07696221 0.17075416 -0.054042958
-0.14083813 -0.025983442 0.20069613 -0.06685384 -0.1816597 -0.12668438 0.060306717 -0.0061187893
-0.027612126 -0.15717365 0.1759236 0.15399688 0.026639637 -0.0908964 -0.07169645 -0.16801114
-0.06028444 0.031887326 -0.15799294 -0.24153098 -0.07475678 0.24675907 0.04330966 0.042852875
0.2393713 0.09021759 -0.09880932 -0.016087027 -0.22058439 0.14940263 0.039818175 -0.030353744
0.19165318 -0.066982925 0.052343123 -0.017110394 0.2293963 -0.05432694 -0.07827606 -0.23221056

model.2.bias f4 [32]
00000000: 8a64 113e 045c 7a3d f8ea 163d 5b10 433e
00000010: cd86 323d fd8b 533e 0874 0cba 252e 223e
00000020: 3562 bf3d c98b e53c bab7 7dbc 5663 f33d
00000030: 7eb1 ebbd 3f56 9a3d f68c 3bbd e8f4 efbc
00000040: 1e7f ff3d e099 9ebd 80ff 45bd 272e 75bd
00000050: 8178 cfbc 9ffa cf3c 0644 543e d884 473d
00000060: ca97 803e c5b1 cdbc 8c6e c6bd 3f12 0b3e
00000070: b003 39bd 747e 053d 09a5 b5bb 6926 f7bd
0.14198509 0.06112291 0.036845177 0.19049208 0.043585587 0.2065887 -0.0005357866 0.15837915
0.093449034 0.028020756 -0.015485698 0.11884181 -0.11508463 0.075359814 -0.045788728 -0.029291585
0.124754176 -0.07744193 -0.048339367 -0.059858467 -0.025326015 0.02538806 0.20729074 0.048710674
0.25115806 -0.025109181 -0.09689054 0.13581179 -0.045169532 0.0325913 -0.0055433554 -0.12067873

model.4.weight f4 [1, 32, 1, 1]
00000000: 09d9 2cbe 63ff 67be 6075 383e 3e45 063e
00000010: adbe 07be c77f 8a3e 3414 823e 70db 43be
00000020: d28b 813e 3258 3ebe e246 2a3e 64f4 753e
00000030: fab8 27be 860a fcbd 4e4b 843e 701d eebd
00000040: 3e11 3dbe 6754 21be 6410 75bd abfd 45be
00000050: 3078 263e 3be0 8dbe 232f 233e 57b8 083e
00000060: d83f ed3d 59e6 86be c851 91be dc15 f4bd
00000070: 8d4c 1a3e 0904 64be b474 673d a188 3f3e
-0.16879667 -0.22656016 0.18013525 0.13112351 -0.13256331 0.2705061 0.2540604 -0.19126678
0.25301987 -0.18588331 0.16628602 0.24019009 -0.16379157 -0.12306695 0.25838703 -0.116267085
-0.18463609 -0.15754853 -0.059830084 -0.19335048 0.16256785 -0.27710137 0.1593595 0.1335157
0.11584443 -0.26347616 -0.28382707 -0.11918232 0.15068264 -0.22267164 0.05650778 0.18704464
