checkpoints_jonny/alex_1/6_net_rank.pth (torch, 7127 bytes, 5 tensors)

model.0.weight f4 [32, 5, 1, 1]
0.247873 -0.23972537 0.17320012 0.44873074 0.32651907 -0.04244994 0.10514139 -0.43095958
0.021364698 0.04183883 -0.2954915 0.3048612 -0.3861365 -0.16129364 0.055540238 0.44550502
0.1922365 0.29007483 -0.25546896 0.42694765 0.017797746 -0.31128106 0.15205875 -0.577537
0.50695634 0.17343828 0.21683495 -0.3937826 -0.37665126 -0.25833857 -0.28544635 0.3878533
-0.39193603 -0.2440159 0.07824328 0.5211265 -0.33077213 -0.01662254 0.23173776 -0.10084189
0.16234787 -0.2613308 -0.36181363 -0.5012886 -0.11628165 -0.3801024 0.33403638 0.11521848
0.3043913 -0.5115916 0.17832458 0.32442704 -0.24023208 0.17296362 -0.2612805 -0.05498383
-0.11793458 -0.35313982 0.323001 -0.0030743652 -0.22712754 0.45364526 0.27241802 0.23197521
-0.28554562 -0.3843061 0.4620358 -0.22336179 -0.41973042 0.30116335 0.3330501 0.13094187
-0.03310319 -0.19912067 0.47189116 0.26747692 0.19545801 -0.48481226 -0.5776307 -0.22243962
-0.29618713 0.069816545 -0.2583784 -0.25633302 0.09527987 0.42335972 -0.021770634 0.58540374
0.18847819 -0.53511864 0.28989077 0.036635097 0.17491545 -0.28127614 -0.009151933 -0.44082537
0.25988054 0.14894263 -0.53986645 -0.071912505 0.39276138 -0.06568508 0.55819017 0.12563609
-0.33200613 -0.36702034 0.3665458 0.24914382 -0.35352448 0.39229384 0.2402203 0.2035425
-0.07043641 0.48508036 0.23809268 0.20356081 -0.0242827 0.15765114 0.1614401 -0.20839976
0.107577905 -0.3706433 -0.43666217 -0.06935414 0.39363486 0.19940913 -0.37726066 0.38692796
-0.19286686 -0.46322304 -0.11746592 -0.43404707 0.41059333 0.20614454 0.06555511 0.10958322
0.11327951 0.0134434225 -0.18641926 0.14628728 -0.31182757 0.5235844 0.06269374 -0.05137493
0.50237817 0.1063299 0.11796594 -0.34031838 -0.20933507 0.2965656 -0.0022488057 -0.44365448
-0.23411432 -0.19289672 0.41841206 0.10142301 0.34525257 0.48911658 0.37980467 -0.36665007
00000000: 6bd2 7d3e 917a 75be 5f5b 313e 09c0 e53e
00000010: 822d a73e fddf 2dbd 5e54 d73d bca6 dcbe
00000020: 0505 af3c 315f 2b3d a94a 97be c416 9c3e
00000030: afb3 c5be 292a 25be 297e 633d 3c19 e43e
00000040: a5d9 443e b084 943e d4cc 82be e298 da3e
00000050: 94cc 913c 3b60 9fbe 4ab5 1b3e 77d9 13bf
00000060: e4c7 013f ce99 313e fb09 5e3e df9d c9be
00000070: 6fd8 c0be f444 84be 0626 92be b594 c63e
00000080: d7ab c8be 4edf 79be 033e a03d 8c68 053f
00000090: f75a a9be fe2b 88bc aa4c 6d3e 3186 cebd
000000a0: 853e 263e 27cd 85be a33f b9be 7354 00bf
000000b0: 1325 eebd c89c c2be d106 ab3e abf7 eb3d
000000c0: 2dd9 9b3e abf7 02bf b89a 363e 4d1b a63e
000000d0: 66ff 75be 601d 313e 8fc6 85be b936 61bd
000000e0: af87 f1bd bece b4be 6360 a53e 4a7b 49bb
000000f0: 1f94 68be 3144 e83e 607a 8b3e e98a 6d3e
00000100: 0933 92be c5c3 c4be f58f ec3e f4b8 64be
00000110: e8e6 d6be 1532 9a3e 8b85 aa3e a015 063e
00000120: 3697 07bd 4ae6 4bbe b89b f13e bcf2 883e
00000130: 2526 483e 5039 f8be 9bdf 13bf 36c7 63be
00000140: d7a5 97be fafb 8e3d 2c4a 84be 153e 83be
00000150: 1822 c33d 9bc2 d83e 5458 b2bc 05dd 153f
00000160: 6d00 413e 89fd 08bf 906c 943e af0e 163d
00000170: 091d 333e 6d03 90be fdf1 15bc ddb3 e1be
00000180: 100f 853e 6b84 183e b034 0abf dd46 93bd
00000190: 0518 c93e e685 86bd 8de5 0e3f bfa6 003e
000001a0: b5fc a9be 17ea bbbe e4ab bb3e 8f1f 7f3e
000001b0: 2901 b5be bdda c83e 4ffc 753e 726d 503e
000001c0: f740 90bd 745c f83e 91ce 733e 3f72 503e
000001d0: 83ec c6bc 4d6f 213e 8e50 253e bf66 55be
000001e0: ce51 dc3d f5c4 bdbe 2f92 dfbe 8b09 8ebd
000001f0: 828a c93e e831 4c3e 4f28 c1be 6c1b c63e
00000200: e47e 45be 922b edbe f991 f0bd 6b3b debe
00000210: 4a39 d23e 8e17 533e c241 863d 2b6d e03d
00000220: 16ff e73d cd41 5c3c b1e4 3ebe 55cc 153e
00000230: dda7 9fbe a109 063f 9365 803d 856e 52bd
00000240: db9b 003f 7ec3 d93d 2098 f13d 363e aebe
00000250: ef5b 56be 72d7 973e b360 13bb ae26 e3be
00000260: aabb 6fbe b886 45be 1b3a d63e deb6 cf3d
00000270: f2c4 b03e 7d6d fa3e c275 c23e 8fb9 bbbe

model.0.bias f4 [32]
0.02667926 -0.5194669 -0.39762014 -0.08346719 0.037453096 -0.3875687 -0.1069712 0.38782763
-0.21175076 0.11515045 -0.05048255 -0.017780306 0.09340865 0.08259188 0.17616734 0.16614197
0.09948076 -0.15501475 -0.13034765 -0.5182006 -0.00919059 0.32415557 0.13035229 -0.10627494
0.16022538 0.2006204 0.5046641 0.37850288 0.06671586 -0.047525153 0.1712747 0.07545064
00000000: 778e da3c c8fb 04bf de94 cbbe d9f0 aabd
00000010: 6b68 193d 686f c6be b713 dbbd 5891 c63e
00000020: 31d5 58be 00d4 eb3d cac6 4ebd 01a8 91bc
00000030: 094d bf3d ee25 a93d 3665 343e 1f21 2a3e
00000040: 92bc cb3d 30bc 1ebe db79 05be cba8 04bf
00000050: 2194 16bc b8f7 a53e 127b 053e ada6 d9bd
00000060: 1f12 243e 6f6f 4d3e ab31 013f 21cb c13e
00000070: 53a2 883d bca9 42bd a362 2f3e dd85 9a3d

model.2.weight f4 [32, 32, 1, 1]
0.016044606 -0.15435967 -0.013436214 -0.11387499 0.0070614303 0.11978058 -0.05502313 -0.044758935
0.008017353 -0.09369218 0.04125172 -0.13611238 -0.025313936 0.058578115 0.03507091 -0.11223944
0.3086904 -0.21615402 0.04288156 -0.03810604 -0.18600804 0.15718688 0.028781103 0.07579838
0.0859377 0.07598478 -0.05797137 0.11182713 0.026675709 0.2144846 0.24298014 -0.20127703
0.13219929 0.062483523 0.031956777 -0.029040521 0.19393903 0.0001810839 0.037214704 -0.01127113
0.03662708 0.028686894 -0.19963716 -0.05819271 -0.13094057 0.18959616 0.03246533 0.10356007
0.29658958 0.077139266 0.04502034 0.17733516 -0.030141225 0.2636701 -0.07266183 0.08680247
-0.031991128 -0.065487266 0.17583553 -0.09973932 0.17557825 -0.0877307 -0.01349065 -0.14447178
0.18225084 -0.078180864 -0.21017969 -0.21538474 -0.14568749 -0.15942508 -0.22583391 0.22955026
-0.013263518 0.22785668 0.0052101146 0.26952276 0.1130495 -0.25709522 -0.05180965 -0.19797103
-0.09856708 0.14497054 -0.25790143 -0.045382924 0.04302085 -0.15172774 0.2552626 -0.02118388
0.094284944 0.1917144 0.0018173737 0.011436625 0.09675604 -0.20832892 0.042359024 0.04368423
0.08465449 0.06347627 -0.23066385 -0.018879743 -0.22997993 -0.068871535 0.07207248 -0.01837703
0.018732723 0.05010042 0.09457452 0.037275817 0.014085034 -0.24709657 -0.012301766 0.05390902
-0.3149545 0.20909125 -0.043779083 -0.26760638 0.13908345 -0.021796329 0.25648656 0.22022805
-0.12520939 0.035830785 0.039991867 0.011960609 -0.0036639182 0.031316206 0.008260225 0.18100095
0.13059458 -0.11877133 -0.03964305 -0.083563335 0.0985795 -0.119282044 0.0055700857 -0.06936314
-0.02985298 0.06350472 -0.008605014 0.042386994 -0.2490955 0.08173961 0.12280277 0.16650195
0.01708648 0.0018800502 0.18406057 -0.016274868 0.036038704 -0.03965171 -0.011823959 0.01095207
0.0006699612 0.0075363475 -0.11608923 0.2070112 0.1949146 0.16977517 0.085439116 0.013961052
0.0012430188 -0.21119305 0.07372578 -0.025570516 -0.14157808 -0.21218394 0.0018480177 0.16241008
-0.04125106 0.22708331 0.19046025 0.20982464 0.19983217 -0.20015718 -0.07480915 -0.16007124
-0.26740757 -0.0631468 -0.008439685 -0.2448054 0.06668151 -0.1030247 0.06364463 0.20457798
-0.17598388 0.2186375 0.16025221 -0.14664619 0.09679162 0.0448015 -0.034364346 0.21323596
0.20865119 0.0791054 -0.17020276 0.012892404 -0.22614458 -0.027792232 -0.17877388 0.2701163
-0.18928073 0.16126843 0.05238823 0.20578052 0.13827947 -0.11280567 -0.08576025 -0.14112705
0.026752496 0.22848947 0.045020558 -0.16964233 0.25197783 0.075447865 0.17329161 -0.06330486
-0.1411934 -0.005943333 0.20453985 -0.06414199 -0.18371695 -0.11839288 0.057162896 -0.0025921748
-0.028752202 -0.16241002 0.17115135 0.1438848 0.041395903 -0.093888 -0.08691511 -0.16566652
-0.05984682 0.01664529 -0.15952612 -0.25069612 -0.08040344 0.25290418 0.04670471 0.04577685
0.25650367 0.08752276 -0.09874033 -0.017268568 -0.22505419 0.15582381 0.037755772 -0.032179497
0.1960593 -0.077600345 0.057306774 -0.012425853 0.230625 -0.062220085 -0.07068554 -0.23435669
00000000: fa6f 833c 7610 1ebe 9123 5cbc 4a37 e9bd
00000010: 9263 e73b 854f f53d ef5f 61bd 2555 37bd
00000020: 375b 033c b0e1 bfbd 90f7 283d 0b61 0bbe
00000030: 2c5f cfbc 9bef 6f3d 84a6 0f3d cbdd e5bd
00000040: ab0c 9e3e 7b57 5dbe 93a4 2f3d 1415 1cbd
00000050: e478 3ebe 99f5 203e 59c6 eb3c 2e3c 9b3d
00000060: 1b00 b03d e99d 9b3d 6373 6dbd 9f05 e53d
00000070: 0487 da3c daa1 5b3e c9cf 783e 911b 4ebe
00000080: 405f 073e b9ee 7f3d 1ce5 023d 63e6 edbc
00000090: f497 463e 57e1 3d39 726e 183d 8caa 38bc
000000a0: 4706 163d c700 eb3c af6d 4cbe 7b5b 6ebd
000000b0: 4915 06be 7f25 423e 5efa 043d 4d17 d43d
000000c0: 97da 973e 31fb 9d3d 3f67 383d 5997 353e
000000d0: bbea f6bc c4ff 863e bacf 94bd 7ec5 b13d
000000e0: 2109 03bd 301e 86bd 3b0e 343e 2144 ccbd
000000f0: c9ca 333e 27ac b3bd e307 5dbc 69f0 13be
00000100: f79f 3a3e 4a1d a0bd 5839 57be d18d 5cbe
00000110: 1a2f 15be 5440 23be 0141 67be 390f 6b3e
00000120: 3a4f 59bc 4353 693e 9cb9 aa3b e3fe 893e
00000130: 7f86 e73d fca1 83be 5b36 54bd ebb8 4abe
00000140: 8add c9bd 2873 143e a80b 84be 72e3 39bd
00000150: a136 303d 845e 1bbe c8b1 823e d189 adbc
00000160: 7718 c13d c850 443e f134 ee3a af60 3b3c
00000170: 0828 c63d 2d54 55be a880 2d3d 3cee 323d
00000180: 555f ad3d d9ff 813d 2533 6cbe b1a9 9abc
00000190: dc7f 6bbe 850c 8dbd bd9a 933d 6d8b 96bc
000001a0: 5e75 993c 1936 4d3d 49b0 c13d 87ae 183d
000001b0: eac4 663c e206 7dbe 598d 49bc b4cf 5c3d
000001c0: b741 a1be 041c 563e b251 33bd b403 89be
000001d0: e46b 0e3e 378e b2bc 3552 833e 7683 613e
000001e0: e436 00be 4dc3 123d 83ce 233d 6ef6 433c
000001f0: 591e 70bb 6c45 003d e555 073c 5058 393e
00000200: 96ba 053e 623e f3bd c060 22bd 4123 abbd
00000210: 0de4 c93d 254a f4bd 4485 b63b 430e 8ebd
00000220: 3d8e f4bc c30e 823d 0bfc 0cbc fc9d 2d3d
00000230: e412 7fbe 1967 a73d 0580 fb3d 7d7f 2a3e
00000240: f2f8 8b3c 046c f63a 607a 3c3e df52 85bc
00000250: 529d 133d d569 22bd 47b9 41bc 5070 333c
00000260: 56a0 2f3a 77f3 f63b 31c0 edbd befa 533e
00000270: b197 473e 8bd9 2d3e b4fa ae3d e5bc 643c
00000280: caec a23a fe42 58be 8bfd 963d 4279 d1bc
00000290: d8f9 10be bf46 59be 2f39 f23a d44e 263e
000002a0: dff6 28bd 8788 683e 0308 433e 45dc 563e
000002b0: cea0 4c3e 01f6 4cbe 8a35 99bd b7e9 23be
000002c0: a5e9 88be 1c53 81bd 9b46 0abc 44ae 7abe
000002d0: 5190 883d 9dfe d2bd 1e58 823d e47c 513e
000002e0: 1e35 34be 82e2 5f3e 2819 243e 6b2a 16be
000002f0: af3a c63d c781 373d a1c1 0cbd 875a 5a3e
00000300: a8a8 553e 0302 a23d a249 2ebe a93a 533c
00000310: 7292 67be 89ac e3bc 8010 37be af4c 8a3e
00000320: cfd2 41be 8d23 253e 0a95 563d 21b8 523e
00000330: 2299 0d3e a906 e7bd 12a3 afbd 9c83 10be
00000340: 0d28 db3c 25f9 693e 7a67 383d b8b6 2dbe
00000350: 3d03 813e 6984 9a3d 5b73 313e faa5 81bd
00000360: 0195 10be 4ac0 c2bb e572 513e e05c 83bd
00000370: 4c20 3cbe f777 f2bd a423 6a3d 7ae1 29bb
00000380: bd89 ebbc d04e 26be 4d42 2f3e 8956 133e
00000390: c08e 293d 5a48 c0bd 8d00 b2bd 7ca4 29be
000003a0: f021 75bd b45b 883c d15a 23be 3e5b 80be
000003b0: 8faa a4bd a87c 813e 704d 3f3d 8280 3b3d
000003c0: 7354 833e 223f b33d 5f38 cabd d076 8dbc
000003d0: 9b74 66be 4790 1f3e cca5 1a3d a6ce 03bd
000003e0: c5c3 483e eeec 9ebd 82ba 6a3d ce95 4bbc
000003f0: f628 6c3e 7dda 7ebd 95c3 90bd 33fb 6fbe

model.2.bias f4 [32]
0.14484292 0.06331147 0.04243014 0.19518304 0.04624016 0.21071228 0.00414743 0.16245286
0.09879194 0.035451625 -0.008863735 0.12519273 -0.110288784 0.075025335 -0.037210222 -0.022646884
0.1284334 -0.07097543 -0.045322374 -0.05569258 -0.019768182 0.031890314 0.21225786 0.05407081
0.2558449 -0.0154006975 -0.09046702 0.13935603 -0.037004065 0.036386702 -0.00071930524 -0.1157283
00000000: b451 143e 72a9 813d 3acb 2d3d 10de 473e
00000010: 5266 3d3d f6c4 573e 2ae7 873b 0b5a 263e
00000020: 6e53 ca3d b935 113d 3339 11bc 8632 003e
00000030: 16df e1bd e2a6 993d bf69 18bd f585 b9bc
00000040: 0c84 033e 915b 91bd f4a3 39bd e71d 64bd
00000050: e2f0 a1bc 6b9f 023d 205a 593e 5b79 5d3d
00000060: 1afe 823e 3553 7cbc c646 b9bd 59b3 0e3e
00000070: 9391 17bd 390a 153d c28f 3cba f502 edbd

model.4.weight f4 [1, 32, 1, 1]
-0.17521477 -0.2351498 0.1856215 0.13725005 -0.13606423 0.27855712 0.259312 -0.1969719
0.26029932 -0.19065264 0.1748911 0.24628723 -0.17097735 -0.12290606 0.2626541 -0.12368605
-0.19061731 -0.16286884 -0.062328193 -0.19600902 0.16994148 -0.28101224 0.16593416 0.14083505
0.12368685 -0.2763686 -0.29003975 -0.13041548 0.15636723 -0.22711469 0.06787064 0.19244464
00000000: 806b 33be 1ccb 70be 9013 3e3e 478b 0c3e
00000010: 6c54 0bbe 0a9f 8e3e 8bc4 843e 00b3 49be
00000020: f445 853e 723a 43be a716 333e b832 7c3e
00000030: b014 2fbe 2cb6 fbbd 997a 863e 1d4f fdbd
00000040: 2f31 43be 17c7 26be d94b 7fbd 97b6 48be
00000050: 2405 2e3e d6e0 8fbe a5ea 293e 1037 103e
00000060: 884f fd3d 2f80 8dbe 1780 94be a38b 05be
00000070: bb1e 203e c190 68be c3ff 8a3d 3510 453e
