checkpoints_jonny/alex_1/7_net_rank.pth (torch, 7127 bytes, 5 tensors)

model.0.weight f4 [32, 5, 1, 1]
0.23919797 -0.25261012 0.17393054 0.44782242 0.31986773 -0.027653804 0.12112982 -0.43536082
0.024283629 0.046951924 -0.29241 0.30452502 -0.37996304 -0.16180122 0.056699138 0.4451583
0.18704003 0.30173784 -0.2536123 0.4256927 0.0058811563 -0.32299268 0.16051301 -0.58513457
0.5034093 0.17976058 0.2235663 -0.39107445 -0.37606314 -0.25257352 -0.28629494 0.3822594
-0.38344684 -0.24591857 0.07587611 0.5177246 -0.33132604 -0.022152051 0.23184973 -0.10356069
0.16502866 -0.26226828 -0.35522267 -0.5016439 -0.114670165 -0.38905355 0.32364166 0.111021735
0.30093127 -0.5222962 0.16991507 0.31631434 -0.24537338 0.16997321 -0.26976237 -0.05522705
-0.1134672 -0.36191583 0.3238774 -0.0023466502 -0.23184258 0.45139256 0.26588646 0.23063484
-0.287794 -0.3939818 0.45157957 -0.21538343 -0.426815 0.2975148 0.33345065 0.12729532
-0.025140269 -0.19956136 0.47253215 0.27294928 0.20613529 -0.49426895 -0.573319 -0.20685475
-0.30697495 0.058848776 -0.25066376 -0.2619939 0.09268544 0.41827643 -0.02417825 0.5797436
0.1886394 -0.5383414 0.29650596 0.042472754 0.17925681 -0.27993038 -0.0034294464 -0.43686524
0.26113626 0.15461911 -0.53949916 -0.06885499 0.3865048 -0.07255238 0.5543651 0.12546314
-0.33847225 -0.36933327 0.36091602 0.2563822 -0.35566688 0.39170128 0.23879908 0.20590913
-0.07734184 0.4859017 0.2373999 0.19706896 -0.02969537 0.1518538 0.1601382 -0.21414304
0.10619064 -0.3749555 -0.43072858 -0.07227802 0.39370835 0.21396701 -0.3725102 0.4036393
-0.17480148 -0.46247497 -0.12260662 -0.43788522 0.40664336 0.20592487 0.06180448 0.10781905
0.1072071 0.02212437 -0.18808502 0.14543132 -0.31202394 0.5192405 0.07064579 -0.05233021
0.5025554 0.100588314 0.10953069 -0.3310523 -0.21460257 0.29271477 -0.0020892534 -0.4464741
-0.22830121 -0.19411406 0.41961044 0.09618052 0.34196213 0.4831386 0.37756866 -0.370797
00000000: 50f0 743e 1d56 81be d91a 323e fb48 e53e
00000010: b4c5 a33e 3b8a e2bc e912 f83d 9de7 debe
00000020: 76ee c63c a950 403d c3b6 95be b4ea 9b3e
00000030: 848a c2be 38af 25be 5b3d 683d caeb e33e
00000040: 6c87 3f3e 627d 9a3e 79d9 81be 65f4 d93e
00000050: b7b6 c03b 4c5f a5be 865d 243e 61cb 15bf
00000060: 6fdf 003f 2813 383e 90ee 643e e93a c8be
00000070: 598b c0be 5151 81be 4095 92be 81b7 c33e
00000080: 2553 c4be 14d2 7bbe ef64 9b3d 9989 043f
00000090: 91a3 a9be 3878 b5bc 046a 6d3e a117 d4bd
000000a0: 46fd 283e 0748 86be bfdf b5be bc6b 00bf
000000b0: 31d8 eabd 0732 c7be 5cb4 a53e 5d5f e33d
000000c0: aa13 9a3e 34b5 05bf 37fe 2d3e f4f3 a13e
000000d0: 2943 7bbe 750d 2e3e 4b1e 8abe c235 62bd
000000e0: 7e61 e8bd 084d b9be 42d3 a53e 42ca 19bb
000000f0: 2468 6dbe ed1c e73e 4522 883e 8a2b 6c3e
00000100: bc59 93be fcb7 c9be 7035 e73e 798d 5cbe
00000110: 7f87 dabe dc53 983e 0bba aa3e b459 023e
00000120: f7f2 cdbc d059 4cbe bcef f13e 02c0 8b3e
00000130: 2115 533e d210 fdbe 09c5 12bf bbd1 53be
00000140: d22b 9dbe 6a0b 713d 0057 80be 1124 86be
00000150: ddd1 bd3d 5428 d63e 7711 c6bc 146a 143f
00000160: b02a 413e bed0 09bf a1cf 973e e9f7 2d3d
00000170: 198f 373e 0953 8fbe 90c0 60bb cdac dfbe
00000180: a7b3 853e 7954 1e3e 9e1c 0abf d803 8dbd
00000190: f5e3 c53e 5896 94bd dfea 0d3f 6979 003e
000001a0: 3c4c adbe 4019 bdbe fcc9 b83e 8744 833e
000001b0: f819 b6be 128d c83e bf87 743e d8d9 523e
000001c0: 6665 9ebd 1cc8 f83e f618 733e 72cc 493e
000001d0: b443 f3bc 907f 1b3e 45fb 233e 5048 5bbe
000001e0: 7a7a d93d 2bfa bfbe 7588 dcbe 8006 94bd
000001f0: 2494 c93e 2b1a 5b3e a8b9 bebe cfa9 ce3e
00000200: 29ff 32be 85c9 ecbe 2e19 fbbd 7e32 e0be
00000210: 8f33 d03e f8dd 523e b226 7d3d 3cd0 dc3d
00000220: 658f db3d 2b3e b53c 5c99 40be f3eb 143e
00000230: 9ac1 9fbe f2ec 043f bdae 903d 3458 56bd
00000240: 78a7 003f 3f01 ce3d a051 e03d b07f a9be
00000250: c7c0 5bbe b6de 953e dbeb 08bb 4198 e4be
00000260: cbc7 69be d6c5 46be 2ed7 d63e 4bfa c43d
00000270: a915 af3e f15d f73e ae50 c13e 1bd9 bdbe

model.0.bias f4 [32]
0.031369146 -0.5274045 -0.39776066 -0.07848025 0.041177142 -0.38898766 -0.106291674 0.38763437
-0.21122514 0.11345852 -0.051219836 -0.018879667 0.093645394 0.08458546 0.17871536 0.17440715
0.10248805 -0.15294087 -0.13098593 -0.5179716 -0.0026484241 0.32646966 0.12957714 -0.10513998
0.16182949 0.20736936 0.50604063 0.38118985 0.069208965 -0.04662143 0.17292623 0.07490359
00000000: ef7c 003d fb03 07bf 49a7 cbbe 41ba a0bd
00000010: 5da9 283d 6429 c7be 73af d9bd 0378 c63e
00000020: 674b 58be f15c e83d e4cb 51bd 88a9 9abc
00000030: 28c9 bf3d 243b ad3d 2901 373e ca97 323e
00000040: 41e5 d13d 889c 1cbe 2d21 06be c999 04bf
00000050: 2f91 2dbb 0827 a73e dfaf 043e a153 d7bd
00000060: a1b6 253e a258 543e e18b 013f 512b c33e
00000070: 6ebd 8d3d 1df6 3ebd 9313 313e 0e67 993d

model.2.weight f4 [32, 32, 1, 1]
0.015136531 -0.15764363 -0.016410515 -0.119815886 0.010575727 0.1182074 -0.063519076 -0.042677443
0.007841957 -0.09740878 0.038945902 -0.1397537 -0.025641266 0.059224386 0.035691988 -0.10782226
0.3150548 -0.21620102 0.042227346 -0.03923916 -0.18787271 0.15957661 0.027810482 0.07512248
0.08704678 0.07451255 -0.05511683 0.11425582 0.025878422 0.20912634 0.24527219 -0.20097098
0.13132304 0.059144676 0.028922867 -0.03496057 0.19745472 -0.0014379373 0.028646505 -0.009131239
0.036404766 0.025047999 -0.20190468 -0.061797794 -0.13118355 0.19024941 0.033105675 0.10797586
0.30296296 0.07710113 0.04431676 0.17615145 -0.03193293 0.26608348 -0.073595576 0.08611497
-0.03086109 -0.06687874 0.17874394 -0.097270645 0.17479137 -0.09308731 -0.011182862 -0.1440808
0.18197174 -0.077599235 -0.20958418 -0.21054256 -0.14968461 -0.15912108 -0.22346841 0.22931653
-0.013375161 0.2332837 0.004379446 0.2712948 0.11431297 -0.25802273 -0.053027447 -0.19970782
-0.10378593 0.14281574 -0.25868288 -0.045379546 0.04388966 -0.15324312 0.25544944 -0.024079984
0.09355318 0.19741826 0.0013631791 0.010767207 0.09630578 -0.20363803 0.040685322 0.04358225
0.08461146 0.06414955 -0.22998841 -0.0134036755 -0.23363762 -0.06862095 0.075224675 -0.018643934
0.018498039 0.05540108 0.09373842 0.039272357 0.015298737 -0.24758632 -0.013185949 0.0519243
-0.32004824 0.20669863 -0.04461328 -0.26766673 0.13974933 -0.023149861 0.25692368 0.21719621
-0.12569706 0.0411736 0.039469495 0.011354777 -0.003656383 0.036630105 0.006776405 0.18084876
0.1313883 -0.12206944 -0.04298286 -0.08924611 0.101749495 -0.121451266 -0.003289591 -0.06679955
-0.031121325 0.059921928 -0.007735125 0.040762153 -0.2485652 0.082080826 0.12395035 0.16918014
0.022791639 0.0031921542 0.18294863 -0.0180925 0.036706593 -0.03743875 -0.011403747 0.013118449
0.0019014732 0.0043639415 -0.11304937 0.20942175 0.19472769 0.16440384 0.08762182 0.015792098
0.0007860641 -0.2106878 0.07427054 -0.020958424 -0.14588949 -0.21184376 0.0039228937 0.16219957
-0.041272864 0.23259626 0.18963347 0.21140982 0.20112827 -0.20133705 -0.07623582 -0.16171433
-0.2726494 -0.06517224 -0.009183877 -0.24476166 0.067673504 -0.10461589 0.06366414 0.2017383
-0.17686264 0.22459699 0.1598439 -0.1473217 0.09604311 0.049321704 -0.03615814 0.21316126
0.2081596 0.07964975 -0.16962926 0.017325055 -0.2305092 -0.027411707 -0.17672701 0.26987752
-0.18927237 0.16678207 0.051581416 0.20735843 0.13957688 -0.11407778 -0.08725515 -0.14276704
0.021451594 0.22652882 0.044311076 -0.16956495 0.25299186 0.07378934 0.1732743 -0.06609891
-0.14214376 3.4295357e-05 0.20409529 -0.06487379 -0.18454328 -0.11407686 0.055297982 -0.0026622456
-0.029725136 -0.16601513 0.16784841 0.13780737 0.04485074 -0.09565785 -0.09592421 -0.16328579
-0.060151476 0.013616239 -0.16183557 -0.25440028 -0.08023806 0.25351894 0.047246724 0.050345063
0.2629001 0.08756963 -0.09967331 -0.018608643 -0.22640117 0.15828075 0.03677589 -0.033010237
0.19718863 -0.07827485 0.060478993 -0.0098255295 0.2296864 -0.06767917 -0.06836322 -0.23361929
00000000: 36ff 773c 556d 21be 586f 86bc 0862 f5bd
00000010: d045 2d3c b916 f23d 4a16 82bd 8bce 2ebd
00000020: 8d7b 003c 417e c7bd bd85 1f3d 981b 0fbe
00000030: a20d d2bc 4595 723d c331 123d ebd1 dcbd
00000040: dd4e a13e cd63 5dbe 95f6 2c3d 3eb9 20bd
00000050: b461 40be 0d68 233e cfd2 e33c d1d9 993d
00000060: 9545 b23d 099a 983d 2fc2 61bd f5fe e93d
00000070: fcfe d33c 3725 563e a228 7b3e 56cb 4dbe
00000080: 8c79 063e b041 723d a6ef ec3c d132 0fbd
00000090: 9231 4a3e 2b79 bcba 13ac ea3c 319b 15bc
000000a0: 2a1d 153d 7631 cd3c 1ac0 4ebe af1f 7dbd
000000b0: fb54 06be bed0 423e d199 073d 7322 dd3d
000000c0: f61d 9b3e 32e7 9d3d 7e85 353d 0c61 343e
000000d0: 1bcc 02bd 183c 883e 47b9 96bd 0c5d b03d
000000e0: 66d0 fcbc b9f7 88bd a708 373e d535 c7bd
000000f0: 82fc 323e 8fa4 bebd 5338 37bc eb89 13be
00000100: cd56 3a3e 59ec 9ebd 3c9d 56be 7898 57be
00000110: ec46 19be a3f0 22be e7d4 64be f4d1 6a3e
00000120: 7e23 5bbc ece1 6e3e 7581 8f3b 27e7 8a3e
00000130: eb1c ea3d 8e1b 84be 4f33 59bd 3580 4cbe
00000140: b88d d4bd 4a3e 123e 1572 84be e7df 39bd
00000150: a5c5 333d c4eb 1cbe 45ca 823e 6343 c5bc
00000160: cf98 bf3d 0328 4a3e b3ac b23a f068 303c
00000170: f73b c53d 7d86 50be a7a5 263d 4d83 323d
00000180: c648 ad3d d760 833d 1582 6bbe 179b 5bbc
00000190: b33e 6fbe 2489 8cbd 650f 9a3d 2abb 98bc
000001a0: 3389 973c 3eec 623d eef9 bf3d 0ddc 203d
000001b0: 8ea7 7a3c 4587 7dbe e109 58bc 93ae 543d
000001c0: 5ddd a3be cea8 533e 6abc 36bd 9d0b 89be
000001d0: 731a 0f3e c7a4 bdbc 808b 833e af68 5e3e
000001e0: bbb6 00be a6a5 283d c4aa 213d 6309 3a3c
000001f0: ed9f 6fbb 7309 163d 9b0c de3b 6b30 393e
00000200: a88a 063e 8bff f9bd cc0e 30bd aac6 b6bd
00000210: 0a62 d03d 71bb f8bd 2e96 57bb 34ce 88bd
00000220: 26f2 febc b270 753d ee76 fdbb 37f6 263d
00000230: e087 7ebe fe19 a83d aed9 fd3d 8f3d 2d3e
00000240: 88b5 ba3c 7633 513b e356 3b3e b936 94bc
00000250: a759 163d 6059 19bd c8d6 3abc c3ee 563c
00000260: da3a f93a 65ff 8e3b 6e86 e7bd a872 563e
00000270: b266 473e 7b59 283e 1273 b33d 6e5e 813c
00000280: de0f 4e3a 8bbe 57be 271b 983d 00b1 abbc
00000290: 0e64 15be 92ed 58be 9e8b 803b a517 263e
000002a0: bc0d 29bd b72d 6e3e 472f 423e d17b 583e
000002b0: 92f4 4d3e 4d2b 4ebe 8721 9cbd 7198 25be
000002c0: b498 8bbe 0679 85bd f977 16bc cda2 7abe
000002d0: 6898 8a3d db40 d6bd 5862 823d 7c94 4e3e
000002e0: 7b1b 35be c1fc 653e 1fae 233e 80db 16be
000002f0: 40b2 c43d 8e05 4a3d 8f1a 14bd f246 5a3e
00000300: ca27 553e 681f a33d 4bb3 2dbe 46ed 8d3c
00000310: 9b0a 6cbe 848e e0bc edf7 34be 632d 8a3e
00000320: 9ed0 41be ebc8 2a3e 0947 533d c555 543e
00000330: 3eed 0e3e 9ca1 e9bd d4b2 b2bd 8631 12be
00000340: 41bb af3c 2cf7 673e 887f 353d 6fa2 2dbe
00000350: 2688 813e de1e 973d d16e 313e de5e 87bd
00000360: 228e 11be 5cd8 0f38 5bfe 503e 8ddc 84bd
00000370: eaf8 3cbe 21a1 e9bd 2380 623d 1279 2ebb
00000380: 2182 f3bc dfff 29be 74e0 2b3e 601d 0d3e
00000390: 69b5 373d 43e8 c3bd ea73 c4bd 6434 27be
000003a0: 6561 76bd a516 5f3c 39b8 25be c140 82be
000003b0: da53 a4bd 3ccd 813e c885 413d a036 4e3d
000003c0: d89a 863e b557 b33d 8521 ccbd 2771 98bc
000003d0: b5d5 67be 5914 223e 51a2 163d be35 07bd
000003e0: d1eb 493e 914e a0bd d2b8 773d 42fb 20bc
000003f0: e932 6b3e 609b 8abd 0402 8cbd e539 6fbe

model.2.bias f4 [32]
0.1473906 0.065909386 0.04220612 0.19494364 0.04880099 0.2105198 0.003912328 0.16527723
0.098886445 0.040517364 -0.01017983 0.12530676 -0.10746636 0.076260775 -0.036946565 -0.018677969
0.13138704 -0.06771209 -0.042436 -0.05297506 -0.021488274 0.035464518 0.21220101 0.054137737
0.2555741 -0.011350649 -0.08649865 0.1421878 -0.037096366 0.03927175 -0.0017134728 -0.11563026
00000000: 90ed 163e 80fb 863d 53e0 2c3d 4e9f 473e
00000010: 8ce3 473d 8192 573e fc32 803b 6f3e 293e
00000020: fa84 ca3d 89f5 253d 4dc9 26bc 6a50 003e
00000030: 5317 dcbd 9c2e 9c3d 4855 17bd 8a02 99bc
00000040: 538a 063e a3ac 8abd 5fd1 2dbd 60fc 58bd
00000050: 2d08 b0bc 3e43 113d 394b 593e 88bf 5d3d
00000060: 9cda 823e 13f8 39bc 3426 b1bd ae99 113e
00000070: 5cf2 17bd 6adb 203d 9b96 e0ba 8fcf ecbd

model.4.weight f4 [1, 32, 1, 1]
-0.17769413 -0.23822588 0.1861945 0.13783127 -0.13684715 0.27977318 0.2596901 -0.1989056
0.26143423 -0.19149981 0.17803545 0.24679066 -0.17286941 -0.12178929 0.26294875 -0.12600079
-0.19274579 -0.16436361 -0.06267099 -0.19632572 0.17188738 -0.2817448 0.16672568 0.14162184
0.12470104 -0.27950817 -0.29174277 -0.13459808 0.15673594 -0.22798564 0.07195803 0.19324291
00000000: 73f5 35be 7cf1 73be c5a9 3e3e a423 0d3e
00000010: a921 0cbe 6e3e 8f3e 1af6 843e e9ad 4bbe
00000020: b5da 853e 8718 44be ed4e 363e b1b6 7c3e
00000030: ae04 31be aa6c f9bd 38a1 863e 5a06 01be
00000040: 275f 45be ef4e 28be a659 80bd 9c09 49be
00000050: 3f03 303e db40 90be 23ba 2a3e 5105 113e
00000060: 4263 ff3d b21b 8fbe 4f5f 95be 14d4 09be
00000070: 637f 203e 1175 69be bb5e 933d 78e1 453e
