checkpoints_jonny/alex_1/8_net_rank.pth (torch, 7127 bytes, 5 tensors)

model.0.weight f4 [32, 5, 1, 1]
0	0x3e6d69a9	0.23184837
1	0xbe84fc26	-0.25973624
2	0x3e2eb970	0.17062926
3	0x3ee43146	0.44568843
4	0x3ea2b0d7	0.31775543
5	0xbc6467e9	-0.01394079
6	0x3e0803ea	0.13282743
7	0xbedf9cf5	-0.43674436
8	0x3ced4b8f	0.028966693
9	0x3d4d65a4	0.05014576
10	0xbe941c19	-0.28927687
11	0x3e9bc5fc	0.30424488
12	0xbebf661e	-0.37382597
13	0xbe253200	-0.16132355
14	0x3d695f1c	0.05697547
15	0x3ee3824a	0.4443534
16	0x3e3b4338	0.1828736
17	0x3e9eb25e	0.30995458
18	0xbe81a3c5	-0.2532026
19	0x3ed958a0	0.42450428
20	0xbb0b21ac	-0.0021229787
21	0xbea964ee	-0.33084816
22	0x3e2a27d3	0.16616754
23	0xbf1732d1	-0.59061915
24	0x3f0046f7	0.50108284
25	0x3e3dd9f3	0.18540172
26	0x3e699a25	0.22812708
27	0xbec61bd9	-0.3869312
28	0xbebfe9e5	-0.37483135
29	0xbe800d79	-0.2501028
30	0xbe922c9a	-0.28549653
31	0x3ec21c2b	0.37912115
32	0xbec0f7b2	-0.37688977
33	0xbe7caecc	-0.24676055
34	0x3d977214	0.073948056
35	0x3f03c774	0.51476216
36	0xbea9a854	-0.33136237
37	0xbce2735d	-0.0276429
38	0x3e6d18ab	0.23153941
39	0xbdd61c87	-0.1045466
40	0x3e2b976b	0.1675698
41	0xbe86b156	-0.26307172
42	0xbeb2c4a1	-0.3491564
43	0xbf005faa	-0.5014597
44	0xbde9b891	-0.114121564
45	0xbecaabd5	-0.39584222
46	0x3ea215a1	0.31657127
47	0x3dda611e	0.10663055
48	0x3e98fde9	0.29881218
49	0xbf0721b7	-0.5278582
50	0x3e291662	0.16512445
51	0x3ea033fa	0.31289655
52	0xbe802a02	-0.2503205
53	0x3e2c868e	0.16848204
54	0xbe8bfcdb	-0.2734135
55	0xbd632396	-0.05545386
56	0xbde18fc4	-0.11013749
57	0xbebcae73	-0.36851844
58	0x3ea63e0b	0.3246921
59	0xbad3a540	-0.0016147271
60	0xbe70ef9f	-0.23528908
61	0x3ee65e01	0.44993594
62	0x3e857d1c	0.26072013
63	0x3e6b8054	0.22998172
64	0xbe93ce06	-0.2886812
65	0xbecce5ef	-0.40019175
66	0x3ee3a43d	0.4446124
67	0xbe56af1d	-0.20965238
68	0xbedc6ae1	-0.43050292
69	0x3e975a47	0.29561064
70	0x3eaa79c1	0.33296016
71	0x3dfea4ce	0.12433778
72	0xbca62a21	-0.02028376
73	0xbe4e26e0	-0.20132017
74	0x3ef1fc9b	0.47263035
75	0x3e8d7eca	0.27635795
76	0x3e5a854c	0.21339911
77	0xbf0067ac	-0.5015819
78	0xbf1248d9	-0.57142407
79	0xbe495e4c	-0.19664878
80	0xbea0e2d8	-0.31423068
81	0x3d548f1b	0.05189429
82	0xbe7c1f85	-0.24621399
83	0xbe88823b	-0.26661858
84	0x3dbb2315	0.09137551
85	0x3ed30247	0.41212675
86	0xbce0a1d5	-0.027420918
87	0x3f12bd98	0.5732055
88	0x3e3f1631	0.18660809
89	0xbf0a92ef	-0.5413045
90	0x3e9a2ab3	0.30110702
91	0x3d3991c8	0.045305043
92	0x3e3c50f3	0.18390255
93	0xbe8eecaa	-0.27914935
94	0xbab6cad8	-0.001394595
95	0xbede0a94	-0.43367445
96	0x3e85dee9	0.2614663
97	0x3e241c0d	0.16026326
98	0xbf09fa39	-0.53897434
99	0xbd8adef7	-0.067808084
100	0x3ec37170	0.38172483
101	0xbd9df909	-0.07713515
102	0x3f0cf65b	0.5506341
103	0x3e001ced	0.12511034
104	0xbeaf3f0f	-0.34227797
105	0xbebe6a5b	-0.37190518
106	0x3eb6850a	0.35648376
107	0x3e8578b3	0.2606865
108	0xbeb79758	-0.35857654
109	0x3ec82b93	0.39095744
110	0x3e73abc8	0.23795998
111	0x3e555eb5	0.20836909
112	0xbdaa9279	-0.08328719
113	0x3ef936b4	0.48674548
114	0x3e739a7d	0.23789401
115	0x3e431cc6	0.19053945
116	0xbd0c6b9d	-0.034282316
117	0x3e14b8e3	0.14523654
118	0x3e20f784	0.1571942
119	0xbe5fd2e6	-0.21857795
120	0x3dd699ec	0.10478577
121	0xbec1b47c	-0.3783301
122	0xbeda7e9f	-0.4267473
123	0xbd9a091c	-0.07521269
124	0x3ec96702	0.393364
125	0x3e6552e5	0.22394903
126	0xbebd1f7b	-0.3693808
127	0x3ed4bfc1	0.41552547
128	0xbe262030	-0.16223216
129	0xbeec74ce	-0.46182865
130	0xbe026ff1	-0.12738015
131	0xbee1897b	-0.44050202
132	0x3ecdacd1	0.4017091
133	0x3e51d501	0.20491411
134	0x3d7739af	0.060357746
135	0x3dd83229	0.10556442
136	0x3dd232e3	0.10263612
137	0x3cde288d	0.027118945
138	0xbe435080	-0.19073677
139	0x3e146382	0.14491084
140	0xbea01994	-0.31269515
141	0x3f040fdf	0.5158672
142	0x3d9b5c0f	0.07585918
143	0xbd5d1b20	-0.053980947
144	0x3f00a332	0.50249016
145	0x3dc27f86	0.094969794
146	0x3dd1e82e	0.10249363
147	0xbea64e9e	-0.32481855
148	0xbe60d6f3	-0.21956997
149	0x3e945384	0.28969967
150	0xbb42d287	-0.0029727535
151	0xbee5fd08	-0.4491961
152	0xbe661fdb	-0.2247309
153	0xbe48c62b	-0.19606845
154	0x3ed7078f	0.41997954
155	0x3dbda45c	0.09259865
156	0x3eae2365	0.3401138
157	0x3ef4d153	0.47815952
158	0x3ec0c602	0.37651068
159	0xbebeb78f	-0.3724942

model.0.bias f4 [32]
0	0x3d1680c3	0.03674389
1	0xbf08602f	-0.53271765
2	0xbeccdf7e	-0.4001426
3	0xbd9d543c	-0.07682082
4	0x3d2b4a27	0.041818764
5	0xbec905a7	-0.39262125
6	0xbdde8803	-0.10865786
7	0x3ec7b454	0.39004767
8	0xbe5a5e16	-0.21324953
9	0x3ded7277	0.11594098
10	0xbd49f3e3	-0.049304854
11	0xbc8f81d1	-0.017517956
12	0x3dc62208	0.0967446
13	0x3dae79fb	0.0851936
14	0x3e35da75	0.17759116
15	0x3e358b6a	0.17728963
16	0x3dd147e6	0.10218792
17	0xbe1a9b05	-0.15098198
18	0xbe099c4b	-0.13438527
19	0xbf053826	-0.520388
20	0x3b6868cf	0.0035462861
21	0x3ea6927d	0.32533637
22	0x3e06ebc6	0.13175878
23	0xbdd4fc9c	-0.10399744
24	0x3e241ff2	0.16027811
25	0x3e5b6ca6	0.21428165
26	0x3f026a7e	0.50943744
27	0x3ec2dbaa	0.38058215
28	0x3d8bf82d	0.06834445
29	0xbd427158	-0.047471374
30	0x3e2f86a5	0.17141207
31	0x3d9fb86c	0.077988476

model.2.weight f4 [32, 32, 1, 1]
0	0x3c554de3	0.013019058
1	0xbe20bdbf	-0.15697382
2	0xbc7d779c	-0.015470412
3	0xbdfbf2f5	-0.123022
4	0x3c64cbee	0.013964636
5	0x3df4b7b3	0.119491
6	0xbd87e82c	-0.0663608
7	0xbd34ec8e	-0.04417091
8	0x3c24079d	0.010011581
9	0xbdd40ea5	-0.10354356
10	0x3d169570	0.03676361
11	0xbe13649c	-0.14393848
12	0xbceed29d	-0.029153163
13	0x3d75fc44	0.060055032
14	0x3d0f0ba7	0.034923222
15	0xbdda0e8b	-0.10647305
16	0x3ea32f3d	0.31871977
17	0xbe5c7380	-0.21528435
18	0x3d356691	0.044287268
19	0xbd19798d	-0.037469435
20	0xbe432a56	-0.19059119
21	0x3e236e1b	0.1595997
22	0x3ccf3a93	0.025296485
23	0x3d9b9673	0.07597055
24	0x3db13933	0.08653488
25	0x3d8e1c8c	0.06939039
26	0xbd6518cb	-0.055931848
27	0x3de897e2	0.11357094
28	0x3cca5c01	0.024702074
29	0x3e53887e	0.20657536
30	0x3e7b9a1f	0.24570511
31	0xbe506e3b	-0.2035455
32	0x3e0499d3	0.12949304
33	0x3d744907	0.059639957
34	0x3cf2c7ad	0.029636228
35	0xbd1c4b1f	-0.03815758
36	0x3e4d9768	0.20077288
37	0xb9c3eb73	-0.00037368722
38	0x3cd0f60a	0.025507946
39	0xbc2a2e61	-0.010387034
40	0x3d1ce148	0.038300782
41	0x3c9da427	0.019243313
42	0xbe50825e	-0.20362231
43	0xbd865a00	-0.06560135
44	0xbe098cda	-0.13432637
45	0x3e439e0e	0.19103262
46	0x3d04cdaa	0.0324227
47	0x3ddf8eff	0.10915946
48	0x3e9cf691	0.30656865
49	0x3d9fde45	0.078060664
50	0x3d3cf3ab	0.046130817
51	0x3e35f27e	0.17768285
52	0xbd0be261	-0.03415144
53	0x3e884471	0.26614717
54	0xbd9b54d7	-0.07584541
55	0x3db26f9f	0.08712696
56	0xbd0030a6	-0.031296395
57	0xbd9353aa	-0.07193692
58	0x3e3667a7	0.17812978
59	0xbdc85ff6	-0.09783928
60	0x3e31dbe6	0.17369041
61	0xbdc3f763	-0.0956867
62	0xbc2fb538	-0.010724358
63	0xbe15b85a	-0.14621106
64	0x3e3abfcb	0.18237226
65	0xbda36b1b	-0.07979413
66	0xbe58566b	-0.21126716
67	0xbe537468	-0.20649874
68	0xbe1aaf94	-0.1510604
69	0xbe24989a	-0.16073838
70	0xbe63d237	-0.2224816
71	0x3e6cb13b	0.23114483
72	0xbc712010	-0.014717117
73	0x3e73c9c8	0.23807442
74	0x3ab07483	0.0013462458
75	0x3e8b6cf4	0.27231562
76	0x3dedd9e9	0.11613829
77	0xbe838389	-0.2568629
78	0xbd537b9b	-0.05163155
79	0xbe4b0476	-0.1982592
80	0xbdd64a57	-0.10463398
81	0x3e0d51f8	0.138008
82	0xbe858eb9	-0.2608545
83	0xbd412241	-0.047151808
84	0x3d2ee5c2	0.042699583
85	0xbe1b235c	-0.15150207
86	0x3e83676d	0.25664845
87	0xbcf393d5	-0.029733578
88	0x3dc36c8c	0.09542188
89	0x3e523924	0.2052961
90	0x3b560eb6	0.0032662577
91	0x3c57203c	0.013130244
92	0x3dc84f6c	0.097807735
93	0xbe4c458a	-0.19948402
94	0x3d2c3f71	0.04205269
95	0x3d327397	0.043567266
96	0x3dae1a6e	0.08501135
97	0x3d7ea191	0.0621658
98	0xbe6d1109	-0.2315103
99	0xbc1b1b68	-0.009466983
100	0xbe710203	-0.23535924
101	0xbd8f92eb	-0.07010444
102	0x3d9cc61a	0.076549724
103	0xbc8ad3c4	-0.01694668
104	0x3c8cf56b	0.017206868
105	0x3d768992	0.06018979
106	0x3dba1857	0.09086674
107	0x3d25835d	0.04040848
108	0x3c8c4364	0.017121978
109	0xbe7ca10f	-0.24670814
110	0xbc43a281	-0.011940599
111	0x3d596145	0.05307128
112	0xbea47f8b	-0.32128558
113	0x3e4eedb3	0.20207863
114	0xbd3f3ff1	-0.04669184
115	0xbe89e685	-0.26933685
116	0x3e0de93d	0.13858505
117	0xbcb16c93	-0.021658218
118	0x3e8427a0	0.2581148
119	0x3e58ccba	0.21171847
120	0xbdfe0365	-0.12402991
121	0x3d4874ee	0.048939638
122	0x3d28b3e4	0.041187182
123	0x3c5d3441	0.013501228
124	0xbb13d72e	-0.0022558677
125	0x3d2637ed	0.04058068
126	0x3c011f7e	0.0078810435
127	0x3e392e2d	0.18084021
128	0x3e05d1f6	0.13068375
129	0xbdf8f21c	-0.12155554
130	0xbd2e2289	-0.042513404
131	0xbdbcaabb	-0.09212252
132	0x3dd6d222	0.104892984
133	0xbdf755c9	-0.12076909
134	0xbbdc61b9	-0.0067255166
135	0xbd8ab52f	-0.06772839
136	0xbcf57109	-0.029961126
137	0x3d5d3dc7	0.054013994
138	0xbc00005a	-0.007812584
139	0x3d1c5890	0.038170397
140	0xbe8093fb	-0.251129
141	0x3da96187	0.08270555
142	0x3dfd7489	0.12375743
143	0x3e2d9d2b	0.16954486
144	0x3cd4f651	0.025996359
145	0x3b90a671	0.0044143726
146	0x3e3cf4f5	0.18452819
147	0xbc8b6f0b	-0.017020723
148	0x3d128193	0.035768103
149	0xbd195e9a	-0.037443735
150	0xbc4ffd88	-0.012694724
151	0x3c79893a	0.015230471
152	0x3ad284f7	0.0016061355
153	0xbb10dd82	-0.0022104685
154	0xbde89770	-0.113570094
155	0x3e55e34a	0.20887485
156	0x3e46d59f	0.19417427
157	0x3e25be07	0.16185771
158	0x3db44ca4	0.088036805
159	0x3c714afd	0.014727351
160	0x3a18851c	0.00058181747
161	0xbe59e87b	-0.2128009
162	0x3d94d65a	0.07267447
163	0xbc97ae6a	-0.018515784
164	0xbe17c570	-0.1482141
165	0xbe5a3eb4	-0.21312982
166	0x3b89aa54	0.004201213
167	0x3e27d0d4	0.16388255
168	0xbd2ce614	-0.042211607
169	0x3e7358a3	0.23764281
170	0x3e3f42c7	0.18677817
171	0x3e590cb0	0.21196246
172	0x3e4fe734	0.2030304
173	0xbe4e187d	-0.20126529
174	0xbd9b1017	-0.07571428
175	0xbe23c10c	-0.1599161
176	0xbe8c39fe	-0.27387995
177	0xbd8ded5b	-0.069300376
178	0xbc356815	-0.011072178
179	0xbe7c1ff8	-0.2462157
180	0x3d8911e2	0.06692864
181	0xbdd3dbde	-0.10344671
182	0x3d838f60	0.06423831
183	0x3e493dc3	0.19652466
184	0xbe33f255	-0.17572911
185	0x3e6eb029	0.23309387
186	0x3e257f22	0.16161779
187	0xbe14d0df	-0.14532803
188	0x3dc57c71	0.09642876
189	0x3d545bf9	0.051845524
190	0xbd1135f9	-0.035451863
191	0x3e5a5803	0.21322636
192	0x3e552cbb	0.20817845
193	0x3d9ebf94	0.077513844
194	0xbe2f5d46	-0.17125425
195	0x3ca73363	0.020410245
196	0xbe6e238e	-0.2325575
197	0xbcec0c19	-0.028814362
198	0xbe347186	-0.17621431
199	0x3e8b1100	0.27161407
200	0xbe42ee84	-0.19036299
201	0x3e2fdc29	0.17173828
202	0x3d476e9c	0.04868947
203	0x3e55168c	0.20809382
204	0x3e10d9e6	0.14145622
205	0xbde8b55e	-0.11362718
206	0xbdb0fc62	-0.08641888
207	0xbe107666	-0.14107665
208	0x3ca65eed	0.020308936
209	0x3e637e4c	0.22216147
210	0x3d2d5813	0.042320322
211	0xbe2f3e7b	-0.17113678
212	0x3e811308	0.25209832
213	0x3d99e9b3	0.07515278
214	0x3e32439a	0.174086
215	0xbd92588d	-0.07145796
216	0xbe1021f9	-0.1407546
217	0x3c080f9e	0.008304505
218	0x3e52d9bb	0.2059087
219	0xbd8083f9	-0.06275172
220	0xbe3c28f6	-0.18375
221	0xbde322ce	-0.11090623
222	0x3d66477b	0.056220513
223	0xbb2ba5ee	-0.002619143
224	0xbd0021d7	-0.031282272
225	0xbe29f1ae	-0.165961
226	0x3e2c1e32	0.16808394
227	0x3e09b09f	0.13446282
228	0x3d44b925	0.04802813
229	0xbdc28aa2	-0.09499098
230	0xbdcc2276	-0.099675104
231	0xbe2802dd	-0.16407342
232	0xbd703661	-0.05864561
233	0x3c0ed756	0.008718332
234	0xbe270328	-0.16309798
235	0xbe83fdce	-0.25779575
236	0xbda956a0	-0.082684755
237	0x3e8227ab	0.2542089
238	0x3d3ed1e7	0.046586897
239	0x3d529b90	0.051417887
240	0x3e886db7	0.26646206
241	0x3db56f91	0.0885917
242	0xbdc9720f	-0.09836208
243	0xbc8f469d	-0.017489726
244	0xbe692e9c	-0.22771686
245	0x3e224193	0.15845327
246	0x3d0e8e2e	0.034803562
247	0xbd032a38	-0.032022685
248	0x3e49982e	0.19686958
249	0xbda92c58	-0.08260411
250	0x3d771aa9	0.06032816
251	0xbc25db8c	-0.010123145
252	0x3e6a085f	0.22854756
253	0xbd903d8e	-0.070429906
254	0xbd8aecf2	-0.06783475
255	0xbe70b4cd	-0.2350647

model.2.bias f4 [32]
0	0x3e15e9d7	0.14639984
1	0x3d8549f3	0.06508245
2	0x3d36de14	0.044645384
3	0x3e49ec0e	0.19718954
4	0x3d448296	0.0479761
5	0x3e59d90a	0.212742
6	0x3bcb7636	0.00620916
7	0x3e28cdea	0.164848
8	0x3dcfa80b	0.101394735
9	0x3d25d2f1	0.040484373
10	0xbc053ca8	-0.008132137
11	0x3e02c843	0.12771706
12	0xbddca60f	-0.10773861
13	0x3d99fb6c	0.07518658
14	0xbd0b7f11	-0.034056727
15	0xbc9bb66a	-0.01900788
16	0x3e05ccbe	0.13066384
17	0xbd8b808b	-0.06811627
18	0xbd2f542b	-0.04280488
19	0xbd5b16ba	-0.05348847
20	0xbca73558	-0.020411178
21	0x3d10f26b	0.035387438
22	0x3e5bd0e4	0.21466404
23	0x3d67e4a9	0.05661455
24	0x3e842d0d	0.2581562
25	0xbc263c83	-0.010146263
26	0xbdb1f320	-0.086889505
27	0x3e11aefd	0.14226909
28	0xbd0cd18c	-0.034379527
29	0x3d213deb	0.03936569
30	0x39e5e068	0.0004384548
31	0xbde7706c	-0.1130074

model.4.weight f4 [1, 32, 1, 1]
0	0xbe36491a	-0.17801324
1	0xbe7511e2	-0.23932603
2	0x3e403237	0.18769155
3	0x3e0ecb40	0.13944721
4	0xbe0bfd4f	-0.13670848
5	0x3e906667	0.28203127
6	0x3e85970d	0.26091805
7	0xbe4c02b3	-0.19922905
8	0x3e86d903	0.26337442
9	0xbe44640d	-0.19178791
10	0x3e388169	0.18018116
11	0x3e7e551e	0.24837157
12	0xbe31df5e	-0.17370364
13	0xbdf9e023	-0.12200954
14	0x3e86eace	0.26351017
15	0xbe01efcb	-0.1268913
16	0xbe45c122	-0.19311956
17	0xbe28964d	-0.16463585
18	0xbd807fe5	-0.06274394
19	0xbe48b943	-0.19601922
20	0x3e3186e3	0.17336611
21	0xbe9036a8	-0.281667
22	0x3e2c5637	0.16829763
23	0x3e132dff	0.14373015
24	0x3e01d028	0.12677062
25	0xbe909e93	-0.28245983
26	0xbe95a1a7	-0.29224893
27	0xbe0bb57a	-0.13643447
28	0x3e21fd53	0.15819292
29	0xbe698246	-0.22803602
30	0x3d9a25d7	0.075267486
31	0x3e475708	0.19466794
