checkpoints_jonny/alex_1_tune/1_net_rank.pth (torch, 7127 bytes, 5 tensors)

model.0.weight f4 [32, 5, 1, 1]
-0.23582748 -0.49722922 -0.060999822 -0.46887192 -0.26166534 -0.37886485 0.37393102 -0.047607984
-0.18202724 0.417699 -0.010114651 -0.3718404 -0.19239128 -0.28700373 -0.3897202 0.43524328
0.09314912 0.2816363 -0.13379173 0.2240642 -0.08757809 0.26204756 -0.3927483 -0.14221472
0.45710954 -0.126144 -0.2651822 0.30582637 0.3065742 -0.34729442 0.29872528 0.16800594
-0.33803713 -0.44279385 0.26120245 0.3726445 0.29553258 0.4342371 0.56515783 0.30731732
-0.12855805 -0.3444599 0.4779233 -0.30260235 0.3239399 0.027584413 0.10848458 -0.26420814
0.39382356 0.1600369 -0.110616386 -0.25204945 0.05256677 -0.16471535 -0.438425 0.1876637
-0.4111059 -0.034240134 0.3907041 -0.053924594 0.4026469 -0.21268654 -0.080606654 0.012494552
0.4612638 -0.15209794 0.102874964 -0.4576262 0.08013531 0.26989722 0.16051431 -0.18473007
0.1593241 0.32615665 -0.2219771 -0.28493205 -0.18194844 0.24410923 0.5381406 -0.28197828
-0.25100574 -0.0046726908 -0.059522733 -0.28423125 0.49129057 0.120583214 0.36915207 -0.022819575
0.2656964 0.36506653 -0.2919932 -0.34800777 0.4337739 0.51240504 0.15070115 -0.5037008
0.29284054 -0.5099766 0.019975306 0.3893151 -0.5715391 -0.25548673 -0.5213991 -0.5778576
-0.2529638 -0.12995188 -0.38627508 -0.3223255 0.19022389 -0.100047395 -0.061194748 -0.42683047
0.07406234 0.24312061 -0.16665807 -0.5037557 0.109209396 0.08483771 0.27158976 0.4779156
0.55466056 0.14512016 0.21937321 0.11545174 -0.3022364 -0.4223248 0.011674703 0.0617704
-0.38329428 -0.06094812 -0.1072834 0.45621982 0.070577055 -0.3583835 0.43031755 0.2063054
0.33068496 -0.04394654 -0.40428197 -0.2858575 0.23391668 0.4719022 -0.25249866 -0.45963714
0.55716705 -0.27689862 0.03896106 -0.28732154 -0.36843136 -0.10487887 -0.3971375 0.13037597
-0.46690696 0.120717175 -0.281226 -0.023132084 -0.34362158 -0.40437213 0.28467274 0.34025377
00000000: c27c 71be d494 febe f3da 79bd fb0f f0be
00000010: 00f9 85be 93fa c1be e373 bf3e 9700 43bd
00000020: 5965 3abe a5dc d53e ecb7 25bc dd61 bebe
00000030: 3802 45be 27f2 92be 6889 c7be 35d8 de3e
00000040: f7c4 be3d a232 903e b300 09be 1671 653e
00000050: 245c b3bd 192b 863e 4e16 c9be bca0 11be
00000060: 430a ea3e e52b 01be f6c5 87be 4695 9c3e
00000070: 4bf7 9c3e 93d0 b1be 85f2 983e c009 2c3e
00000080: 3413 adbe e0b5 e2be 54bc 853e 43cb be3e
00000090: 0c50 973e 5354 de3e 2fae 103f b258 9d3e
000000a0: b9a4 03be 0c5d b0be 5db2 f43e b2ee 9abe
000000b0: 73db a53e b5f8 e13c 2a2d de3d 4a46 87be
000000c0: 3ea3 c93e b7e0 233e d88a e2bd a00c 81be
000000d0: 4150 573d 24ab 28be 3e79 e0be ea2a 403e
000000e0: 797c d2be 623f 0cbd 5e0a c83e 09e0 5cbd
000000f0: bc27 ce3e 80ca 59be 1a15 a5bd f3b5 4c3c
00000100: c52a ec3e 90bf 1bbe 1cb0 d23d fb4d eabe
00000110: fb1d a43d f82f 8a3e dd5d 243e e129 3dbe
00000120: db25 233e 01fe a63e f74d 63be 9de2 91be
00000130: b150 3abe c5f7 793e 95c3 093f 755f 90be
00000140: d383 80be 5f1d 99bb 1cce 73bd c286 91be
00000150: 708a fb3e 55f4 f63d 8001 bd3e 1ef0 babc
00000160: 5c09 883e 00ea ba3e 2280 95be 132e b2be
00000170: 9d17 de3e fa2c 033f 6751 1a3e 89f2 00bf
00000180: 32ef 953e d48d 02bf 41a3 a33c 4f54 c73e
00000190: 6350 12bf 28cf 82be 697a 05bf 7aee 13bf
000001a0: 7984 81be 1b12 05be d9c5 c5be d907 a5be
000001b0: 0dca 423e a6e5 ccbd 58a7 7abd 8689 dabe
000001c0: ffad 973d 9cf4 783e 6aa8 2abe 22f6 00bf
000001d0: 2da9 df3d 65bf ad3d d00d 8b3e 5bb1 f43e
000001e0: 3cfe 0d3f 619a 143e 5fa3 603e f671 ec3d
000001f0: bbbe 9abe f53a d8be 4147 3f3c f502 7d3d
00000200: 263f c4be bca4 79bd 66b7 dbbd a595 e93e
00000210: b48a 903d 0b7e b7be 9552 dc3e b941 533e
00000220: 8a4f a93e 4a01 34bd 0cfe cebe ea5b 92be
00000230: db87 6f3e 2a9d f13e 8147 81be 8f55 ebbe
00000240: 80a2 0e3f a8c5 8dbe a295 1f3d cf1b 93be
00000250: 09a3 bcbe bcca d6bd 9b55 cbbe 4781 053e
00000260: 6e0e efbe 913a f73d dbfc 8fbe 7f7f bdbc
00000270: 2bef afbe dd09 cfbe a0c0 913e be35 ae3e

model.0.bias f4 [32]
0.073278554 0.057560742 -0.44480106 -0.41451523 -0.28924793 -0.2812518 0.33652064 -0.25683397
-0.44068396 0.30376887 -0.13347033 0.050151896 -0.016990012 -0.41438523 -0.31961814 0.29681057
-0.023572596 -0.18872112 0.09730484 -0.23671134 -0.4881923 -0.35173875 -0.015452827 0.31742173
-0.055572137 0.10108158 0.38144016 -0.4393983 -0.2194393 0.15003853 0.21889052 0.29785776
00000000: 1113 963d d0c4 6b3d f7bc e3be 573b d4be
00000010: 4e18 94be 3c00 90be 6f4c ac3e be7f 83be
00000020: 54a1 e1be 9887 9b3e 72ac 08be 136c 4d3d
00000030: a32e 8bbc 4d2a d4be fda4 a3be 8ef7 973e
00000040: 511b c1bc 1c40 41be c347 c73d 7564 72be
00000050: 57f4 f9be 1a17 b4be db2d 7dbc 1a85 a23e
00000060: 9c9f 63bd dc03 cf3d 204c c33e d0f8 e0be
00000070: b2b4 60be b3a3 193e d624 603e d080 983e

model.2.weight f4 [32, 32, 1, 1]
-0.13315788 -0.20826699 -0.08932477 0.04949834 -0.18106797 0.017799344 -0.055922 0.1886729
0.03738022 0.23042555 -0.07047503 0.0034676034 0.14216782 -0.16292813 -0.023482006 0.11962566
-0.051596105 0.14897698 0.057123307 -0.051916767 0.06909988 -0.0016582919 0.07149824 -0.12978406
0.15572782 0.016681839 -0.093363844 -0.17343868 -0.15165466 -0.1039807 -0.05261661 0.08900493
0.063581295 0.04145733 0.1202505 0.10126095 -0.23604451 0.14383207 -0.20840982 -0.024803452
0.110973954 -0.0960759 -0.036236558 -0.008015577 0.069871254 0.08221383 0.07122682 0.027913496
0.0042414605 0.011425046 0.046521295 0.057887744 0.10769276 0.06567152 0.2201251 -0.21332474
0.036079615 0.09370446 -0.16447082 0.13053936 0.07968089 -0.20587046 0.21401344 -0.047153566
-0.22493884 -0.27628723 -0.15449633 0.028422 -0.15687002 -0.034815792 -0.25692558 0.03659955
0.09045221 0.06745966 0.11962212 -0.06146686 0.09259171 0.1086763 0.060108308 0.15457864
0.059088 -0.12544127 0.14166501 0.032049607 -0.047761753 0.060422625 0.097943224 0.083683155
-0.041255016 -0.17706862 -0.24613781 -0.025807537 -0.016029038 0.0027315926 0.028229052 0.153605
-0.10799072 0.18284531 0.010883015 -0.08800717 0.07077818 -0.13118665 -0.043666407 -0.03584385
0.0103621865 0.14572772 -0.14090379 -0.22798032 0.22626834 -0.027761534 -0.026643356 -0.08283871
0.21936643 0.12770241 0.086040005 -0.03548671 0.17781374 -0.037562784 -0.01531667 -0.02391445
-0.12984167 0.20384233 -0.07272733 0.074995466 0.08177885 0.21952549 0.044408347 -0.014654951
-0.17113015 0.017372172 -0.18645674 -0.08220229 0.034075715 0.1770477 0.0013641326 0.16003913
-0.1243227 0.20906466 0.16165173 0.25920892 -0.008141824 -0.10445975 0.007422425 0.10297875
-0.24894261 0.10375837 -0.0678901 0.067426346 0.018126138 0.15771383 0.118758954 0.045382846
0.10132586 -0.1303848 -0.22483616 -0.2253516 0.054676373 -0.14302446 0.27065587 0.20437145
0.007465605 -0.034625165 -0.21075551 -0.11651471 0.23184018 -0.04180917 0.10967684 -0.10384155
0.13438988 0.16522874 0.019370632 -0.18805335 0.10314942 0.09447294 -0.12292031 0.069901645
0.15535918 -0.07625429 -0.12186618 0.016299216 -0.10304809 -0.010533251 -0.28710893 0.069235675
-0.08293141 0.14491868 0.10010375 -0.08799229 0.23470147 0.014037322 0.105186805 0.12651098
0.0040164413 0.024449304 0.030737769 0.024092391 0.20505016 0.068770826 0.1905775 -0.0925269
0.07219933 0.038896002 -0.14887664 -0.04775235 0.061713986 0.005718349 -0.27194074 -0.1624488
0.053483047 0.102536455 0.12345326 0.13920106 -0.15954253 -0.14349014 -0.15173422 0.042924836
-0.037238687 0.043000456 0.15234372 -0.003494655 0.18824418 -0.08300749 -0.12735738 0.24953191
-0.1517838 -0.05799742 0.13335459 -0.018338656 -0.05859286 0.02575576 -0.12775938 0.0050045946
-0.053905804 0.12822177 0.11575357 0.06893391 -0.177895 -0.1027644 0.061550673 0.049432456
0.0090398835 0.16675761 0.11618226 -0.03859279 -0.13927121 -0.067830525 0.16896345 0.083492905
-0.02076689 -0.0333125 -0.15525222 -0.22681569 -0.1896623 0.041474324 0.17993382 0.03060732
00000000: 8a5a 08be f143 55be e8ef b6bd c5be 4a3d
00000010: e269 39be eecf 913c 780e 65bd 7833 413e
00000020: 001c 193d adf4 6b3e 3655 90bd bb40 633b
00000030: 7194 113e a2d6 26be 565d c0bc 4cfe f43d
00000040: 7056 53bd 6c8d 183e 21fa 693d ada6 54bd
00000050: 3d84 8d3d 0b5b d9ba ab6d 923d 1de6 04be
00000060: 1d77 1f3e 5aa8 883c 8b35 bfbd e999 31be
00000070: 5c4b 1bbe d5f3 d4bd 8484 57bd 3748 b63d
00000080: e936 823d 29cf 293d e545 f63d e761 cf3d
00000090: a7b5 71be b748 133e 6269 55be 9c30 cbbc
000000a0: 5046 e33d 71c3 c4bd c96c 14bd c453 03bc
000000b0: a918 8f3d b95f a83d 5edf 913d d8aa e43c
000000c0: f3fb 8a3b 1e30 3b3c 1d8d 3e3d b31b 6d3d
000000d0: 068e dc3d ca7e 863d 7968 613e cd71 5abe
000000e0: 38c8 133d 20e8 bf3d 0a6b 28be 1cac 053e
000000f0: bc2f a33d b5cf 52be 5726 5b3e 1924 41bd
00000100: 5e56 66be 8575 8dbe 4934 1ebe 41d5 e83c
00000110: 89a2 20be 019b 0ebd c08b 83be 69e9 153d
00000120: 023f b93d 4a28 8a3d 71fc f43d adc4 7bbd
00000130: b9a0 bd3d ae91 de3d 2134 763d dd49 1e3e
00000140: 4206 723d ad73 00be a210 113e 7346 033d
00000150: d4a1 43bd b77d 773d 7596 c83d 1362 ab3d
00000160: 05fb 28bd 7a51 35be 8d0b 7cbe 546a d3bc
00000170: 544f 83bc 8504 333b 9d40 e73c a14a 1d3e
00000180: 3d2a ddbd cd3b 3b3e ac4e 323c 1a3d b4bd
00000190: 27f4 903d cb55 06be 8cdb 32bd 00d1 12bd
000001a0: 29c6 293c a639 153e 1549 10be ac73 69be
000001b0: e3b2 673e 286c e3bc 2b43 dabc 57a7 a9bd
000001c0: 98a1 603e 6cc4 023e be35 b03d 835a 11bd
000001d0: ce14 363e 6fdb 19bd c5f2 7abc 3de8 c3bc
000001e0: 37f5 04be 0bbc 503e 11f2 94bd 3997 993d
000001f0: ab7b a73d 4acb 603e 87e5 353d 521b 70bc
00000200: be3c 2fbe 1650 8e3c 84ee 3ebe ad59 a8bd
00000210: fa92 0b3d fe4b 353e b2cc b23a 4ce1 233e
00000220: e69c febd 0c15 563e 0888 253e 08b7 843e
00000230: 4965 05bc feee d5bd d037 f33b 86e6 d23d
00000240: d0ea 7ebe 457f d43d f709 8bbd d316 8a3d
00000250: 447d 943c bc7f 213e e537 f33d 5de3 393d
00000260: ef83 cf3d 9883 05be 733b 66be 92c2 66be
00000270: 55f4 5f3d 0175 12be 6893 8a3e c046 513e
00000280: 09a2 f43b 1ed3 0dbd 4bd0 57be 449f eebd
00000290: 8367 6d3e 1840 2bbd 409e e03d e1aa d4bd
000002a0: 809d 093e b931 293e 29af 9e3c 0f91 40be
000002b0: 0140 d33d 077b c13d a5bd fbbd 9828 8f3d
000002c0: 7a16 1f3e 362b 9cbd fa94 f9bd ef85 853c
000002d0: e10a d3bd a893 2cbc f1ff 92be 6fcb 8d3d
000002e0: f1d7 a9bd 9065 143e 3203 cd3d 4d35 b4bd
000002f0: 9555 703e ccfc 653c 2e6c d73d 188c 013e
00000300: 5a9c 833b e849 c83c c6cd fb3c 685d c53c
00000310: abf8 513e b8d7 8c3d c026 433e be7e bdbd
00000320: 3edd 933d 6a51 1f3d 1e73 18be f897 43bd
00000330: cec7 7c3d fd60 bb3b d13b 8bbe fa58 26be
00000340: 0a11 5b3d a2fe d13d 10d5 fc3d b98a 0e3e
00000350: 1e5f 23be 14ef 12be 3760 1bbe f4d1 2f3d
00000360: 9887 18bd 3f21 303d feff 1b3e 9506 65bb
00000370: 15c3 403e d5ff a9bd f969 02be 4b85 7f3e
00000380: 366d 1bbe b48e 6dbd 1b8e 083e f33a 96bc
00000390: 11ff 6fbd befd d23c 5bd3 02be 95fd a33b
000003a0: 55cc 5cbd 914c 033e 3510 ed3d 392d 8d3d
000003b0: 1b2a 36be 2476 d2bd 8f1c 7c3d b079 4a3d
000003c0: 051c 143c 82c2 2a3e f7f0 ed3d 7913 1ebd
000003d0: 1d9d 0ebe bbea 8abd c104 2d3e 54fe aa3d
000003e0: 531f aabc b072 08bd 70fa 1ebe 5f42 68be
000003f0: d536 42be fbe0 293d 9240 383e 34bc fa3c

model.2.bias f4 [32]
0.0067528835 -0.048705813 0.13294087 0.11957721 -0.093621686 -0.03928706 -0.06167056 -0.0010499116
-0.04153798 0.04259618 -0.030624636 -0.05371982 -0.08057221 0.17775877 -0.0012487783 0.15998696
0.13414855 0.10664157 0.22969384 0.20246741 0.05588042 0.1064931 0.07571837 -0.013570294
-0.10079384 0.01898227 0.0057500075 -0.028208455 0.13725795 0.047719054 -0.088952065 0.11800607
00000000: 4b47 dd3b bf7f 47bd a721 083e e5e4 f43d
00000010: babc bfbd 78eb 20bd 459a 7cbd 309d 89ba
00000020: bb23 2abd 5579 2e3d 84e0 fabc 5009 5cbd
00000030: 0b03 a5bd 6506 363e 0cae a3ba 9fd3 233e
00000040: 3d5e 093e e566 da3d dd34 6b3e 9e53 4f3e
00000050: dee2 643d 0e19 da3d 3c12 9b3d f055 5ebc
00000060: 006d cebd b580 9b3c 8f6a bc3b 6b15 e7bc
00000070: 598d 0c3e 0e75 433d 802c b6bd 2bad f13d

model.4.weight f4 [1, 32, 1, 1]
0.097481005 0.06840316 0.21956074 -0.17091297 0.14530881 -0.094524704 -0.205596 0.27219048
-0.1776148 0.19424225 -0.12912339 -0.100425534 0.22900574 -0.08839782 -0.2502214 0.24406406
0.14462501 0.2194851 -0.15615317 0.18002358 0.113053374 -0.07256181 0.12845168 -0.13897242
0.059196707 -0.18454139 -0.13385707 0.12887931 0.24592802 -0.27008605 0.18542121 -0.14133662
00000000: 1fa4 c73d f516 8c3d 88d4 603e cf03 2fbe
00000010: d5cb 143e 2b96 c1bd c287 52be 8d5c 8b3e
00000020: a7e0 35be 71e7 463e ec38 04be e7ab cdbd
00000030: 7b80 6a3e eb09 b5bd 051d 80be eeeb 793e
00000040: 9418 143e b4c0 603e 9ee6 1fbe 1a58 383e
00000050: 8788 e73d 499b 94bd d688 033e c94e 0ebe
00000060: 3f78 723d 6bf8 3cbe d411 09be f0f8 033e
00000070: 8ed4 7b3e b848 8abe 0fdf 3d3e 8cba 10be
