checkpoints_jonny/alex_1_tune/4_net_rank.pth (torch, 7127 bytes, 5 tensors)

model.0.weight f4 [32, 5, 1, 1]
00000000: bb9a 79be 85cf 03bf 4a3c 3dbd 42e4 eebe
00000010: e47f 71be e3b9 ccbe e8de b13e 923c edbc
00000020: 70bd 38be 773a e13e 2de5 243d c452 a5be
00000030: 3d1f 41be 1c3c 83be aaaf c5be 795e fb3e
00000040: d738 2e3e 0c1f 5e3e 6047 b1bd 7044 973e
00000050: 8d8d 0fbe cc59 503e e302 b1be 2470 3abe
00000060: c72a dc3e c271 09be 4c57 7abe 2559 8d3e
00000070: 5e84 923e 49e7 bbbe b659 8a3e de70 0e3e
00000080: 64b4 aabe 0db7 ebbe 7f6b 8f3e 94f2 c53e
00000090: 8132 a93e 9fb9 c83e acca 0e3f e40b 9e3e
000000a0: 6115 17be 2149 cdbe 2562 0b3f e0f4 9bbe
000000b0: 0591 8f3e 3bab f43b 7d2c ad3d 26a1 89be
000000c0: 1c8f bf3e 92d3 0b3e cb79 95bd 2a22 5bbe
000000d0: 2cc1 033d 46e0 12be 82f2 e2be 00ae 4e3e
000000e0: 2ca0 c8be b4eb 2fbd 212a c83e cdb2 adbd
000000f0: 076f c33e c03e 76be 6294 81bd 1f80 033c
00000100: 2619 f73e 3b71 28be c395 923d 32a7 d6be
00000110: 89ff a83d db32 843e 7272 193e 8b12 2fbe
00000120: 970c 053e 2cbe 993e 33be 7cbe 8aaa 8ebe
00000130: 59b7 34be d3d6 7d3e 8a4d 083f 2ef5 aabe
00000140: 8fee 90be 3a49 29bd 426d efbc 7097 8fbe
00000150: 8541 013f c09b bc3d d260 ae3e 3db2 f8bc
00000160: 8a78 7b3e cbd6 b83e fa90 91be 857b aabe
00000170: f224 d83e d458 023f b8e3 f23d 4245 0cbf
00000180: aa5f 7a3e 7d3f f2be 2e47 4ebb ee60 c13e
00000190: 78f6 13bf 01e6 8bbe 93ea 00bf 6ca4 12bf
000001a0: f792 68be 732b 04be f0b1 b6be 41d7 bdbe
000001b0: cea6 223e b0b8 e9bd eb24 abbd 0cde e6be
000001c0: c6e5 763d 3d92 723e adc2 55be 10e1 07bf
000001d0: 813e 9d3d 7b6c d23d 8b95 843e 3a00 fc3e
000001e0: fae8 0d3f 78cf 1a3e c176 533e 241b e73d
000001f0: b65a a5be f248 dabe 3bea 453d d552 8dba
00000200: ecb3 c1be 4de5 0f3d 31d8 02be 2f29 dd3e
00000210: 1845 a13d 14cf bdbe 8763 e73e 93ac 603e
00000220: 49ca af3e dbe3 12bd a660 c6be 2f1e 7abe
00000230: 8a0a 373e 951b d63e bcc1 66be dc46 fcbe
00000240: 6ef7 0c3f 3963 97be 0f9c 5a3d f904 a7be
00000250: f063 c2be 01e0 20bd 3ad0 e4be cd74 5c3d
00000260: e330 edbe 31f3 c03d 959a c6be dd40 b1bd
00000270: efa9 cabe 228f c9be 724a 763e 906c aa3e
-0.24375431 -0.51488525 -0.046200074 -0.46658522 -0.23583943 -0.3998557 0.34740376 -0.028959546
-0.18041015 0.43989918 0.04025762 -0.32289708 -0.18859573 -0.25631797 -0.38610584 0.49095514
0.1701387 0.21691531 -0.08656192 0.295444 -0.14018841 0.20346755 -0.34572515 -0.18206841
0.43001387 -0.13422301 -0.24447364 0.27607074 0.28616613 -0.36699894 0.2702157 0.13910243
-0.33340752 -0.46038094 0.280117 0.38661635 0.33046344 0.39204118 0.55778 0.30868447
-0.14754249 -0.40094855 0.5444663 -0.30460262 0.2804033 0.0074667013 0.08455751 -0.2688076
0.3741387 0.13654926 -0.07298621 -0.21399751 0.032166645 -0.14343366 -0.44325644 0.20183563
-0.391847 -0.042949393 0.39094642 -0.08481369 0.38170645 -0.24047375 -0.0632713 0.008026152
0.48261374 -0.16449444 0.07157471 -0.41924435 0.082518645 0.2582005 0.14985064 -0.17096917
0.12993084 0.30027902 -0.2468193 -0.27864486 -0.17648067 0.2478898 0.53243315 -0.33390182
-0.28307006 -0.0413296 -0.029226903 -0.28045225 0.504906 0.092093945 0.34058243 -0.030358428
0.24557701 0.36101374 -0.2843092 -0.33297363 0.42215687 0.5091679 0.1185984 -0.5479318
0.24450555 -0.47314063 -0.0031475532 0.37769264 -0.57797956 -0.27323917 -0.5035793 -0.5728214
-0.22712313 -0.129072 -0.3568263 -0.37078288 0.15883943 -0.114121795 -0.08356651 -0.45091283
0.060277723 0.23688598 -0.20875044 -0.53077793 0.07677937 0.10274597 0.25895342 0.49218923
0.5543362 0.15118206 0.2065077 0.112844735 -0.3229577 -0.42633778 0.048319083 -0.0010782132
-0.37832582 0.035130788 -0.12777783 0.43195483 0.07874507 -0.3707205 0.4519312 0.21940832
0.3433402 -0.03586183 -0.38745612 -0.24425577 0.17875114 0.41817918 -0.22534841 -0.4927281
0.5506505 -0.29567888 0.053371485 -0.3262098 -0.3796687 -0.039276127 -0.44690114 0.053822327
-0.4632636 0.09421385 -0.38789812 -0.0865495 -0.39582774 -0.39367014 0.24051836 0.33285952

model.0.bias f4 [32]
00000000: 0185 033d 97ee 893d c8df 01bf 75dc bdbe
00000010: 5a34 96be 13bf 8dbe a0c5 a93e 3e31 86be
00000020: ac9a eebe bd0e b73e 4733 1ebe 65a8 843d
00000030: 043b e2bb 2ccb e4be b570 a4be 5690 9c3e
00000040: 6515 df3c 533f 0abe 51f7 df3d 7d39 66be
00000050: f9b9 01bf 72c6 b4be dbe0 3f3d f254 a53e
00000060: 695e 50bc 2db2 033e cc91 be3e 60f0 f2be
00000070: 00e7 3bbe c0d7 313e 36f1 633e df59 af3e
0.032109264 0.067349605 -0.5073209 -0.37082258 -0.29336816 -0.2768484 0.33158588 -0.26209444
-0.4660238 0.35753432 -0.15449248 0.06477431 -0.006904008 -0.44686258 -0.3211724 0.3057887
0.027231881 -0.13500719 0.10935844 -0.22482868 -0.50674397 -0.35307652 0.0468453 0.3229137
-0.012717822 0.12860937 0.3722061 -0.47449017 -0.18349838 0.17367458 0.22259983 0.34248254

model.2.weight f4 [32, 32, 1, 1]
00000000: 0865 03be 67e6 60be 4a4f c8bd 6aa3 233d
00000010: d260 12be e65d babc eaab 42bd 4fc2 363e
00000020: c484 6f3c a058 753e e938 92bd 2ceb 7c3b
00000030: c497 013e a064 35be 05d6 90bd 9ce7 083e
00000040: 3ba1 9bbd e6ad 143e 8e12 4e3d 98e9 59bc
00000050: 322d 7a3d f441 ddbc 01d3 ad3d 7de7 02be
00000060: 6361 1a3e 085f e53b 82ca b2bd ceaa 37be
00000070: 2caa e7bd 98d5 d6bd adf5 bb3c 3725 bf3d
00000080: a05a 8f3d 47f7 fb3c 026c 013e 0d92 1b3e
00000090: f578 3cbe 87ec e93d 50ee 5dbe 7aa3 f4bc
000000a0: ecd4 eb3d 7729 d0bd c88f f0bc 921e 85bc
000000b0: 0bd8 673d 0851 0f3e 4e53 1b3d 78ac fa3c
000000c0: 97f6 21bc aa4a 823c 7792 d43c cc06 d43d
000000d0: 7310 e93d bb2c 633d bcaf 623e 143f 66be
000000e0: e862 d93c d6e6 7d3d 901b 31be e4d9 113e
000000f0: eba2 f13d 3dcc 72be 37bc 8e3e bb21 6ebd
00000100: f7f0 4dbe 1963 a2be 4035 1abe 0d5f 823c
00000110: 08a8 1ebe d86d 86bd 1926 86be 60f4 0f3c
00000120: 35c4 983d 8914 863d 5012 0d3e d686 82bd
00000130: 586b 443d 427c b93d a318 933c 111f 2d3e
00000140: 8947 113b df31 23be 4cb7 043e 3f73 033d
00000150: 507d 38bd 7866 353d e122 ee3d 2040 943d
00000160: 8d6e 34bd caf0 2bbe dba4 82be de13 c0bc
00000170: 074d 09bc 4c1d 953c 4185 dd3d df0a 163e
00000180: 0075 c8bd 756d 483e 4fe4 0d3c 1a35 10be
00000190: 9ebd a93c 40f2 07be b5c1 01bd c083 72bd
000001a0: 3ac4 313c 3dc5 133e 7700 13be a73d 78be
000001b0: 8ef6 713e e987 b7bd f8ae f4bc 9d55 d3bd
000001c0: ecbb 723e 18db da3d 6b9e be3d bda8 a3bd
000001d0: 59b9 383e e6f7 25bd 9a0d 7cbd c897 81bc
000001e0: fbd3 1bbe f6cb 893e d20c 7cbd c0f3 8b3d
000001f0: d61f 423d 8b37 8e3e eb79 8cbc 138c f3bb
00000200: 6fea 32be 80a2 c03c 131f 48be 2eab 39bd
00000210: 54e3 be3d cfdf 0b3e ace4 443c aecd 253e
00000220: 8ace 08be 141b 5f3e 8674 1d3e 5c42 843e
00000230: 1d01 f1bb 3954 65bd 66e5 19bd c807 eb3d
00000240: 26f7 7bbe 342c f33d 2a64 9fbd a9b2 fa3d
00000250: 0f59 383c b1bc 0b3e 7f1c 023e ed34 4d3d
00000260: 53ca bd3d aa25 1abe ba8d 5cbe b35d 6abe
00000270: 7846 d73d 6e19 21be 3f57 af3e 64a6 563e
00000280: 9182 cb3c 5c6d b3bc ea91 55be 589b 2bbe
00000290: 56ff 3a3e 24fd 2cbd 0a2f f93d e203 0dbe
000002a0: 92fd 0e3e 4481 223e c77d aa3c 942f 5abe
000002b0: f4d2 e03d fc79 0c3d 9dfa 00be c6b1 293d
000002c0: d671 313e 9167 d2bd 98e5 fabd 3028 e2bc
000002d0: 25b3 c1bd be75 2dbc b1a5 b0be aa38 963d
000002e0: de7b eebd 9790 5e3e d86a e13d 6b2e b8bd
000002f0: afc9 4d3e 491b 9e3d 0f97 333d 77c7 043e
00000300: f2f3 113c 2345 173d a0cc c13c bdc8 12bd
00000310: f2ad 1c3e 594e 883d 976c 4f3e d4c0 e1bd
00000320: 9f77 863d 7ee5 313d c687 1ebe 66f9 53bd
00000330: 3cfe 943d 243f 78bd 29f4 8cbe 7aee 30be
00000340: 969c 8f3d 9be4 ab3d 0ec6 0e3e 12a1 bf3d
00000350: 9c04 27be 9286 19be 4dc6 3abe 99fc 623d
00000360: b736 50bd 28a6 d13d dc66 283e 6c62 85bc
00000370: d8ac 1b3e d408 eabc 240a 3abe 7f02 863e
00000380: c3c0 02be a131 c9bd 9945 0a3e 4116 0bbd
00000390: 54ab 6dbd 001d 0ebc 2eb4 03be db1e c6bc
000003a0: 91c7 92bd 7c2b 033e ef7d 073e f0c4 883d
000003b0: 78ac 63be e370 fdbd 255d 833c 1c2b 853d
000003c0: 1d83 48bd b1b3 063e e8f8 d63d 2a05 24bd
000003d0: b857 0dbe 428a b3bd 8c68 3f3e 4aa3 983d
000003e0: 8691 c7bc 4bd2 abbc 0a92 24be 2137 68be
000003f0: b350 39be 32a8 7e3d 8c6d 863e f6cf d43c
-0.12831509 -0.21962892 -0.09780748 0.039950766 -0.14294747 -0.022749852 -0.04752723 0.1784756
0.014619056 0.23959589 -0.07139761 0.0038592322 0.1265555 -0.17714167 -0.07072071 0.13369602
-0.07599112 0.14519462 0.050310664 -0.013300322 0.061078258 -0.027008988 0.084875114 -0.12783618
0.15076213 0.006999854 -0.087300315 -0.1793625 -0.113117546 -0.104899585 0.022944296 0.0933327
0.06999707 0.03075756 0.12638858 0.15192433 -0.18405516 0.11422067 -0.2167294 -0.029863108
0.11515221 -0.10164159 -0.029365435 -0.016249929 0.05660252 0.13995755 0.037921242 0.030599818
-0.009885452 0.015904743 0.025948746 0.10352859 0.113800906 0.05546258 0.2213735 -0.22485
0.02653642 0.06198772 -0.1729567 0.14243275 0.11798652 -0.23710723 0.27877972 -0.058137637
-0.20111452 -0.3171623 -0.15059376 0.015914464 -0.15493786 -0.0656392 -0.2620094 0.008786291
0.074592985 0.065468855 0.13776517 -0.06373374 0.047953933 0.090569034 0.017956084 0.16906382
0.0022167882 -0.15936993 0.12960547 0.03209233 -0.045041382 0.044287175 0.116277464 0.072387934
-0.044050742 -0.16791072 -0.255164 -0.023446973 -0.008380181 0.018202446 0.10816432 0.14652584
-0.09787941 0.19573005 0.00866039 -0.14082757 0.0207203 -0.13276005 -0.031678874 -0.059207678
0.010850007 0.14430709 -0.14355646 -0.24242269 0.2362921 -0.0896147 -0.029868588 -0.10319064
0.23704499 0.1068632 0.093075596 -0.07991169 0.18039455 -0.040519617 -0.06153641 -0.015819445
-0.15217583 0.26913422 -0.061535664 0.06833601 0.047393642 0.2777675 -0.017147979 -0.0074324696
-0.17472242 0.023514986 -0.19543104 -0.045329265 0.09320703 0.13659595 0.01201741 0.16191742
-0.13360038 0.21787673 0.15376481 0.25831878 -0.007354869 -0.055988524 -0.037572287 0.114760935
-0.24605998 0.118736655 -0.07782777 0.12241108 0.011251702 0.13646199 0.12706183 0.050099302
0.09267106 -0.1505343 -0.2153844 -0.22887306 0.10511488 -0.15732357 0.3424625 0.2096191
0.024842532 -0.021902733 -0.20856443 -0.16758478 0.18261465 -0.0422336 0.12167175 -0.13771012
0.13963917 0.15869623 0.020811928 -0.21307212 0.10977736 0.03429602 -0.12595601 0.041429304
0.17328581 -0.1027366 -0.12250823 -0.027607054 -0.09457997 -0.010587154 -0.34501413 0.073350266
-0.116447195 0.21734844 0.11006707 -0.089932285 0.20096467 0.07720048 0.043845233 0.12966715
0.008908259 0.03693117 0.023657143 -0.03583597 0.1530073 0.06655569 0.20256267 -0.11023107
0.06565785 0.04343175 -0.15481481 -0.051751517 0.07275054 -0.06060709 -0.2753003 -0.17278472
0.07012288 0.083932124 0.1394274 0.093568936 -0.16310352 -0.14992741 -0.18239708 0.055416677
-0.05083343 0.1023677 0.16445488 -0.016282283 0.15202653 -0.028568663 -0.18167931 0.2617378
-0.12768845 -0.09823919 0.13503112 -0.03395677 -0.05802472 -0.008673906 -0.12861702 -0.024184635
-0.071669705 0.12809557 0.13231634 0.06678188 -0.2223376 -0.12375047 0.016035626 0.06502363
-0.048953164 0.13154484 0.10496694 -0.040043987 -0.13802993 -0.08766605 0.18692225 0.0745302
-0.024361383 -0.020974299 -0.16071334 -0.2267728 -0.1809719 0.062172122 0.26255453 0.02597807

model.2.bias f4 [32]
00000000: 8e3a da3c d555 51bd 70d5 163e 6a32 fe3d
00000010: 3a14 a5bd e6f1 1bbd d7fe 53bd 2c1a 883c
00000020: 1844 fcbc 8883 653d c0db b8bc 9c3e 56bd
00000030: 875b 6cbd 708b 343e 0124 b33a b9ba 393e
00000040: 3931 193e 6c40 fb3d 88b3 6d3e 3690 603e
00000050: 7454 9c3d 1a48 e43d e46b da3d ac3f 3abc
00000060: cb3b d6bd e730 e33c 6cce 283c 5dbe 49bc
00000070: 909b 173e 5fb2 643d 2676 8dbd 3900 ee3d
0.02663925 -0.051107246 0.14729857 0.124119595 -0.080604985 -0.03807249 -0.051756706 0.016614042
-0.030794188 0.05603364 -0.022565722 -0.052305803 -0.057704475 0.17631316 0.0013667346 0.18137635
0.14960183 0.12268147 0.23213017 0.21930012 0.07633296 0.11146565 0.1066511 -0.01136772
-0.10460623 0.02773328 0.010303121 -0.012313453 0.14805436 0.05583417 -0.06907301 0.11621136

model.4.weight f4 [1, 32, 1, 1]
00000000: b800 c83d 1d8f a53d 5d41 6f3e 4768 40be
00000010: 2581 233e 7608 cabd 7728 59be a69b 923e
00000020: 862d 31be 5624 4b3e 3c54 0ebe 200f d8bd
00000030: 26f2 643e b107 c7bd 23a2 84be f08b 813e
00000040: 703d 1c3e e489 653e 82a9 33be 2db3 483e
00000050: b937 f53d 04c0 a0bd d955 083e 1460 27be
00000060: fa90 913d db59 43be d16b 04be 371c 0a3e
00000070: 036a 883e c6d4 8cbe 2c0a 3d3e 2b94 1dbe
0.09765762 0.08083937 0.23364778 -0.18789779 0.15967233 -0.09864895 -0.21206842 0.28634375
-0.17302522 0.1983808 -0.1389932 -0.1054976 0.22357997 -0.09718264 -0.2590495 0.25302076
0.15257812 0.22415882 -0.17545131 0.195996 0.11973519 -0.07849124 0.13313998 -0.16345245
0.0710773 -0.19077246 -0.12931754 0.13487326 0.2664338 -0.27506083 0.18460912 -0.15388553
