checkpoints_jonny/alex_1_tune/latest_net_rank.pth (torch, 7127 bytes, 5 tensors)

model.0.weight f4 [32, 5, 1, 1]
000000 72 f4 8b be 95 05 06 bf e8 06 c4 bd 30 47 f4 be
       -0.27334934 -0.5235227 -0.0957163 -0.47710562
000010 51 1f 69 be 12 d8 d0 be 00 2c b5 3e 94 0f 8f bd
       -0.22765853 -0.4078985 0.35385132 -0.06985393
000020 38 e5 38 be 52 fe e7 3e 85 c2 07 bd 87 99 c8 be
       -0.1805619 0.45311219 -0.033144493 -0.39179632
000030 48 76 52 be b7 2f 90 be ba f6 d0 be 13 7b 02 3f
       -0.20552933 -0.28161404 -0.40813237 0.50969046
000040 8a 8c 2f 3e 79 8e 80 3e de 11 75 bd b1 91 9d 3e
       0.17143455 0.25108698 -0.059831493 0.30775216
000050 9e 61 05 be 8c 39 67 3e e9 13 c5 be fc 50 33 be
       -0.13025519 0.22580546 -0.38491753 -0.17511362
000060 80 d5 e4 3e 9b fb df bd 3b 3d 76 be 71 6c 9f 3e
       0.44694138 -0.10936662 -0.24046795 0.31137422
000070 67 39 95 3e 9a b9 bf be 4d 13 85 3e 7b 92 14 3e
       0.29145357 -0.3744629 0.25991288 0.14509003
000080 4f 2f bf be b9 83 ec be 9b d1 95 3e 70 18 cf 3e
       -0.3734078 -0.46194246 0.2926148 0.40448332
000090 5f 7c a6 3e 41 ce e3 3e 00 7c 10 3f 66 00 96 3e
       0.32516763 0.44493297 0.5643921 0.2929718
0000a0 5f 13 2f be 33 1e d5 be 18 1a 06 3f 1e 34 a0 be
       -0.17097233 -0.41624603 0.52383566 -0.31289762
0000b0 41 87 83 3e f9 71 80 3d f8 16 07 3e e8 57 72 be
       0.25689128 0.062717386 0.13192356 -0.23666346
0000c0 99 ab c8 3e 9e 30 14 3e cf e6 a2 bd df 95 6f be
       0.3919342 0.14471671 -0.079541795 -0.23397015
0000d0 d1 76 76 3d e9 e7 1a be 2a 12 ea be 53 1e 6a 3e
       0.060171906 -0.15127529 -0.45716983 0.2286313
0000e0 24 56 c4 be 91 b6 bd 3b 5e 51 cd 3e e6 3d c5 bd
       -0.3834697 0.005789586 0.4010114 -0.09630947
0000f0 3b e1 b9 3e b3 f9 74 be 39 6a dd bd 69 a5 00 3b
       0.3630465 -0.23923378 -0.10811276 0.0019629842
000100 38 3e fc 3e c6 69 70 be e6 51 01 3d fc 26 e0 be
       0.4926622 -0.2347785 0.031572245 -0.43779743
000110 51 8e 6b 3d e1 2a 8a 3e 83 46 4b 3e c8 d7 0f be
       0.05750877 0.2698584 0.19851117 -0.14047158
000120 a5 ac 38 3e de ea a3 3e 7b 3c 76 be a1 55 79 be
       0.18034609 0.32015127 -0.24046509 -0.24349071
000130 cc 59 21 be a7 2c 97 3e db a7 0b 3f 13 e6 ae be
       -0.15756911 0.29526255 0.54553 -0.34159908
000140 29 7e 8b be 1a 6c a3 bc dc 42 82 bd a3 1a 89 be
       -0.2724469 -0.019949008 -0.06360409 -0.26778135
000150 e0 1a 06 3f d1 3e 0c 3e 19 b5 c0 3e 17 55 01 bb
       0.5238476 0.13695838 0.37638167 -0.0019734555
000160 c6 19 84 3e 09 f6 b8 3e d1 a4 82 be e8 47 a4 be
       0.25800914 0.3612521 -0.2551637 -0.3208611
000170 c0 ac ee 3e 08 dc 04 3f 99 29 e8 3d 8c 6a 0e bf
       0.46616173 0.5189824 0.11336059 -0.5563133
000180 e0 16 81 3e 01 43 03 bf 14 7c 16 bc 9e c3 c5 3e
       0.25212765 -0.51274115 -0.009184856 0.38625807
000190 82 54 1b bf 2d 5e 90 be 62 26 0d bf e4 24 15 bf
       -0.60675824 -0.2819685 -0.5513669 -0.58259416
0001a0 49 13 60 be e7 2f 02 be 09 dc bc be 20 cf ad be
       -0.21882357 -0.12713586 -0.36886624 -0.33947086
0001b0 03 4b 14 3e 8f b4 03 be b5 63 7b bd 65 5f e3 be
       0.1448174 -0.12861846 -0.061374385 -0.44408718
0001c0 1b db c3 3d 20 6c 76 3e d1 24 61 be 78 de 09 bf
       0.095632754 0.24064684 -0.219867 -0.53855085
0001d0 de e0 b4 3d 5a 56 7a 3d 2a 6e 83 3e 01 54 01 3f
       0.088319525 0.061117508 0.25669986 0.50518805
0001e0 b4 29 15 3f 19 be 27 3e a5 2e 83 3e 99 f1 03 3e
       0.5826676 0.1638111 0.25621524 0.12885131
0001f0 37 75 a3 be 2b c0 d5 be ff 41 8d 3d 0c ed cc bc
       -0.31925365 -0.41748175 0.068973534 -0.025015377
000200 95 df b5 be aa 6a 68 3d f0 03 17 be 22 7c dd 3e
       -0.35522142 0.056742348 -0.14747596 0.43258768
000210 08 dd ed 3c cb ef c2 be 55 f7 ec 3e 33 09 2b 3e
       0.02903606 -0.38073573 0.4628245 0.16702728
000220 65 3b 98 3e 40 16 97 bd f8 f5 cf be 38 ec 82 be
       0.29732814 -0.07377291 -0.40617347 -0.25570846
000230 09 f9 3c 3e 11 7a df 3e 72 d1 85 be 18 b5 f9 be
       0.18454374 0.43647817 -0.26136357 -0.48770976
000240 49 d1 10 3f 8c 54 87 be fa 2a b7 3d a2 65 b6 be
       0.56569344 -0.26431692 0.08943744 -0.35624415
000250 8f 23 b0 be e0 1b 2d bc ee 4e e9 be 4a 08 09 3d
       -0.3440213 -0.010565728 -0.4556803 0.03345517
000260 56 7d e9 be 59 09 9c 3d cc 85 d5 be 25 ee d9 bc
       -0.45603436 0.076189704 -0.4170364 -0.026602814
000270 5e d3 b1 be 4a 4a cf be 7d 89 88 3e 2c 55 b5 3e
       -0.34731573 -0.40486366 0.26667395 0.35416543

model.0.bias f4 [32]
000000 e1 4a 7e 3c dc cb 8a 3d ef b4 0d bf 15 db b9 be
       0.015520782 0.06777164 -0.5535421 -0.3629996
000010 35 87 8a be e4 fe 88 be cb ca aa 3e 91 17 8f be
       -0.2705628 -0.26756966 0.33357844 -0.27947667
000020 77 94 f4 be f3 a9 c9 3e 14 a2 2e be 60 c8 94 3d
       -0.4776952 0.39387473 -0.17054015 0.07264781
000030 70 f6 ef bb 29 3f f6 be 08 09 9a be a2 68 a2 3e
       -0.007323079 -0.48095062 -0.30085015 0.31720454
000040 0e 02 17 3d ca 8f e7 bd 30 cf f4 3d 6f 36 5d be
       0.036867194 -0.113067225 0.119535804 -0.21602796
000050 07 e7 03 bf 90 ab b7 be a2 8f 80 3d 51 21 a7 3e
       -0.51524395 -0.3587308 0.06277396 0.32642606
000060 ba 26 07 3c fd 03 0a 3e 79 0d bd 3e 2f ea 00 bf
       0.008248979 0.13478084 0.3692434 -0.50357336
000070 d7 76 25 be 4d 34 46 3e 79 18 66 3e 79 35 c4 3e
       -0.16158615 0.19355889 0.22470273 0.38322046

model.2.weight f4 [32, 32, 1, 1]
000000 f0 74 08 be 2c 4f 7b be 71 a5 cf bd 23 f7 21 3d
       -0.13325858 -0.2454192 -0.10138977 0.03954233
000010 87 df 35 be 12 5a fa bc 10 55 78 bd 41 5d 49 3e
       -0.1776105 -0.030560527 -0.060627997 0.1966448
000020 bb 0e b7 3b 60 0b 7a 3e 00 1f 8d bd f5 d2 a8 3c
       0.005586473 0.24418402 -0.068906784 0.020608405
000030 70 a6 ef 3d 77 00 45 be c8 51 91 bd d5 06 1b 3e
       0.11701667 -0.19238459 -0.07095677 0.15139325
000040 d9 67 d8 bd f3 58 13 3e e0 8c 73 3d 1d eb 54 bd
       -0.10566682 0.143894 0.05946052 -0.051982034
000050 84 a5 51 3d fc e2 11 bd 1e 79 c7 3d ab 02 06 be
       0.05118324 -0.03561686 0.09739898 -0.13086955
000060 fc 68 44 3e 04 42 29 3c 30 5e cb bd 1a 22 3c be
       0.19180673 0.010330681 -0.09930074 -0.18372384
000070 47 4f 18 be 19 79 d1 bd 6e c3 40 3d 2a 44 bd 3d
       -0.14873992 -0.10228176 0.047061376 0.09241517
000080 b5 2c 8a 3d ff 03 56 3c 0c 4e 02 3e 36 87 35 3e
       0.067468084 0.013062476 0.12725085 0.1772736
000090 52 c1 3e be a0 c1 de 3d 31 d9 6c be 52 71 38 bc
       -0.18628433 0.10876775 -0.23129727 -0.011257486
0000a0 63 96 ee 3d 2b e0 d0 bd d3 0f cd bc 1a 7f 35 ba
       0.11649778 -0.10199007 -0.02503196 -0.00069235417
0000b0 97 6e 4d 3d 69 90 24 3e d6 bc 1e 3d 74 de 3f 3d
       0.050154295 0.16070713 0.038754307 0.046843007
0000c0 67 ca d2 bc 99 57 82 3c ed 03 03 3d ef 00 c7 3d
       -0.025731279 0.01591091 0.031986166 0.09716975
0000d0 ca cb de 3d 71 86 58 3d e5 bd 6d 3e 23 d9 6b be
       0.108787134 0.05286259 0.2321697 -0.2303205
0000e0 f8 4e 83 3d 8f 52 83 3d 89 72 3e be ad 22 12 3e
       0.064115465 0.06412231 -0.18598379 0.1427104
0000f0 9c d4 d7 3d 28 95 76 be 56 b8 99 3e a8 37 80 bd
       0.10538599 -0.24080336 0.3002345 -0.062606156
000100 c1 a0 5f be cc e2 a6 be 8c d1 2a be 7c e0 13 3d
       -0.21838666 -0.32594907 -0.16681498 0.036102757
000110 8f 0c 34 be f7 69 b9 bd aa 65 83 be 5c 2c 14 3d
       -0.17582916 -0.09053414 -0.256635 0.036175117
000120 8e c5 62 3d 11 f9 a5 3d 8a ac ff 3d c5 a7 3c bd
       0.055364184 0.08104146 0.12484081 -0.046058435
000130 30 eb 63 3d 96 b9 93 3d 4a 7f d0 3b 84 5c 40 3e
       0.055644214 0.07213132 0.0063628303 0.18785292
000140 70 1d 62 bc 2d 95 13 be d5 84 11 3e 95 23 1a 3b
       -0.013800964 -0.14412375 0.14210828 0.0023519744
000150 3e bf 85 bd 85 93 ac 3c 63 80 ff 3d 0f 1e a7 3d
       -0.06530617 0.021066437 0.1247566 0.0816003
000160 29 53 2b bb d9 25 1f be 33 04 80 be 82 6b 17 bd
       -0.0026142097 -0.15541781 -0.25003204 -0.03696776
000170 e7 11 b9 bc b4 1b 02 3d ea 73 05 3e fc bf 20 3e
       -0.022591544 0.0317647 0.13032499 0.15698236
000180 10 60 d7 bd 7e c4 5a 3e 22 21 29 b9 78 f6 25 be
       -0.10516369 0.21364018 -0.00016129439 -0.16207302
000190 bf 7f a3 3c 94 cd 13 be f7 ba 83 bc 18 43 8f bd
       0.019958375 -0.1443389 -0.016080363 -0.06995219
0001a0 37 0b 27 3a 8d 29 1c 3e 1b 95 1e be 4a 2b 81 be
       0.00063722156 0.15250225 -0.15486567 -0.2522834
0001b0 70 8a 7e 3e 68 a1 f4 bd 85 e5 31 bd 0b 06 ea bd
       0.24857497 -0.11944848 -0.043431778 -0.11426934
0001c0 cf 47 81 3e a1 41 e9 3d c0 22 c1 3d 81 71 9d bd
       0.25250098 0.11389471 0.09430456 -0.07687665
0001d0 f9 a9 33 3e f6 fa 44 bd c7 b3 9d bd a5 23 9c bb
       0.17545308 -0.048090898 -0.077003054 -0.0047649913
0001e0 68 96 39 be 05 51 86 3e 96 c3 3f bd b7 ab 79 3d
       -0.18123782 0.26233688 -0.046817385 0.060954776
0001f0 c0 9c 72 3d 98 85 8e 3e 22 42 20 bd 38 3b 3b 3b
       0.05923152 0.278363 -0.03912557 0.0028569233
000200 9e fa 34 be b4 4f 74 3b c2 f3 45 be 73 9f a2 bc
       -0.17673728 0.0037278952 -0.19331267 -0.019851422
000210 23 2d b8 3d 4f 3b 09 3e 76 6a 9b bb d2 49 39 3e
       0.08992984 0.1340153 -0.0047429157 0.18094566
000220 f5 6a 06 be 69 aa 5d 3e d0 4b 23 3e e5 68 8c 3e
       -0.13126738 0.21647038 0.15946889 0.27423778
000230 0c 56 7b bc 5b bb 0c bd 99 e5 08 bd 94 12 06 3e
       -0.015340339 -0.034358364 -0.033422086 0.13093024
000240 d7 34 87 be 63 a0 f1 3d 24 80 93 bd 31 42 eb 3d
       -0.264075 0.117981695 -0.07202175 0.114872344
000250 68 a6 e8 3b d4 db 0a 3e 9c 21 0e 3e b6 06 31 3d
       0.0070999153 0.1356042 0.13880008 0.04321929
000260 1f a0 06 3e ef b0 19 be a2 f9 6b be 0a f4 68 be
       0.13147019 -0.15008901 -0.23044446 -0.22749344
000270 d7 c5 b9 3d fd e1 26 be 1e 19 ba 3e 3d b9 50 3e
       0.09070938 -0.16297145 0.36347288 0.20383163
000280 13 4f 50 3c f7 9b 84 bb b4 67 61 be c3 ff 3c be
       0.012714165 -0.004046913 -0.22012216 -0.1845694
000290 a2 39 39 3e cb 29 60 bd 22 18 0d 3e cc 3d 13 be
       0.18088391 -0.054727357 0.13778737 -0.14379042
0002a0 f5 ea 00 3e ac ea 2d 3e af c6 e3 3b 75 be 61 be
       0.12589629 0.16984051 0.006951175 -0.2204531
0002b0 73 fb fd 3d 77 f1 91 3a 4a d5 0d be a3 f5 02 3d
       0.12401476 0.0011134584 -0.13850895 0.03197254
0002c0 6e d7 40 3e 7e aa bc bd b5 16 f2 bd d0 86 d2 bc
       0.1883218 -0.09212206 -0.11820737 -0.02569905
0002d0 e1 b2 d3 bd e4 41 aa bc d5 79 b9 be 2a 76 b0 3d
       -0.10336853 -0.020783372 -0.36225763 0.08616288
0002e0 c0 9d 10 be d2 29 55 3e 39 a2 00 3e 8b 16 cc bd
       -0.14122677 0.20816734 0.12561883 -0.09965237
0002f0 66 87 59 3e 4a b4 9c 3d 00 ed ae 3c bf 3c 11 3e
       0.21243057 0.07651575 0.021353245 0.14183329
000300 6f b0 f7 3b 04 5c 61 3d fb cc 93 3c ba e8 78 bd
       0.0075588743 0.055019394 0.018042078 -0.06076882
000310 4e 35 1d 3e 9c aa 63 3d df 72 5f 3e cd f0 03 be
       0.15352365 0.055582628 0.21821164 -0.12884827
000320 36 a4 71 3d 49 60 45 3d 10 f3 26 be af 10 8a bd
       0.058994494 0.048187528 -0.16303658 -0.067414634
000330 de 7d a8 3d dc 11 b4 bd 07 82 95 be c5 61 40 be
       0.08227132 -0.08792469 -0.29200765 -0.18787296
000340 6b 5c b0 3d 24 b6 b0 3d 0e 17 0b 3e 84 ab c8 3d
       0.08611377 0.086284906 0.13583013 0.09798339
000350 01 2f 27 be 2c 62 1e be dd 1d 4c be a1 a8 83 3d
       -0.16326524 -0.15467137 -0.19933267 0.06428648
000360 fa 92 bb bd 84 d4 cb 3d 6a e3 36 3e b8 4e aa bc
       -0.09158893 0.099526435 0.17860189 -0.02078949
000370 b9 82 28 3e 56 c9 ca bc 31 b9 4e be 49 2c 8a 3e
       0.16456117 -0.024754208 -0.20187832 0.26986912
000380 cb 89 14 be 4b f0 d8 bd 80 9e f1 3d 1c 36 76 bc
       -0.14505689 -0.10592707 0.117978096 -0.015027549
000390 9d ac a1 bd 8c f8 0e bd 4a 67 f9 bd e4 6c 37 3b
       -0.078942515 -0.034905 -0.12177904 0.0027988488
0003a0 a4 2f bb bd 2b cf 13 3e 3e ca f2 3d eb 10 ad 3d
       -0.09139946 0.14434497 0.11854981 0.084504925
0003b0 d1 df 5a be 86 41 12 be 42 e2 5b 3b f0 21 ac 3d
       -0.21374442 -0.14282808 0.0033551608 0.084049106
0003c0 79 96 82 bd e0 80 16 3e 55 7e f1 3d 9b d6 8d bd
       -0.06376357 0.146976 0.11791674 -0.06925698
0003d0 4c 9c 22 be ce 42 e5 bd 5b 0d 48 3e f2 8f ad 3d
       -0.15879935 -0.111943826 0.19536345 0.08474721
0003e0 88 07 88 3c 6a a0 e3 bb d9 f4 1d be 2b ec 76 be
       0.016605154 -0.006946613 -0.15425433 -0.24113528
0003f0 d9 49 47 be ac 5e 9e 3d 20 d8 91 3e 91 3b 19 3d
       -0.19461764 0.07732901 0.28485203 0.037410323

model.2.bias f4 [32]
000000 77 d5 09 3d 45 ee 4f bd 75 99 28 3e 7c 62 06 3e
       0.03365084 -0.05076434 0.16464789 0.13123506
000010 4b 45 a7 bd cc 06 ed bc 96 9d 3f bd 8a 15 0f 3d
       -0.081675135 -0.028933905 -0.046781145 0.03493265
000020 83 a4 ca bc 98 51 91 3d dc de 7b bc e0 91 57 bd
       -0.024736648 0.07095641 -0.015372958 -0.05262935
000030 38 d6 2e bd 63 c7 37 3e 84 e4 0a 3c d1 2f 4b 3e
       -0.042684764 0.17947154 0.008477334 0.1984246
000040 0f 69 23 3e 59 53 06 3e 61 10 7b 3e ab 0f 74 3e
       0.15958045 0.13117732 0.24517967 0.23834102
000050 3d 10 b9 3d f7 4d f5 3d 3e 4f f9 3d ba 90 78 ba
       0.090363 0.11977761 0.121733174 -0.0009482015
000060 47 73 d5 bd 6b d0 10 3d 51 2a 95 3c 1c f5 bc bb
       -0.10422378 0.035355013 0.018208655 -0.005766524
000070 fd b2 2a 3e 57 3e 78 3d 6e 1c a0 bd aa e5 fc 3d
       0.16669841 0.060606327 -0.078179225 0.123484924

model.4.weight f4 [1, 32, 1, 1]
000000 e0 7f f3 3d 5f 75 b8 3d c2 e5 81 3e 68 85 52 be
       0.118896246 0.09006762 0.25370604 -0.20558703
000010 35 49 31 3e 6a e0 eb bd 68 a8 6a be 37 00 9d 3e
       0.17313083 -0.11517413 -0.22915804 0.30664226
000020 a8 72 40 be 96 09 60 3e 76 b6 1f be 12 c7 e4 bd
       -0.18793738 0.21878657 -0.15596947 -0.11170782
000030 d5 cc 75 3e 3c d0 e6 bd c7 fc 8d be 05 45 8e 3e
       0.24003918 -0.11270186 -0.27731916 0.27787033
000040 40 2d 36 3e dd a1 7b 3e 3a 07 47 be 5f 68 62 3e
       0.17790699 0.24573465 -0.1943635 0.22110127
000050 6e ca 0e 3e 99 99 c0 bd 76 70 1e 3e 39 00 3e be
       0.13944408 -0.094042964 0.15472588 -0.18554772
000060 81 df a7 3d 90 4f 54 be 00 60 13 be b1 48 1c 3e
       0.08196927 -0.20733476 -0.1439209 0.15262105
000070 d9 13 93 3e 15 90 94 be ed 6b 48 3e 62 18 2f be
       0.2872608 -0.29016176 0.1957242 -0.17099145
