checkpoints_jonny/vgg_1_scratch/6_net_rank.pth (torch, 7127 bytes, 5 tensors)

model.0.weight f4 [32, 5, 1, 1]
0	0x3ed77a1f	0.42085359
1	0x3ea14058	0.31494403
2	0x3f00afda	0.5026833
3	0x3e47a8b6	0.19497952
4	0xbee98f12	-0.45616966
5	0xbf0ff6e6	-0.5623611
6	0x3e94c151	0.2905374
7	0xbe885cb0	-0.26633215
8	0xbe57a792	-0.21060017
9	0x3db9e57d	0.090769745
10	0xbe9919ed	-0.29902592
11	0x3ead4e8e	0.33848995
12	0xbe540520	-0.2070508
13	0x3e0ef3ae	0.13960144
14	0xbe5fe596	-0.21864924
15	0x3eff46c1	0.49858668
16	0xbe8d751c	-0.2762841
17	0x3e5f34d8	0.21797502
18	0xbe0e048a	-0.13868919
19	0xbeb7b06d	-0.3587679
20	0xbdeb56b2	-0.11491145
21	0x3ea436a6	0.32072943
22	0xbeb2eabc	-0.34944713
23	0x3cf8db1e	0.03037792
24	0x3d5d130e	0.05397325
25	0xbe8aed69	-0.27134255
26	0xbeb2425b	-0.3481625
27	0x3f02e0dd	0.51124364
28	0x3e76d950	0.24106336
29	0xbe718a94	-0.2358802
30	0x3e8c5628	0.27409482
31	0x3ea4360c	0.32072484
32	0x3edcd471	0.4313083
33	0xbd8187fe	-0.063247666
34	0xbec4c7a6	-0.3843357
35	0xbea9b613	-0.33146724
36	0xbe110bf7	-0.1416472
37	0xbe8ea1a4	-0.27857697
38	0xbec3f17c	-0.38270175
39	0xbde965d3	-0.113963746
40	0xbe79e8ac	-0.24405164
41	0xbe950c06	-0.29110736
42	0x3e9f4928	0.311105
43	0x3e7b365b	0.24532454
44	0x3e64bc48	0.22337449
45	0xbe859437	-0.2608964
46	0xbe087246	-0.13324842
47	0x3eca3d35	0.39499822
48	0xbe5f7740	-0.21822834
49	0x3e90d9ac	0.2829107
50	0x3eb25cac	0.34836328
51	0xbe9cf20f	-0.30653426
52	0xbe4729bf	-0.19449519
53	0x3dd149b1	0.10219134
54	0x3e4f876b	0.20266502
55	0xbeff5291	-0.4986768
56	0x3eecfb55	0.462855
57	0x3ead8fa0	0.3389864
58	0xbca8e92a	-0.020618994
59	0x3efe81ae	0.49708313
60	0x3eb7f55f	0.3592939
61	0xbec56c1a	-0.38559037
62	0xbe41a683	-0.18911175
63	0x3d931944	0.071825534
64	0xbef6a6d2	-0.4817415
65	0xbdff87e6	-0.124770924
66	0x3e46ea9e	0.19425437
67	0x3e886952	0.26642853
68	0x3e57c9ad	0.21073027
69	0x3e7c0adb	0.24613516
70	0xbc814f8f	-0.015785007
71	0xbe6bf9d2	-0.23044518
72	0xbe7b4518	-0.24538076
73	0x3eb44f84	0.35216916
74	0x3c3c5e29	0.011497059
75	0xbee8fa7b	-0.455036
76	0x3ed05d4b	0.40696177
77	0xbe80aa92	-0.25130135
78	0xbf129a83	-0.57267016
79	0x3e964efe	0.2935714
80	0x3d86b1d2	0.06576885
81	0xbdb977f9	-0.09056086
82	0x3e558323	0.20850806
83	0xbce01c40	-0.02735722
84	0x3e0a6364	0.13514477
85	0xbe17f512	-0.1483958
86	0x3dd9198a	0.10600574
87	0x3e80700e	0.2508549
88	0xbf11ce50	-0.5695543
89	0x3eef387d	0.46722785
90	0x3d1ad944	0.037804857
91	0x3eca6873	0.39532813
92	0x3ec9c9d3	0.39411792
93	0x3e836b21	0.2566767
94	0x3e12b343	0.14326195
95	0x3de7e944	0.11323789
96	0x3e605cbf	0.2191038
97	0x3e44cc9d	0.19218679
98	0x3d770193	0.060304236
99	0x3d09ffca	0.033691205
100	0xbe75f0a3	-0.24017577
101	0xbf00827f	-0.5019912
102	0xbc75bf20	-0.014999181
103	0x3e11c587	0.14235507
104	0x3eaef0a1	0.3416796
105	0x3e98f3cf	0.2987351
106	0xbec8153f	-0.3907871
107	0x3d5eaaf5	0.054362256
108	0xbd9fe58d	-0.07807455
109	0xbe9a8863	-0.3018218
110	0xbcd67450	-0.026178509
111	0xbe798806	-0.24368295
112	0xbe34d51a	-0.17659417
113	0xbe3c8829	-0.18411316
114	0x3e7af021	0.24505664
115	0xbe854189	-0.26026562
116	0xbe546c8d	-0.20744534
117	0x3e8777fd	0.2645873
118	0xbf04340a	-0.51641905
119	0x3e325039	0.17413415
120	0xbd9ddf5a	-0.077086166
121	0xbdec4181	-0.115359314
122	0x3ed590ad	0.4171194
123	0xbd850c71	-0.06496514
124	0xbe9fe97b	-0.3123282
125	0x3ed3c29c	0.41359413
126	0x3ebb1aa6	0.3654377
127	0xbea80d82	-0.32822806
128	0x3e11bf92	0.14233235
129	0xbe9942dd	-0.29933825
130	0x3d4ffcdc	0.050778255
131	0xbe49875c	-0.19680542
132	0xbeab2533	-0.33426818
133	0x3eeb1034	0.459108
134	0x3d8fa15f	0.07013201
135	0xbe4a7b70	-0.1977365
136	0xbd507cc2	-0.05090023
137	0xbe6a1af8	-0.2286185
138	0x3e5fece8	0.21867716
139	0xbe894b5c	-0.26815307
140	0xbee9a749	-0.4563544
141	0xbd7a6945	-0.06113555
142	0xbedac8e9	-0.42731407
143	0x3dd3dea9	0.103452034
144	0x3efeddf5	0.49778715
145	0xbedf25b3	-0.4358345
146	0xbe5b60df	-0.21423672
147	0xbe6fccda	-0.23417988
148	0x3c9bb40e	0.019006755
149	0x3f0aa65d	0.541601
150	0x3eba9abd	0.3644618
151	0x3ea34a0e	0.31892437
152	0xbe4f3b5e	-0.2023749
153	0xbe40b135	-0.18817599
154	0x3ec4c43d	0.38430968
155	0x3e3749d3	0.17899255
156	0x3ec0e88e	0.37677425
157	0x3e989965	0.2980453
158	0xbeed55ee	-0.46354622
159	0x3e179c44	0.14805704

model.0.bias f4 [32]
0	0x3e2694e1	0.1626773
1	0x3e7173fd	0.23579402
2	0x3ee8fc37	0.45504925
3	0x3ec56f82	0.38561636
4	0xbe0fbee9	-0.1403767
5	0x3ee9b58a	0.45646316
6	0x3e82e46a	0.2556489
7	0x3eaa0fff	0.3321533
8	0xbe91b76b	-0.2846025
9	0xbe8f94e6	-0.28043288
10	0x3e81775a	0.2528637
11	0x3edbbd4c	0.4291786
12	0x3e2b27f8	0.16714466
13	0x3e2eee32	0.17083052
14	0xbbad9be1	-0.005298123
15	0x3d900a96	0.07033269
16	0x3ecdf44b	0.40225443
17	0x3e71fa63	0.23630671
18	0xbe575bdd	-0.21031137
19	0x3cc45c77	0.023969872
20	0x3e4021c2	0.18762878
21	0xbcb1d34f	-0.021707205
22	0xbe2e1916	-0.17001757
23	0x3e1e9e6e	0.15490124
24	0x3e232d4b	0.15935247
25	0x3ec4a93f	0.38410375
26	0xbec1a8a3	-0.37823972
27	0x3e9a76f4	0.3016888
28	0x3eee26f9	0.4651411
29	0x3d868d99	0.06569976
30	0x3ded11f6	0.115756914
31	0x3e962eee	0.2933268

model.2.weight f4 [32, 32, 1, 1]
0	0xbe60cbcf	-0.21952747
1	0x3e61bf7d	0.22045703
2	0xbd66904d	-0.05628996
3	0xbdca5cd6	-0.09880988
4	0xbe39a8f4	-0.18130857
5	0xbdcefaba	-0.10106416
6	0x3dfb1e9e	0.12261699
7	0x3e6e1847	0.23251449
8	0xbe4708c9	-0.19436945
9	0xbdf41202	-0.11917497
10	0x3e14fafe	0.14548871
11	0xbdfb05ba	-0.12256952
12	0xbe6d54c3	-0.23176865
13	0xbdce6696	-0.100781605
14	0xbe58cdcb	-0.21172254
15	0x3e846eb8	0.25865722
16	0x3dff0553	0.124521874
17	0xbcb85b91	-0.0225046
18	0xbe9893ee	-0.2980036
19	0xbe4c0c6b	-0.19926612
20	0xbd84f0ce	-0.06491242
21	0x3d0f51fc	0.034990296
22	0x3ce69a41	0.028149726
23	0x3e699c79	0.22813596
24	0xbd258d3b	-0.04041789
25	0xbe131e83	-0.14367108
26	0xbe978c1d	-0.29599085
27	0xbc82cc0c	-0.015966438
28	0xbd57de78	-0.052702397
29	0x3da8a986	0.08235459
30	0x3c52c449	0.012864181
31	0xbd3e36af	-0.04643887
32	0x3e84c7da	0.25933725
33	0xbe0b6abd	-0.13614936
34	0x3dfc86a4	0.12330368
35	0xbcb1e40d	-0.021715188
36	0x3c374b19	0.011187338
37	0x3e8c3e6e	0.2739138
38	0x3e5208b3	0.20511131
39	0xbdb0e9a5	-0.08638314
40	0x3d003cf4	0.03130813
41	0xbde883fb	-0.11353298
42	0x3e0d22f9	0.13782872
43	0x3decfbaf	0.11571442
44	0x3ebbc501	0.3667374
45	0xbdbe86e4	-0.09303072
46	0x3c6e913c	0.014560994
47	0xbeac1b87	-0.33614752
48	0xbdd33443	-0.103127025
49	0xbdcab8ea	-0.09898551
50	0x3d5fde4d	0.054655362
51	0xbd0c9d44	-0.034329668
52	0xbdc7ec78	-0.097619
53	0x3e08cef8	0.13360202
54	0xbdabd717	-0.083906345
55	0xbd2f8439	-0.042850707
56	0x3da55095	0.080720104
57	0x3dc8b0ee	0.09799372
58	0x3da9f25b	0.08298179
59	0x3db213f0	0.08695209
60	0x3d05b9f0	0.032648027
61	0x3d0f1c90	0.03493935
62	0xbe356e24	-0.17717797
63	0xbe0f20f6	-0.13977417
64	0xbc2a55d0	-0.010396436
65	0xbe535d19	-0.20640983
66	0x3e45ae8c	0.19304866
67	0x3e166424	0.14686638
68	0xbdf489f1	-0.11940373
69	0x3e044619	0.12917365
70	0x3d3db0d8	0.04631123
71	0x3dd08da1	0.101832636
72	0x3df31013	0.118683
73	0xbdbce09b	-0.092225276
74	0xbe1454dd	-0.14485498
75	0xbe020ecf	-0.12700962
76	0x3ddcf97e	0.10789774
77	0x3e287313	0.16450147
78	0xbd09773a	-0.03356097
79	0xbda71682	-0.0815859
80	0x3d979b62	0.07402684
81	0xbd0c1286	-0.034197353
82	0xbdb8d6da	-0.09025355
83	0xbd7a7a84	-0.061151996
84	0x3e0cd6c4	0.13753802
85	0x3e6cd3f5	0.2312773
86	0xbe062d24	-0.13103157
87	0xbe1f0562	-0.15529397
88	0xbc81f8ac	-0.015865646
89	0xbd52f932	-0.051507182
90	0x3e5bb498	0.2145561
91	0xbd6e9cd0	-0.058255017
92	0x3d8e025d	0.069340445
93	0xbe057704	-0.13033682
94	0xbe5f4658	-0.21804178
95	0x3c024350	0.007950619
96	0x3d864029	0.06555206
97	0x3d86183c	0.06547591
98	0xbdb59571	-0.08866394
99	0xbc43d894	-0.011953492
100	0xbdd57148	-0.10421997
101	0x3d3622ae	0.044466667
102	0x3e2f281e	0.17105147
103	0x3dee4541	0.11634303
104	0xbd5215db	-0.051290374
105	0xbe857ea8	-0.26073194
106	0x3c760318	0.015015386
107	0xbe1393d4	-0.1441186
108	0x3e6678c7	0.2250701
109	0xbd17ea6b	-0.037088793
110	0x3b9aeacf	0.0047276984
111	0xbe8a513c	-0.27015102
112	0x3dfa8eed	0.12234292
113	0xbe3ecdd6	-0.18633208
114	0x3e52fffd	0.20605464
115	0xbdc6087e	-0.096695885
116	0x3dcccd07	0.10000043
117	0x3d74aa60	0.059732795
118	0x3ba22b66	0.004949021
119	0xbe61bd61	-0.22044899
120	0x3e114632	0.14186934
121	0x3e7ae8de	0.24502894
122	0x3df411bc	0.11917445
123	0x3da3e58a	0.080027655
124	0x3e11cfa5	0.14239366
125	0x3cc52261	0.024064245
126	0xbe01a792	-0.12661579
127	0xbe192e0d	-0.14958973
128	0x3e4b997e	0.19882771
129	0xbe4407cc	-0.191436
130	0x3e477ae1	0.19480468
131	0xbd58e1e0	-0.052949786
132	0x3d4739e9	0.04863921
133	0x3e944190	0.2895627
134	0x3e3d8657	0.18508278
135	0xbbf53209	-0.0074827713
136	0x3e7e5139	0.24835671
137	0xbe6f1201	-0.23346712
138	0x3e46e69c	0.19423908
139	0xbdac7d71	-0.084223635
140	0x3e8e61ea	0.27809078
141	0x3d447ccf	0.04797059
142	0x3bc45d4a	0.0059925662
143	0xbe54f69a	-0.20797196
144	0x3d91261d	0.07087348
145	0xbd406696	-0.046972834
146	0x3d14978f	0.03627735
147	0xbbe3bdd9	-0.006950122
148	0xbdf90aed	-0.12160287
149	0xbe2d73f9	-0.16938771
150	0x3c9d8efb	0.019233217
151	0xbea3671a	-0.31914598
152	0x3e88d3b0	0.26724005
153	0x3df245c4	0.11829713
154	0x3e8b9ac3	0.2726651
155	0x3dbec3f2	0.09314717
156	0x3d825352	0.06363548
157	0x3d362452	0.04446823
158	0xbe55cbff	-0.208786
159	0xbde37efa	-0.11108203
160	0xbe894988	-0.26813912
161	0x3e195ccf	0.1497681
162	0x3dbd9f61	0.09258915
163	0x3d8b5061	0.068024404
164	0xbe0589d7	-0.13040863
165	0x3daa884b	0.08326777
166	0xbe0da386	-0.1383191
167	0x3d5ed208	0.05439952
168	0x3da95d08	0.082696974
169	0x3d26eda5	0.04075398
170	0xbbb025eb	-0.005375614
171	0x3e298cd7	0.16557632
172	0xbe9addfe	-0.30247492
173	0xbce44372	-0.027864192
174	0xbd5a8a0b	-0.053354304
175	0x3d52f6b7	0.051504817
176	0x3d80e4d8	0.062936485
177	0x3e5b199c	0.21396488
178	0xbdd7213e	-0.10504387
179	0xbd29e5cc	-0.041478917
180	0xbdd72e69	-0.10506899
181	0x3d9dbbf2	0.07701863
182	0xbd85b737	-0.06529086
183	0x3ea31703	0.31853494
184	0xbcbece63	-0.023291772
185	0x3d19ecb7	0.037579264
186	0xbdc81d05	-0.0977116
187	0xbda0a0cc	-0.078431696
188	0x3e3ca58a	0.18422523
189	0x3da6cac3	0.081441425
190	0xbd25f136	-0.04051324
191	0x3e55e96c	0.20889825
192	0x3d2fd01c	0.042923078
193	0xbd598bb9	-0.053111766
194	0x3d129636	0.035787784
195	0xbe164695	-0.14675362
196	0x3d9f9698	0.07792395
197	0xbe2f056a	-0.17091909
198	0xbcd71825	-0.02625663
199	0xbd9583ce	-0.073005304
200	0xbdee3f49	-0.116331644
201	0x3d885e03	0.06658556
202	0xbc3049f8	-0.010759823
203	0x3e2334f7	0.15938173
204	0xbe216395	-0.15760644
205	0xbe1d4256	-0.15357336
206	0xbdf127bf	-0.11775159
207	0x3dacabc5	0.084312
208	0xbd7f17c3	-0.06227852
209	0x3dfcfe1d	0.12353156
210	0x3cd18296	0.025574964
211	0x3deb312f	0.114839904
212	0x3cdf8f04	0.027289875
213	0xbdd0e29a	-0.10199471
214	0x3cb0093a	0.021488775
215	0x3dc18c65	0.09450606
216	0x3d834611	0.064098485
217	0xbd4bf8d4	-0.049797848
218	0xbe325d5b	-0.17418425
219	0x3e0db556	0.13838705
220	0x3db4fa22	0.088367715
221	0x3d3a25eb	0.045446318
222	0x3e610a85	0.21976669
223	0x3e63ea71	0.22257401
224	0x3e0d030d	0.13770695
225	0xbdb96570	-0.09052551
226	0x3e08788f	0.1332724
227	0xbd6729fd	-0.056436528
228	0xbe139647	-0.14412795
229	0x3c3e2bf2	0.011607157
230	0x3e2e76c0	0.17037487
231	0xbdea4574	-0.114390284
232	0x3e4e7c8c	0.20164698
233	0xbd77a742	-0.060462244
234	0x3bcdcf77	0.0062808353
235	0xbe0ba7e3	-0.13638262
236	0x3e722aa2	0.23649076
237	0xbd96c133	-0.073610686
238	0x3e0f9025	0.1401983
239	0xbde92fa8	-0.11386043
240	0x3c8bc1d5	0.0170602
241	0xbd09ec17	-0.03367242
242	0x3d522f73	0.051314782
243	0xbd9d9c3f	-0.07695817
244	0x3e4ab4b7	0.197955
245	0xbd99acc7	-0.07503658
246	0xbd508e15	-0.05091675
247	0xbe2a5572	-0.16634157
248	0xbd7119ec	-0.05886261
249	0x3e867784	0.26263058
250	0x3e5c0650	0.21486783
251	0x3e6aa3e8	0.22914088
252	0x3d3277b6	0.043571196
253	0x3d1392f2	0.03602881
254	0x3caae4da	0.020861078
255	0xbe1c5a6f	-0.15268873

model.2.bias f4 [32]
0	0x3e0330a4	0.12811524
1	0xbda6507d	-0.08120821
2	0xbcdb3233	-0.026757335
3	0x3d1d0984	0.038339153
4	0x3d000d1f	0.031262513
5	0x3e13f236	0.14447865
6	0x3e3799e4	0.17929798
7	0x3e02fa3b	0.12790768
8	0x3d7f18cc	0.062279508
9	0xbcb41a25	-0.021985123
10	0x3ddf134d	0.10892353
11	0x3e354ebc	0.17705816
12	0xbe2b89c2	-0.16751769
13	0x3db4296f	0.08796965
14	0x3db92653	0.09040513
15	0x3e290b00	0.16508102
16	0x3dde7f16	0.108640835
17	0xbd7a6e9e	-0.06114065
18	0x3c34faa8	0.011046089
19	0x3c64a57c	0.01395547
20	0x3e380c29	0.17973389
21	0x3dc7c2e4	0.09753969
22	0x3c2d9e8d	0.0105968835
23	0x3e1a7493	0.15083532
24	0x3ddf4ff2	0.1090392
25	0x3dc31f43	0.09527447
26	0xbcce973a	-0.025218595
27	0xbde9e47d	-0.11420534
28	0x3dfac2de	0.12244199
29	0x3e38cc16	0.18046603
30	0xbddf4f07	-0.10903745
31	0x3e2a3014	0.16619903

model.4.weight f4 [1, 32, 1, 1]
0	0xbe63370c	-0.22188967
1	0x3ea28a71	0.31746247
2	0x3e5a4f69	0.21319355
3	0x3e5a52e1	0.21320678
4	0x3e9ea5ac	0.30985773
5	0xbd9b9a42	-0.07597782
6	0xbe031349	-0.12800325
7	0x3e732cbc	0.23747534
8	0x3e92794b	0.28608164
9	0x3d69fd2d	0.057126213
10	0x3e70af41	0.23504354
11	0x3e052616	0.1300281
12	0xbdcea22d	-0.10089526
13	0xbe63797f	-0.22214316
14	0xbe6b835c	-0.22999328
15	0xbdca7c36	-0.098869726
16	0xbe274e13	-0.16338377
17	0xbe3f49e3	-0.1868053
18	0x3e82ef3f	0.25573155
19	0xbe3f3751	-0.18673445
20	0xbddb110a	-0.10696609
21	0xbe09516b	-0.13409965
22	0xbe107f28	-0.14111006
23	0x3e83761d	0.2567605
24	0xbe63bf0e	-0.2224085
25	0xbdec1a42	-0.11528446
26	0xbe75f95f	-0.24020909
27	0xbe7b5eb4	-0.24547845
28	0x3e33bf63	0.17553477
29	0x3de3f3ed	0.111305095
30	0xbe540adb	-0.20707266
31	0xbe7ad126	-0.24493846
