checkpoints_jonny/vgg_1_scratch/7_net_rank.pth (torch, 7127 bytes, 5 tensors)

model.0.weight f4 [32, 5, 1, 1]
0.41762534 0.309846 0.50485224 0.19382687 -0.46219584 -0.5600667 0.2917228 -0.26467696
-0.21054909 0.090529315 -0.30063292 0.33582798 -0.20603152 0.14013626 -0.22170998 0.49650455
-0.27999133 0.2202894 -0.1395567 -0.36425364 -0.114134565 0.3241014 -0.35432026 0.03494639
0.06011929 -0.27052015 -0.34736907 0.5116299 0.24204224 -0.23796947 0.27118814 0.31579292
0.43367448 -0.06379305 -0.3903724 -0.33467522 -0.14398696 -0.27799138 -0.38470754 -0.11272168
-0.24615677 -0.29189926 0.30861765 0.24530366 0.22620997 -0.25891942 -0.12898825 0.39230597
-0.21833229 0.28827548 0.34944633 -0.30691546 -0.1930041 0.10113153 0.20106834 -0.49720412
0.4640651 0.339497 -0.020799838 0.4970827 0.3574212 -0.38924882 -0.18866476 0.07187471
-0.48608503 -0.12739603 0.1896857 0.26766115 0.21065676 0.24235797 -0.016976925 -0.23124772
-0.24610329 0.35280558 0.011605014 -0.45713115 0.40446532 -0.24893495 -0.5774192 0.29032284
0.06781058 -0.08991245 0.21044864 -0.025662566 0.13461286 -0.14790985 0.10628133 0.2512485
-0.5702824 0.46629494 0.037083242 0.39719883 0.38857472 0.25781485 0.14977121 0.11807473
0.22821756 0.18569496 0.06189083 0.040061604 -0.2409501 -0.5068899 -0.011017606 0.1436753
0.3375707 0.29667234 -0.39274916 0.05425285 -0.07843726 -0.30263063 -0.026595203 -0.2458862
-0.17357026 -0.18606147 0.24218157 -0.2654957 -0.21334252 0.26947615 -0.52013993 0.17093526
-0.07945996 -0.11994583 0.41731742 -0.06301059 -0.31461477 0.4117052 0.36285663 -0.32730442
0.14251512 -0.30179903 0.0503677 -0.19604236 -0.33619592 0.45854935 0.07091482 -0.19922753
-0.05322997 -0.22723784 0.21909502 -0.27070716 -0.45451447 -0.0594756 -0.42750984 0.10324105
0.49787903 -0.4334171 -0.21238735 -0.2334511 0.018213417 0.54183096 0.3673893 0.32078156
-0.19963254 -0.1850776 0.38540456 0.1802433 0.37772048 0.29860747 -0.4623611 0.14824939
00000000: fdd2 d53e 23a4 9e3e ff3d 013f 8d7a 463e
00000010: efa4 ecbe 8860 0fbf b15c 953e bd83 87be
00000020: 2e9a 57be 6f67 b93d 8fec 99be a5f1 ab3e
00000030: edf9 52be e17f 0f3e f107 63be d835 fe3e
00000040: 065b 8fbe 8b93 613e f4e7 0ebe 747f babe
00000050: 62bf e9bd 9ef0 a53e 7769 b5be f223 0f3d
00000060: a53f 763d 9e81 8abe 5cda b1be 2dfa 023f
00000070: ecd9 773e 45ae 73be 2cd9 8a3e 9caf a13e
00000080: 950a de3e eea5 82bd e4de c7be 8d5a abbe
00000090: 5171 13be e354 8ebe 63f8 c4be a0da e6bd
000000a0: 8510 7cbe d273 95be 2203 9e3e e230 7b3e
000000b0: 96a3 673e 1691 84be 7f15 04be 54dc c83e
000000c0: 8092 5fbe d898 933e a1ea b23e 0624 9dbe
000000d0: dea2 45be 0c1e cf3d dce4 4d3e 8a91 febe
000000e0: f199 ed3e 8dd2 ad3e 6c64 aabc a081 fe3e
000000f0: e9ff b63e 9f4b c7be 5631 41be 0c33 933d
00000100: 23e0 f8be 1b74 02be f83c 423e e20a 893e
00000110: 68b6 573e b02c 783e 3113 8bbc 34cc 6cbe
00000120: 8002 7cbe efa2 b43e f522 3e3c 180d eabe
00000130: 1416 cf3e cee8 7ebe bfd1 13bf 32a5 943e
00000140: 46e0 8a3d 0524 b8bd d97f 573e 4d3a d2bc
00000150: f4d7 093e ae75 17be 07aa d93d a5a3 803e
00000160: 07fe 11bf 36be ee3e 99e4 173d a55d cb3e
00000170: 44f3 c63e 4f00 843e a05d 193e 2ad1 f13d
00000180: ddb1 693e d226 3e3e 3d81 7d3d a317 243d
00000190: 9fbb 76be 89c3 01bf 3083 34bc 9e1f 133e
000001a0: 11d6 ac3e 70e5 973e 6b16 c9be 3d38 5e3d
000001b0: b7a3 a0bd 67f2 9abe 2fde d9bc 98c9 7bbe
000001c0: 67bc 31be e686 3ebe 72fe 773e 0def 87be
000001d0: 7676 5abe c7f8 893e e427 05bf a709 2f3e
000001e0: e7bb a2bd 29a6 f5bd a1aa d53e b20b 81bd
000001f0: 3015 a1be 06cb d23e 58c8 b93e 7294 a7be
00000200: 7cef 113e 6785 9abe 5d4e 4e3d 54bf 48be
00000210: df21 acbe fbc6 ea3e ca3b 913d 4d02 4cbe
00000220: ab07 5abd 09b1 68be 725a 603e 219a 8abe
00000230: 1fb6 e8be b09c 73bd 92e2 dabe 0b70 d33d
00000240: 00ea fe3e d9e8 ddbe 127c 59be ce0d 6fbe
00000250: 4e34 953c 6fb5 0a3f 731a bc3e 7b3d a43e
00000260: 796c 4cbe fb84 3dbe bf53 c53e b391 383e
00000270: 9464 c13e 14e3 983e 98ba ecbe b0ce 173e

model.0.bias f4 [32]
0.16220738 0.23665486 0.45604008 0.38444448 -0.13741004 0.45733523 0.25538406 0.3335955
-0.2827291 -0.28204054 0.25674054 0.42987096 0.168749 0.173882 -0.0055851983 0.068891
0.40521467 0.23754732 -0.20577791 0.02463432 0.19307828 -0.022910113 -0.17021787 0.15471603
0.16295657 0.3844137 -0.3777918 0.3017525 0.46749178 0.066690534 0.11797517 0.29523015
00000000: b119 263e a755 723e 167e e93e e8d5 c43e
00000010: 38b5 0cbe d827 ea3e b3c1 823e 08cd aa3e
00000020: dec1 90be 9e67 90be 7f73 833e 0c18 dc3e
00000030: 8acc 2c3e 1f0e 323e 0a04 b7bb b916 8d3d
00000040: 4c78 cf3e 9b3f 733e 72b7 52be eacd c93c
00000050: 50b6 453e fdad bbbc 984d 2ebe e16d 1e3e
00000060: 16de 263e dfd1 c43e ed6d c1be 4e7f 9a3e
00000070: 155b ef3e 0c95 883d f79c f13d 6828 973e

model.2.weight f4 [32, 32, 1, 1]
-0.22155978 0.220216 -0.05651969 -0.098592296 -0.18863562 -0.10103763 0.12105137 0.23754089
-0.20103797 -0.12603018 0.14384024 -0.124240115 -0.23433892 -0.1030889 -0.2164312 0.2577579
0.123893216 -0.023367994 -0.3070217 -0.20272239 -0.06651188 0.038170047 0.022352532 0.23258959
-0.042625908 -0.14508264 -0.29701254 -0.016794248 -0.05437635 0.079968475 0.01042185 -0.04654246
0.26182368 -0.13670164 0.12432337 -0.01740337 0.008287259 0.2757554 0.20953268 -0.08476354
0.026129246 -0.11351562 0.1368019 0.11417498 0.3757869 -0.094553284 0.014022226 -0.33611953
-0.10332897 -0.101294495 0.05142729 -0.03618563 -0.098825514 0.1376618 -0.083861955 -0.041030888
0.09338486 0.098661676 0.07940245 0.08914679 0.03140044 0.030452924 -0.18149729 -0.14120784
-0.007797831 -0.2047069 0.19602697 0.15179259 -0.121749304 0.13235526 0.050986953 0.10363508
0.11289811 -0.09366885 -0.14362144 -0.12589788 0.11644382 0.16513185 -0.032724116 -0.081775635
0.07602509 -0.033762723 -0.09331953 -0.061452612 0.13890658 0.23256266 -0.13190283 -0.15417157
-0.0040376107 -0.04912325 0.21047921 -0.0546162 0.07086778 -0.13132927 -0.22004956 0.008811073
0.06771601 0.066484705 -0.08679518 -0.008048153 -0.10788709 0.04682588 0.17481123 0.117257185
-0.056350164 -0.2613719 0.015568205 -0.1437459 0.2332948 -0.036953684 0.0052389554 -0.2695281
0.12346671 -0.18614864 0.20339495 -0.09728206 0.10077324 0.06082848 0.0046614385 -0.21974358
0.15291853 0.24639818 0.11552718 0.082729414 0.14306657 0.023291852 -0.12813748 -0.14957458
0.20095536 -0.19085613 0.19647926 -0.04985245 0.0454737 0.29163 0.18845804 -0.008078999
0.24370058 -0.23403426 0.1948943 -0.08374182 0.28599408 0.048342377 0.0068688695 -0.20801212
0.07190266 -0.047021147 0.03414951 -0.0071706674 -0.120729275 -0.16889712 0.019040637 -0.32039177
0.27767444 0.119581245 0.26935518 0.09558418 0.06439543 0.04416254 -0.20986968 -0.111382775
-0.27000442 0.15059695 0.09295868 0.06732444 -0.13283399 0.082631916 -0.14005825 0.05940776
0.07583771 0.036088545 -0.005208041 0.16589461 -0.3090068 -0.027964495 -0.05527214 0.051405877
0.063506596 0.21446452 -0.10607043 -0.0411354 -0.1055399 0.07731267 -0.070054606 0.32256204
-0.030021736 0.037836082 -0.09941144 -0.079609685 0.18428445 0.08092598 -0.039810937 0.2107002
0.040883593 -0.052155603 0.036497436 -0.14719987 0.075353794 -0.17110474 -0.028040245 -0.06775934
-0.12380544 0.06170288 -0.010575225 0.15972029 -0.16319628 -0.1537028 -0.11935878 0.08423475
-0.061628293 0.12403213 0.023596676 0.114746675 0.027068349 -0.10160044 0.016615659 0.09864946
0.058452412 -0.049488492 -0.17646553 0.13779268 0.088590555 0.04498672 0.22022018 0.22428873
0.13981307 -0.0915443 0.13405937 -0.054104473 -0.14800906 0.013036841 0.17356037 -0.11717673
0.19803172 -0.060412247 0.0061917203 -0.13683398 0.24434716 -0.07381634 0.14124182 -0.115803234
0.017179077 -0.035198547 0.049250823 -0.0776452 0.19818807 -0.073901944 -0.050511595 -0.1700482
-0.04871351 0.26309413 0.21219513 0.23103923 0.04340335 0.035029307 0.01890681 -0.15456125
00000000: 91e0 62be 4e80 613e 3181 67bd c2ea c9bd
00000010: b229 41be d1ec cebd c8e9 f73d eb3d 733e
00000020: e6dc 4dbe 0e0e 01be db4a 133e 9a71 febd
00000030: 8bf6 6fbe 4620 d3bd 24a0 5dbe d8f8 833e
00000040: babb fd3d 3c6e bfbc f331 9dbe 7596 4fbe
00000050: 6137 88bd 3258 1c3d a81c b73c f72b 6e3e
00000060: 8198 2ebd 8b90 14be 0712 98be 1794 89bc
00000070: bcb9 5ebd 83c6 a33d 68c0 2a3c 4ea3 3ebd
00000080: c10d 863e 84fb 0bbe 409d fe3d 8391 8ebc
00000090: 49c7 073c d02f 8d3e bc8f 563e 8298 adbd
000000a0: 000d d63c e17a e8bd cc15 0c3e 92d4 e93d
000000b0: 2467 c03e 27a5 c1bd 7bbd 653c dc17 acbe
000000c0: 249e d3bd 7d73 cfbd 6ca5 523d 6237 14bd
000000d0: 0865 cabd 37f7 0c3e d1bf abbd 0110 28bd
000000e0: 9040 bf3d 220f ca3d c09d a23d 9892 b63d
000000f0: bf9d 003d 6978 f93c 6dda 39be ca98 10be
00000100: f384 ffbb b09e 51be 4bbb 483e 846f 1b3e
00000110: b357 f9bd 2388 073e b2d7 503d a13e d43d
00000120: 2037 e73d 74d5 bfbd 8011 13be 60eb 00be
00000130: 197a ee3d 5318 293e b909 06bd fc79 a7bd
00000140: 0bb3 9b3d c84a 0abd 4f1e bfbd bcb5 7bbd
00000150: 873d 0e3e e824 6e3e 8911 07be 27df 1dbe
00000160: ef4d 84bb 7635 49bd dd87 573e 3db5 5fbd
00000170: 2023 913d 2e7b 06be ac54 61be 525c 103c
00000180: b1ae 8a3d 2229 883d acc1 b1bd 66dc 03bc
00000190: e8f3 dcbd 7ecc 3f3d b701 333e 8924 f03d
000001a0: 6ecf 66bd 8ad2 85be c911 7f3c 2032 13be
000001b0: d5e4 6e3e bf5c 17bd 8bab ab3b 96ff 89be
000001c0: 1ddc fc3d c09d 3ebe c446 503e d13b c7bd
000001d0: 3362 ce3d 4927 793d fbbe 983b 7604 61be
000001e0: ad96 1c3e ce4f 7c3e 8499 ec3d 0a6e a93d
000001f0: 0b80 123e 8ece be3c 7936 03be 142a 19be
00000200: 3ec7 4d3e ca6f 43be dc31 493e 1532 4cbd
00000210: a142 3a3d 8750 953e 25fb 403e c75d 04bc
00000220: a58c 793e ada6 6fbe 5f92 473e d580 abbd
00000230: d16d 923e a802 463d 4114 e13b 2101 55be
00000240: b441 933d 3f99 40bd 5be0 0b3d ebf7 eabb
00000250: e940 f7bd 5ef3 2cbe 1cfb 9b3c 640a a4be
00000260: 582b 8e3e 03e7 f43d ece8 893e a3c1 c33d
00000270: c0e1 833d c8e3 343d 14e8 56be a71c e4bd
00000280: 053e 8abe 1636 1a3e 1f61 be3d 65e1 893d
00000290: a205 08be ec3a a93d 6e6b 0fbe 8d55 733d
000002a0: cd50 9b3d 95d1 133d 37a8 aabb 47e0 293e
000002b0: 2436 9ebe cc15 e5bc 0a65 62bd f88e 523d
000002c0: bf0f 823d 969c 5b3e 743b d9bd 987d 28bd
000002d0: 4e25 d8bd 1b56 9e3d ca78 8fbd da26 a53e
000002e0: 25f0 f5bc 02fa 1a3d 3a98 cbbd 670a a3bd
000002f0: 10b5 3c3e 85bc a53d cb10 23bd cbc1 573e
00000300: 8e75 273d 1da1 55bd 567e 153d 90bb 16be
00000310: 1753 9a3d 1536 2fbe a8b4 e5bc 69c5 8abd
00000320: b58d fdbd 29bc 7c3d b543 2dbc b78d 233e
00000330: ed1c 27be 4464 1dbe 6072 f4bd 4583 ac3d
00000340: f36d 7cbd 8f04 fe3d d14d c13c 4e00 eb3d
00000350: 71be dd3c e413 d0bd 901d 883c ba08 ca3d
00000360: cc6b 6f3d 72b4 4abd 61b3 34be 8619 0d3e
00000370: f76e b53d ff43 383d 6681 613e f2ab 653e
00000380: 282b 0f3e 947b bbbd dc46 093e a79c 5dbd
00000390: b08f 17be 7998 553c cfb9 313e 5afa efbd
000003a0: d4c8 4a3e d572 77bd eae3 ca3b 351e 0cbe
000003b0: 2436 7a3e 052d 97bd b2a1 103e 3f2a edbd
000003c0: 23bb 8c3c 5a2c 10bd 3bbb 493d 7204 9fbd
000003d0: d0f1 4a3e e759 97bd 3fe5 4ebd 1e21 2ebe
000003e0: d187 47bd 46b4 863e ae49 593e 8c95 6c3e
000003f0: b6c7 313d e47a 0f3d 74e2 9a3c 4e45 1ebe

model.2.bias f4 [32]
0.12788421 -0.0808964 -0.024312316 0.039771292 0.032532305 0.14517236 0.18016654 0.12822413
0.06369737 -0.017994627 0.109198414 0.17786151 -0.1666333 0.08892034 0.0929318 0.16620286
0.11046883 -0.060056917 0.012353766 0.016744155 0.18016148 0.09920428 0.011762075 0.15098363
0.10976966 0.098085485 -0.023413774 -0.11286144 0.12344725 0.18109937 -0.10677399 0.166168
00000000: 14f4 023e 03ad a5bd 9f2a c7bc 39e7 223d
00000010: 9840 053d 10a8 143e 947d 383e 304d 033e
00000020: c473 823d 7869 93bc 6ba3 df3d 5421 363e
00000030: eba1 2abe de1b b63d 0753 be3d 1531 2a3e
00000040: 7b3d e23d 3efe 75bd 7367 4a3c 0a2b 893c
00000050: 407c 383e 9d2b cb3d b8b5 403c 749b 1a3e
00000060: eace e03d 0be1 c83d 3ece bfbc e623 e7bd
00000070: e9d1 fc3d 1d72 393e 52ac dabd f227 2a3e

model.4.weight f4 [1, 32, 1, 1]
-0.22774374 0.32090342 0.21689172 0.2154855 0.31213093 -0.077467695 -0.12886229 0.23912999
0.28779426 0.05896147 0.23632573 0.13115278 -0.10311233 -0.22327472 -0.23161961 -0.10055441
-0.16448206 -0.1874589 0.25852662 -0.1881437 -0.10813199 -0.13506758 -0.14300619 0.25876087
-0.22314255 -0.117110156 -0.24079552 -0.24661765 0.17766893 0.114499934 -0.20827547 -0.2518262
00000000: a835 69be 744d a43e dd18 5e3e 3ba8 5c3e
00000010: a0cf 9f3e 62a7 9ebd 7af4 03be 7ede 743e
00000020: c559 933e 9581 713d 5fff 713e ea4c 063e
00000030: 8f2c d3bd 21a2 64be b12d 6dbe 78ef cdbd
00000040: fc6d 28be 3af5 3fbe 9a5d 843e bea8 40be
00000050: 4e74 ddbd 284f 0abe 3770 12be 4e7c 843e
00000060: 7b7f 64be 73d7 efbd 1a93 76be 5689 7cbe
00000070: d8ee 353e f17e ea3d 2a46 55be 5def 80be
