checkpoints_jonny/squeeze_1_tune/2_net_rank.pth (torch, 7127 bytes, 5 tensors)

model.0.weight f4 [32, 5, 1, 1]
000000 ab b4 9a 3e 76 47 82 3b 83 b5 01 3f d4 05 84 3e
       0.30215964 0.003975804 0.5066759 0.25785697
000010 14 c9 8c be 4c 2b 14 bf 6f fe ce 3e e0 92 c5 be
       -0.2749716 -0.57878566 0.40428492 -0.3858862
000020 25 61 00 bf d2 cb bf bd a4 3a 3e be 40 95 9a 3e
       -0.5014823 -0.093650475 -0.18577057 0.30191994
000030 52 79 02 3e 78 a0 95 be 5f 8d 3a 3e ef 9a ec 3d
       0.12741593 -0.2922399 0.18217991 0.11552989
000040 f2 35 f5 be b0 7f a6 be 26 66 97 3e da 63 d7 be
       -0.4789272 -0.32519293 0.2957012 -0.42068368
000050 30 c8 a2 3e d0 c9 88 3e a8 d0 6c 3e 4b 48 aa be
       0.31793356 0.2671647 0.23126471 -0.3325828
000060 04 f0 11 3e 98 27 83 be d4 fb 62 3e c5 39 68 3e
       0.14251715 -0.25616145 0.22166377 0.22678287
000070 02 48 76 be df 14 16 3f 4e 4b 87 3e 57 6f d8 3d
       -0.24050906 0.58625597 0.2642464 0.105681114
000080 35 5a 83 be 2c a5 92 be ad d3 35 3e 95 56 90 be
       -0.2565476 -0.2864164 0.17756529 -0.28191057
000090 09 c0 b3 be c9 07 a6 bd 82 1b ef be 66 20 13 3f
       -0.3510745 -0.08106954 -0.46700674 0.5747131
0000a0 2f 0e 3f 3e de 81 6e 3d 64 21 02 bf e9 b1 de 3d
       0.18657754 0.05822932 -0.508322 0.108737774
0000b0 8e c5 10 3f 51 18 e1 bd bb 94 a6 3e d8 9b 90 3e
       0.56551445 -0.10990966 0.32535347 0.282439
0000c0 6c b5 44 3d 06 70 16 bf 83 50 cd 3d 1c e4 5d 3d
       0.04802458 -0.58764684 0.10025122 0.05417262
0000d0 58 9c 32 be 41 44 f5 3e 3a 76 35 3c 42 f6 38 be
       -0.17442453 0.47903636 0.011075551 -0.1806269
0000e0 80 1c de be 71 ba ef 3e 81 27 80 3e a2 97 8d be
       -0.4338112 0.4682193 0.2503014 -0.2765475
0000f0 f0 41 01 3f 36 69 ec be 59 1f bf 3e b2 5f bf 3e
       0.5049124 -0.4617402 0.37328604 0.37377697
000100 d9 be 16 be cb b1 24 3e 35 4c 70 be 86 5b 87 be
       -0.1472124 0.16083448 -0.2346657 -0.26437014
000110 77 97 8f be 15 a8 ec bb 37 73 c9 3d 37 6b e1 bd
       -0.28045246 -0.0072221854 0.098364286 -0.11006778
000120 43 20 7b be d0 a8 85 3e 7c df 48 3b 01 b7 2c 3a
       -0.24524026 0.26105356 0.0030650785 0.0006588549
000130 2c a5 ce 3e 43 a1 3c be d7 9c 07 bf d8 bc 92 3e
       0.4036039 -0.18420891 -0.52973694 0.286597
000140 82 b2 f7 3e bf 1c ef 3d 1f 03 47 be 47 3f b0 3d
       0.48378378 0.11675405 -0.19434784 0.08605819
000150 9b 44 c5 be 1e 4a 88 bd ad e0 21 be a8 80 b8 be
       -0.38528904 -0.06654762 -0.15808363 -0.36035657
000160 a0 e5 d3 3d e7 50 cb be 05 9a f8 3e 73 d7 8e bd
       0.10346532 -0.3971016 0.48555008 -0.069746874
000170 64 cc 80 be 86 5a a5 3e 6c 62 e1 be 12 39 26 be
       -0.25155938 0.32295626 -0.44020402 -0.16232708
000180 9a cf 30 be 07 6c c3 be a1 65 b6 be 41 ec 33 3e
       -0.17266694 -0.38168356 -0.35624412 0.17570592
000190 38 00 03 3f ea 57 95 be 0a 21 6a 3d f4 6e 6b 3e
       0.5117221 -0.29168636 0.057160415 0.22991544
0001a0 80 9f 8c be 06 21 05 3f 93 63 72 3e c3 c4 91 be
       -0.2746544 0.52003515 0.23670797 -0.2847043
0001b0 08 df 95 3e 4f 76 14 3e 46 36 a6 be 6d 02 a2 3d
       0.29271722 0.14498256 -0.32463282 0.07910619
0001c0 85 9c 79 be 0a b6 c6 3e 4c 5d 8b be 22 f9 3e 3e
       -0.24376114 0.3881076 -0.27219617 0.18649724
0001d0 79 39 99 be 6e ea ba 3e c7 f8 96 be b4 86 d9 3e
       -0.2992666 0.3650698 -0.29486677 0.42485583
0001e0 fe 78 47 3e 06 f9 1c be dc d7 3e 3d ca fd ad 3d
       0.19479749 -0.1532937 0.04659258 0.08495672
0001f0 4a d0 f7 be 2e 53 9e be ec 5e 9b 3e 45 ba 9d be
       -0.484011 -0.30922836 0.30345857 -0.30806175
000200 08 16 37 3e 0b b8 0b bf 54 13 46 be 2f 59 d2 be
       0.17879498 -0.545777 -0.1934331 -0.41083667
000210 20 69 03 3f e8 81 e7 3e 5b b1 8e be 8f ad 6e 3c
       0.51332283 0.45216298 -0.27869686 0.014567747
000220 cc a1 5c be 61 49 1a be d4 ab 3c 3e 2d 53 0b bf
       -0.21546096 -0.15067054 0.18424922 -0.5442379
000230 5d 16 01 bf f4 08 98 3e 84 aa ab bd 63 c6 f4 bd
       -0.5042475 0.2969433 -0.08382133 -0.11951902
000240 63 5c ec 3e 9a 12 be 3e dc 58 c1 be 2d 09 98 3e
       0.46164235 0.37123567 -0.37763107 0.296945
000250 46 2f 0c 3f 8f 21 9f be b5 d7 0a bf e2 55 60 3e
       0.54759634 -0.3108029 -0.5423539 0.21907762
000260 32 fd 97 3e 19 21 87 3e a2 f9 97 3e ae dc a6 3e
       0.2968536 0.2639244 0.29682642 0.3259024
000270 7d e3 a8 3e 7b 5e c0 3d 18 59 a2 be da 54 dd be
       0.3298606 0.09393021 -0.31708598 -0.432288

model.0.bias f4 [32]
000000 d6 6c 6f 3e bf a0 93 3e 3e 5c f6 3e 3d e7 df be
       0.23381361 0.28833577 0.4811725 -0.43731108
000010 51 3e 6c 3e 0e 57 90 3d 5f 90 9d 3e e6 7e 05 3d
       0.23070647 0.07047854 0.3077421 0.032591723
000020 d3 67 a1 3d 0f 80 47 be 61 46 af bc 87 90 88 3d
       0.07881131 -0.19482444 -0.021395864 0.066681914
000030 09 6a b4 3e aa e9 59 3e 12 fc 28 bb 8f ec 0e 3e
       0.35237148 0.21280542 -0.0025785011 0.13957427
000040 e9 f6 8f 3e fc 74 98 3e ea f4 53 3d e6 c4 66 3e
       0.28118065 0.29776752 0.05174724 0.22536048
000050 cb a6 b9 3e ac a0 e9 3d b9 92 d3 3e 2f 88 c6 be
       0.36260065 0.11407599 0.41322878 -0.38775775
000060 15 b3 2b be 71 e3 dd 3d 50 a4 8f 3e 8c 04 f0 3d
       -0.16767533 0.10834397 0.28055048 0.11719617
000070 e5 d0 87 3e f7 91 92 3e 38 c7 bb 3e 9c 09 f0 be
       0.2652656 0.28626987 0.3667543 -0.4688233

model.2.weight f4 [32, 32, 1, 1]
000000 35 9b 8c 3d a8 d9 13 be 36 b2 b8 3d a1 cc f9 3d
       0.06865541 -0.14438498 0.09018366 0.12197233
000010 30 8c dc bd 1c 25 3f 3d 97 0f 33 be 98 e0 c6 bd
       -0.10768926 0.04666625 -0.17486416 -0.097108066
000020 5e bc e1 bb 25 e9 77 bb 1f ea 33 3e c6 8b 2c 3e
       -0.00688891 -0.0037828174 0.17569779 0.16850194
000030 ca 45 50 3d 1d 29 fc 3d 7d 8c 16 3e 43 52 47 be
       0.050847806 0.12312529 0.1470203 -0.19464974
000040 b5 5b 63 3e 36 08 08 3e 60 23 a3 3d 92 25 20 be
       0.22202952 0.13284382 0.079657316 -0.15639332
000050 3d 26 78 bc 5a 5a 9d bd 2d fc 41 3e 24 83 38 bd
       -0.0151458355 -0.07683249 0.18943854 -0.04504694
000060 02 c3 7b bc cc 6d 76 3d fb a4 11 3e 21 2b 85 3e
       -0.015366318 0.060163304 0.14223091 0.26009467
000070 0e c8 64 bb 71 b0 0c 3e 9e 82 18 bd 19 7e 68 3d
       -0.003490928 0.13739182 -0.03723394 0.05676088
000080 5b b7 97 3d 9c e6 2e be 2a 72 67 3d c3 70 82 bc
       0.07408019 -0.17080158 0.05650536 -0.01592291
000090 ea 93 13 be 86 8a 17 be 87 30 16 3d 30 82 a6 be
       -0.14411893 -0.14798936 0.036667373 -0.325212
0000a0 9c 4d 22 be b2 9b 9d 3d 08 1f 09 bb ee d2 97 3c
       -0.15849918 0.07695712 -0.0020923037 0.018533196
0000b0 4e f0 c2 bd 3b c3 e4 bd 00 ea 1b 3e 12 7f 8f be
       -0.09518491 -0.1117005 0.15225983 -0.28026634
0000c0 f2 d4 38 3e 40 80 fd 3d 67 6a 51 3e ea 7b 8e 3b
       0.18049982 0.12377977 0.20450746 0.004348268
0000d0 8f dc 17 3e 5c 69 23 bd ba 7a 62 3e 5b 5f 9e bd
       0.1483023 -0.0398954 0.22117129 -0.07733031
0000e0 89 58 a5 bc e3 90 8e 3e c5 12 21 3d 64 a2 6e 3d
       -0.020183818 0.27844915 0.03932454 0.058260337
0000f0 5a e4 db bc c4 b2 cf 3d af 11 89 bd c7 b9 b9 3d
       -0.026842285 0.10141519 -0.06692826 0.09068637
000100 e0 eb 2f 3e 79 59 0f be 29 92 d4 bd 93 ad 0a be
       0.17179823 -0.13998975 -0.1037944 -0.13542776
000110 e9 3e 72 bd 99 0b 98 be c0 5e 83 bd 79 a4 ab be
       -0.059142027 -0.29696348 -0.064145565 -0.3352392
000120 3d a2 59 3d 21 e3 05 3d 37 6a 84 bc b2 34 07 3e
       0.053133238 0.03268731 -0.016163928 0.13203695
000130 55 f3 f2 3d e8 80 0a bc 73 18 83 3d 96 e2 a5 bd
       0.11862818 -0.008453585 0.06401148 -0.080998585
000140 83 0a ad 3d b7 60 b7 3c db f2 ef 3d cf 55 a6 3d
       0.084492706 0.022384984 0.11716243 0.081218354
000150 08 29 bb 3d 05 1b 2f bd c3 eb a8 3d ae 7f 75 be
       0.091386855 -0.042750377 0.08248093 -0.23974487
000160 2b 42 57 3e 44 b0 44 3d 97 4e c4 3d 1a a0 93 3e
       0.21021335 0.048019662 0.09585302 0.28833085
000170 9f bc 29 be 65 c8 5a 3e 1e 55 cd 3d 0d 69 58 bd
       -0.1657586 0.21365507 0.100260004 -0.05283456
000180 b1 27 41 bd 02 a2 8e 3e e7 65 f3 3d 7a be 93 be
       -0.047156993 0.27857977 0.11884671 -0.2885626
000190 8a 51 c3 3d 88 6f 3a 3e 38 fe bc 3d 39 83 8d 3d
       0.09537037 0.18206608 0.09228176 0.06909794
0001a0 a7 55 0d bd 3e 20 63 be ad ca 5f be 5d a4 a4 bd
       -0.034505513 -0.22180268 -0.21854658 -0.08039162
0001b0 df 8a 04 be 18 a5 83 3e c0 2c 84 be b6 dc 99 3e
       -0.129436 0.25711894 -0.25815392 0.30051202
0001c0 f3 75 09 be a8 32 d5 3d 1b ce b5 be 68 8f 6d 3d
       -0.134239 0.104100525 -0.35508808 0.05799809
0001d0 e4 b7 1a 3e bd f7 75 bd 9f 9c 0e be 59 8b 93 b9
       0.15109211 -0.060050715 -0.13926934 -0.00028141847
0001e0 a7 d6 29 bd 5f 0e 36 be 35 7b 0b be 66 fb a2 be
       -0.041464474 -0.1777892 -0.13621219 -0.31832427
0001f0 a6 2a 3f 3e c4 0b f1 bd 89 cc 75 3e 36 ee 48 3d
       0.18668613 -0.11769822 0.24003805 0.0490553
000200 37 54 6b bd 32 1f 84 3c 9f 01 af 3d 47 49 5d be
       -0.05745336 0.016128156 0.08545231 -0.21609984
000210 e0 81 ee 3d 1a a7 9a 3e 1d 9e 95 3d c6 fb 4b 3e
       0.116458654 0.30205613 0.07305548 0.19920263
000220 5a 84 65 3e cd 4b 95 be cb 96 42 be 83 7e 13 be
       0.2241377 -0.29159394 -0.19002835 -0.14403729
000230 a0 6b df bd d7 3c 77 3e 42 10 8d 3c 6e 98 59 3e
       -0.109092 0.24144302 0.017219666 0.21249554
000240 e2 9e 6b 3d 02 d8 3a 3d 5d 31 a1 be ef 62 1c 3e
       0.05752457 0.045616157 -0.31482974 0.15272115
000250 be b0 0c 3d b1 9e 46 3e ed 2a a4 bd 2b ba 19 3d
       0.034348242 0.19396473 -0.08016 0.03753106
000260 0b be 01 be 99 0b e3 bd 55 9a 1c be 56 09 87 be
       -0.12670152 -0.110861965 -0.15293248 -0.2637431
000270 1e 3a 85 3e 19 65 68 bb 75 e8 22 3e 99 65 26 3d
       0.26020902 -0.003546065 0.15908988 0.040624235
000280 c9 88 c0 3d 7f 2d 46 3d f2 a2 8d b9 b7 20 18 be
       0.0940109 0.048383232 -0.0002701502 -0.1485623
000290 08 3d 35 3e 48 7a f9 3d c0 11 02 3e 92 3e 63 bd
       0.17699063 0.121815264 0.12702084 -0.055479594
0002a0 3e e6 d2 3b 82 9c 4c 3d 16 6b 19 be ff e4 47 bd
       0.0064361384 0.049953945 -0.14982256 -0.048802372
0002b0 75 fd e8 bd 25 05 6e bd 76 70 b1 bd bc 22 e3 3d
       -0.11376468 -0.058110375 -0.08664028 0.110906094
0002c0 a7 f0 53 be 1b 08 26 be ca a4 33 be d3 c3 bc bb
       -0.2069727 -0.1621403 -0.17543331 -0.0057606488
0002d0 1e 6c 28 bd 9e 02 db bd d9 08 1d be 40 f5 26 3e
       -0.041118734 -0.106938586 -0.15335406 0.16304493
0002e0 4a 08 a6 bd 4f dc 78 be 97 e4 6a be 8d d1 1e 3d
       -0.0810705 -0.24302791 -0.22938763 0.038774062
0002f0 ce fa a2 bd 8c bb 31 be dd 14 fd bd 5a 1b f4 bc
       -0.079579934 -0.173567 -0.12357495 -0.029798198
000300 91 2f 4e 3e 73 d4 91 be 79 b9 29 3e ec b7 40 3c
       0.20135333 -0.28482398 0.16574658 0.0117626
000310 62 cb cf 3d 8a 33 a8 3c 91 9d 72 bd 94 a3 c0 bd
       0.10146214 0.020532388 -0.0592323 -0.094062
000320 06 44 29 3c 5b d8 00 be bd c0 41 3d a4 4a 68 3e
       0.010331159 -0.12582533 0.04730295 0.22684723
000330 03 69 11 bd f7 0e dc 3c 74 a7 cf 3d 65 86 7f be
       -0.035500538 0.026862605 0.10139361 -0.24953611
000340 f4 54 f6 3c 59 19 5f 3e e2 39 15 3e 1f 10 e2 bd
       0.030069806 0.21787013 0.14572862 -0.11038231
000350 eb 70 9a bd b1 4a 44 3d c8 ca 32 3e 33 a4 7c be
       -0.07541069 0.047922794 0.17460167 -0.24672012
000360 59 bf 24 bd 3c 10 30 3e 26 e8 15 bd 5a 13 94 3d
       -0.040221546 0.17193693 -0.036598347 0.072302535
000370 74 a9 43 be e0 ed 6a 3e 4f 1e 28 3e e8 8b f4 bd
       -0.1910761 0.22942305 0.16417812 -0.119407475
000380 65 c5 1a 3e 3c 95 7f bd 42 c1 32 bd 79 0f 24 bd
       0.15114363 -0.06239818 -0.043641336 -0.04005382
000390 18 d7 d6 3c c2 9e 8b be e4 31 3e 3d fc d4 9d be
       0.026225612 -0.2726956 0.0464343 -0.30826557
0003a0 28 10 68 3d f0 d0 c6 3d 69 9b 6b 3e da 42 7a 3e
       0.056656033 0.097078204 0.23008503 0.24439564
0003b0 37 39 3f 3d bf 77 5b 3c 65 71 93 bd 7b f4 37 be
       0.046685424 0.013395249 -0.07199363 -0.17964356
0003c0 b5 5b 48 3e 46 2a 90 3d c9 02 96 3d f8 0c 38 bc
       0.19566233 0.07039313 0.0732475 -0.011233561
0003d0 2c 2a 62 3e 94 0f 72 3c 7f 5d e0 bd ed f0 b8 3c
       0.220864 0.014774222 -0.10955333 0.02257582
0003e0 de 41 90 bd 57 67 51 3e e5 15 4a 3e 9f 60 16 3d
       -0.07043813 0.20449577 0.19734915 0.03671324
0003f0 12 a9 a9 3d 49 f8 2b 3d bd af 46 3e 23 0f 26 be
       0.08284201 0.04198483 0.19402976 -0.16216712

model.2.bias f4 [32]
000000 12 67 fc 3c ec 7b a6 bc fd f0 76 3d e7 49 59 bd
       0.030810867 -0.020322762 0.060288418 -0.053048994
000010 63 fb d1 3b 32 fc b8 bd e6 93 61 bd 3e d3 74 bd
       0.0064081415 -0.090324774 -0.055072688 -0.05977177
000020 f0 5b 42 3e a7 1c fa bd 09 53 75 bc 7a 69 c1 3d
       0.18980384 -0.12212496 -0.01497341 0.09443946
000030 34 ee ef 3d 9e e0 46 3e 37 00 54 bd 8f eb 8e 3d
       0.117153555 0.19421622 -0.051758017 0.06978523
000040 9d f7 3e 3e 79 36 fd 3d 5e cb 9a 3d c2 de 18 bd
       0.18649144 0.123639055 0.075583205 -0.037321813
000050 31 bc 0f bd 3e 59 2d 3e 17 33 e0 3c bf 50 7e 3c
       -0.035091583 0.16928574 0.027368112 0.015522181
000060 cc 9f 35 bc 30 4a 40 3e 35 63 b0 3d f6 84 db 3b
       -0.011085462 0.187783 0.08612672 0.0066992
000070 40 cf 1c bc ed f7 40 bd 52 e4 95 bd da 2a 29 bd
       -0.009570897 -0.04711144 -0.07318939 -0.041300632

model.4.weight f4 [1, 32, 1, 1]
000000 84 78 0c 3e d0 56 73 3e 99 bd 01 3e bd 00 2a be
       0.13717848 0.23763585 0.12669982 -0.16601844
000010 32 5b 00 be 56 b3 46 be 3b ae 0d 3e 71 15 1c 3e
       -0.12534788 -0.19404349 0.13835995 0.15242554
000020 ad f5 1e be 15 60 45 3e a8 82 45 3e c9 32 3b be
       -0.15523405 0.19274934 0.19288123 -0.18281092
000030 b9 2b 58 3e 42 cd 55 be 4b 30 d1 3d be 56 30 3e
       0.21110429 -0.20879081 0.10214289 0.1722059
000040 b1 d4 9a bd 46 81 d5 3d fc e7 4a 3e 69 55 8f be
       -0.07560099 0.104250476 0.19815058 -0.2799485
000050 3c a0 93 be 8a 46 3e 3e b8 ce f6 3d e9 0e 18 be
       -0.28833187 0.18581596 0.12051147 -0.14849438
000060 77 cb 88 3e 43 95 34 be 64 f0 82 3e 2d 52 41 3e
       0.2671773 -0.17635064 0.25574028 0.18879004
000070 9a cb 31 be 85 32 fa 3d d1 92 57 be 23 8d 1b 3e
       -0.17362824 0.12216667 -0.210521 0.15190558
