checkpoints_jonny/squeeze_1_tune/latest_net_rank.pth (torch, 7127 bytes, 5 tensors)

model.0.weight f4 [32, 5, 1, 1]
00000000: 1a92 873e 0ea6 c939 f55f df3e 371d 6d3e
00000010: b8fd 9cbe 3d59 3cbf 6a62 8d3e 20d8 a8be
00000020: bfe0 1bbf 7f59 00be fb5c 9cbe 68ad 323e
00000030: 8eef 5d3e 8b98 c1be 9624 093e b941 ca3d
00000040: 3c25 c5be 37bd f6be 1b60 753e 13fa c4be
00000050: bd5b 743e da34 233e f91d a33e f5f7 c7be
00000060: 006f d33d 3530 7fbe 187d 2e3e b104 b23e
00000070: fa0e 56be 9bef 143f 652e 5d3e de4b 913c
00000080: e48a 2dbe dfb4 a7be 6cdd 163e bf08 dcbe
00000090: dc35 00bf 7973 c93c 08d8 13bf 1d0b 023f
000000a0: 4488 483e d685 41ba 4079 c8be fa8e 003e
000000b0: b194 0e3f 0742 dcbd bea6 cf3e 7899 233e
000000c0: 5b73 1b3d c8c9 10bf 6ca9 1a3e f2f0 233e
000000d0: 4f4c 97be 6f81 023f 58e7 643d 5bbc 95be
000000e0: e33b 08bf 1463 c03e 2693 3e3e a536 bdbe
000000f0: 3d82 f33e c98f e4be cb9c 943e 8172 b23e
00000100: 3d3a 34be a664 b63c 1855 b8be 6497 52be
00000110: 7d1f bebe 3758 20bd b7df 053e f8c8 9bbc
00000120: c9b7 b9be aa68 8d3e 3ef0 0c3d 6fa3 febd
00000130: 79d5 8a3e 4609 b9bd 2e1b 21bf 0b2b 683e
00000140: e9ce d53e c40f 9b3d ee39 86be 9ccf 2d3d
00000150: cd40 e6be ee02 4ebe c32c 9cbe d06a e4be
00000160: 4303 d53c 6804 06bf 9ffb d33e da51 e1bd
00000170: 4870 adbe 6ed2 893e caaf 01bf f23e 91be
00000180: 997e 9cbe 9f02 95be 8741 dfbe cf27 003e
00000190: bafd de3e afed adbe 2472 a8bc 8446 383e
000001a0: e719 adbe 6400 fa3e c031 8b3e 5580 c6be
000001b0: 3873 8e3e 4d85 203e a54a c9be 7a2d 513d
000001c0: eb3b abbe a3bd ae3e c2af a2be 4a96 4e3e
000001d0: bfff c5be f4b9 003f eaa0 8cbe 6007 bb3e
000001e0: 5c4d 3b3e 6a6c 92bd 5cfc c0bd 5b7f 373d
000001f0: 20db eabe 69e3 cabe 892b 683e 8f63 c1be
00000200: 5201 143e 97d2 1ebf f0e1 69be 62d1 d6be
00000210: 175c e93e 816f d93e e11e a6be fd49 acbd
00000220: c465 9cbe 57d8 6abe de44 0d3e 0973 21bf
00000230: a087 0cbf 99d6 563e 04cc f93b 8bd6 21be
00000240: 1118 dd3e e370 b03e 628c b7be ad00 573e
00000250: 54ea 063f 7270 a5be 8669 36bf 5619 913d
00000260: 6c6a c73e 181c 173e f3bd 783e 1f66 033f
00000270: 2276 fd3e d8d4 af3d e9ad 61be 00e5 c1be
0.26478654 0.00038461428 0.43627897 0.23155676 -0.30662322 -0.73573667 0.27614146 -0.3297739
-0.6088981 -0.1253414 -0.30539688 0.17448962 0.21673414 -0.37811694 0.13392863 0.09875817
-0.3850497 -0.48191234 0.23962443 -0.3847204 0.2386312 0.1593813 0.31858805 -0.39056364
0.10323906 -0.24920733 0.17039907 0.34769204 -0.2090415 0.5817811 0.2159973 0.017736372
-0.16947514 -0.3275518 0.14732903 -0.42975423 -0.5008218 0.024591194 -0.5775151 0.5079821
0.19583231 -0.0007382309 -0.39155006 0.12554541 0.55695635 -0.10754781 0.40556902 0.15976512
0.03795181 -0.56557894 0.15103692 0.16009882 -0.29550406 0.5097875 0.05588469 -0.29245266
-0.5321638 0.3757559 0.1861082 -0.36955753 0.475603 -0.4464095 0.29025874 0.34852985
-0.17600341 0.02226479 -0.3600242 -0.20565563 -0.371334 -0.03914663 0.13073622 -0.019016728
-0.3627303 0.27618915 0.0344088 -0.12433516 0.27115992 -0.09034972 -0.629321 0.2267267
0.41759422 0.075713664 -0.26216072 0.04243432 -0.44971314 -0.20118305 -0.305029 -0.4461274
0.026002532 -0.52350473 0.4140291 -0.1100194 -0.33874726 0.26918358 -0.5065886 -0.28368336
-0.30565336 -0.29103562 -0.4360468 0.12515186 0.43552953 -0.339704 -0.020562239 0.1799565
-0.33808824 0.48828423 0.27186394 -0.38769785 0.2782228 0.1567585 -0.39314762 0.05106876
-0.3344415 0.34129056 -0.31774718 0.20174518 -0.3867168 0.5028374 -0.27466518 0.36529064
0.18291229 -0.071495846 -0.09423134 0.04479919 -0.45870304 -0.39626625 0.22672857 -0.3777127
0.14453629 -0.62040085 -0.22840095 -0.4195662 0.4557807 0.42467883 -0.32445434 -0.0841255
-0.3054639 -0.2293409 0.13795802 -0.63066155 -0.5489445 0.209803 0.0076231975 -0.15804498
0.43182424 0.34461126 -0.3584929 0.20996352 0.52701306 -0.3231235 -0.71254766 0.070849106
0.3894838 0.1475681 0.2429121 0.513277 0.4950419 0.085855186 -0.22038998 -0.37870026

model.0.bias f4 [32]
00000000: 8665 6d3e 0a70 933e de77 003f 2feb e8be
00000010: f4bb 713e b1b5 bb3d d775 9d3e ff89 103d
00000020: a1da b03d 0795 4abe 79ec 34bc 9c23 a03d
00000030: 9752 b43e 97ed 5b3e 70b7 d6bb 6c2a 053e
00000040: d3f2 8f3e e12e 983e b8bf 803d c281 623e
00000050: 0413 bc3e 9f75 083e 51e5 d73e 573f cfbe
00000060: ad19 3abe 4dd8 0c3e c66f 893e 1072 0e3e
00000070: c5ed 883e 5ab4 923e a7c2 c83e 37d4 09bf
0.2318326 0.28796417 0.501829 -0.4549193 0.23606855 0.09165514 0.30753967 0.035287853
0.0863545 -0.19783412 -0.011042708 0.07819292 0.3521926 0.21477352 -0.006552629 0.13004464
0.28114948 0.29723266 0.062865674 0.22119811 0.36733258 0.13326119 0.42167142 -0.40478012
-0.18173857 0.13754387 0.2684309 0.13910699 0.26743904 0.28653222 0.39211008 -0.5383944

model.2.weight f4 [32, 32, 1, 1]
00000000: cb58 773d 0a67 0fbe 486a db3d e45e d93d
00000010: 0b87 c8bd 189e 243d 2cd4 25be 4b1b e3bd
00000020: dedd ddbc f6db 0a3b fa52 083e 5b50 553e
00000030: ee54 233d 69dd 083e ab36 dd3d 9060 41be
00000040: ae9a 773e 7b97 413e 632e 9e3d 800f 18be
00000050: e5b6 52bc 43c7 ccbd 806f 483e 6ef2 54bd
00000060: f162 7abc e032 503e 5f09 0c3e d8f6 c03e
00000070: db98 2b3b f426 fc3d b9e9 1fbd af38 703d
00000080: a922 813d 0292 febd eb9f a33d 5df4 f6bc
00000090: bae7 02be 858e 3dbe d6ef 5b3d fb7c a7be
000000a0: d162 5dbe 4232 d13d 3c83 95bd ad99 823d
000000b0: 53ff e5bd 15c9 90bd de8c b03d 615b 80be
000000c0: 4035 543e 94ff 4b3e 1e03 4f3e 68ea 103d
000000d0: 332a 1a3e f286 b4bd d31e 683e cfbc aebd
000000e0: e2b7 39bb 49af de3e 396b 073d 029f 3f3e
000000f0: 4c4b e9bc 5971 a53d b26d 9fbd eb30 d03d
00000100: d7b4 273e 638a f3bd 46fe acbd a147 1abe
00000110: 3406 3ebd f415 a0be fafd 4abd ac34 b1be
00000120: d4b1 ae3c 554a 373d 8ed0 8bbd ebef 313e
00000130: e3fc d93d db3e 6c3c 237b 813c 4cb2 89bd
00000140: 952d dd3d 8645 b03d f527 ec3d 070c c83d
00000150: bcdb c13d 14c1 96bd c55b b63d e8d5 7dbe
00000160: c82d 5d3e 42ad 483e c516 ba3d 1eb9 d13e
00000170: e136 26be 9fcf 4a3e c9ff c33d 2d21 45bd
00000180: f164 8abd fbd7 cd3e 858d fb3d 1d7a 88be
00000190: bf5d d23d 7812 103e bb89 b13d ee65 d73d
000001a0: 94e0 d7bd 473c 3abe 75e4 bdbe 1872 abbd
000001b0: d314 15be 9111 b53e db9c cebe e0e7 a73e
000001c0: 1bb5 11be bdae d93d 0120 c6be 4a0e e53d
000001d0: 167a 143e b271 13be 48fc 18be f050 98bc
000001e0: 6e1f 1d3a 2979 5fbe 76ea 17be 7bc7 afbe
000001f0: ffb7 223e 32fc 17be 67ef 5a3e a541 993d
00000200: faff 17bd e8fb fb3d dc9f de3d 0918 63be
00000210: 8464 0d3e b1b1 913e 1c87 b13d f818 6c3e
00000220: 420c 483e 6fdb 91be cac4 68be eba3 16be
00000230: c7a4 adbd 4ff6 a63e a5c2 9bbc cb6c 723e
00000240: e2b2 973d 9bba 653d 10ab 9fbe 062a 513e
00000250: d1bd 753d 9732 2f3e 72fc 69bd 0b23 86bb
00000260: 5987 efbd f6ae 2dbe 6240 02be 8cc2 9dbe
00000270: a3d4 843e e6fc 753c 0ed0 2d3e 109f f33c
00000280: aeda ee3d b22d fa3d 93ac 37bc 4642 f1bd
00000290: 8079 2b3e 5b6a 9c3d 5789 db3d 6f68 a2bd
000002a0: 747e 25bd 9be7 af3d 114f 2bbe f411 27bd
000002b0: b109 b9bd aa2e c73b e4ff dabd f348 b03d
000002c0: 86f5 4ebe 9914 3abe 92b8 19be e0a3 193b
000002d0: 458e bbbc a3d4 0cbe 02e0 11be e386 db3d
000002e0: a72b 28bd 810e 9bbe 710d 53be 172a e43a
000002f0: 60f3 e9bd 866a 1abe ee22 0dbe 1ddc 6ebc
00000300: 4b4f 423e 8f6a a0be 3db5 3d3e 3a22 7cbc
00000310: 1760 eb3d 428a 3f3d 7fe0 21bd d33e bdbd
00000320: b85a cd3c b3cb 12be c199 f03c ba76 823e
00000330: 8844 34bd cf89 4b3c 49f8 b13d 8531 75be
00000340: f451 263d e8f8 843e 0c3e 0d3e 0f22 e3bd
00000350: 0f35 9dbd 01e0 473d 5168 393e c54e 81be
00000360: b2d1 81bd d2c1 973e 9423 42bd 6f2b 2e3e
00000370: 9feb 2bbe 68bf 5c3e 2ce3 313e d362 04be
00000380: 6808 113e 02aa 95bd 1ab6 f9bc 06f2 5fbd
00000390: 1df3 033d 5ed5 8cbe 2713 673d f5d1 a7be
000003a0: c619 323d 7ded cd3d abc3 473e 776c 903e
000003b0: 4231 103d 3480 433c 25d3 d4bd 2646 39be
000003c0: 939a 583e 75b4 f53d 8485 903d 2dfd 4dbc
000003d0: 2a37 623e 1d74 45bb b642 d7bd ece5 923c
000003e0: fdb1 94bd 3ac4 af3e 6b38 423e 0de1 183e
000003f0: ac07 b63d ee1c e23c 0508 453e 4d45 24be
0.060387414 -0.1400415 0.10713631 0.10613802 -0.097913824 0.040189832 -0.16194218 -0.1108919
-0.027083334 0.0021188236 0.13312903 0.20831434 0.039875917 0.13365711 0.10801443 -0.18884492
0.241801 0.18905441 0.07723691 -0.14849663 -0.012860988 -0.09998944 0.19573784 -0.05198901
-0.0152823785 0.20331907 0.1367545 0.37688327 0.0026183638 0.12312117 -0.039041255 0.058647808
0.06305439 -0.124301925 0.07989486 -0.030145818 -0.12783709 -0.18511398 0.053695522 -0.3271254
-0.21619727 0.10214664 -0.073004216 0.063769676 -0.1123034 -0.07069603 0.08620618 -0.25069717
0.20723438 0.19921714 0.20216033 0.035379797 0.1505516 -0.08814801 0.22668009 -0.08532106
-0.0028338362 0.43493107 0.03306124 0.18713 -0.028478287 0.0807826 -0.077845946 0.1016558
0.16377579 -0.118916295 -0.08446936 -0.15066387 -0.046392635 -0.3126675 -0.049558617 -0.34610498
0.02132503 0.044748623 -0.06826888 0.17376678 0.106439374 0.014419283 0.015805786 -0.067234606
0.1079971 0.086070105 0.11531059 0.09767919 0.09465739 -0.073610455 0.089042224 -0.2478863
0.21599495 0.19597343 0.09086374 0.40961546 -0.16231872 0.19805764 0.095702715 -0.048127342
-0.06757534 0.40203843 0.12282852 -0.26655665 0.10271787 0.14069545 0.08668848 0.105174884
-0.10540882 -0.18187056 -0.3708836 -0.08371371 -0.14558725 0.35364965 -0.40354046 0.32794094
-0.14229243 0.10629032 -0.38696292 0.11184366 0.14499697 -0.1439884 -0.14939988 -0.018593282
0.0005993758 -0.21823563 -0.14835533 -0.3433188 0.15890501 -0.14842299 0.21380387 0.07483224
-0.037109353 0.12303907 0.108703345 -0.22177137 0.13807875 0.2845588 0.08668348 0.230564
0.19535926 -0.28487727 -0.22731319 -0.14710967 -0.084786944 0.32609794 -0.019013712 0.23674314
0.07407166 0.056086164 -0.31185198 0.20426187 0.059995476 0.17109142 -0.057125516 -0.004093533
-0.116957374 -0.16961274 -0.12719873 -0.3081249 0.2594348 0.015013909 0.16973898 0.029738933
0.116628036 0.12215747 -0.0112105785 -0.11780219 0.16745567 0.07637473 0.10719555 -0.079300754
-0.0404038 0.08589097 -0.1672938 -0.040788606 -0.090350516 0.006078561 -0.106933385 0.08607664
-0.20210847 -0.1817192 -0.15011814 0.0023443624 -0.022894988 -0.1375299 -0.14245608 0.10719087
-0.041057255 -0.30284503 -0.20610596 0.0017407563 -0.11423373 -0.15079698 -0.13782856 -0.014578846
0.1897556 -0.31331298 0.18526168 -0.01538902 0.11492937 0.046762712 -0.039520737 -0.092404984
0.025067672 -0.14335518 0.02937019 0.25481206 -0.04401067 0.012422993 0.08689935 -0.23944671
0.0406055 0.2597115 0.137932 -0.110904805 -0.07676136 0.04879761 0.181062 -0.2525541
-0.06338824 0.2964006 -0.04739721 0.17008756 -0.16789101 0.2155739 0.17371815 -0.12928323
0.14163363 -0.07307817 -0.03048234 -0.05467417 0.032214273 -0.27506536 0.05641475 -0.32777372
0.04348161 0.10055063 0.19508235 0.28207752 0.035203226 0.0119324215 -0.10391835 -0.18093166
0.21152715 0.1199731 0.07056716 -0.012572569 0.22091356 -0.0030129023 -0.10510771 0.0179319
-0.07260511 0.34329396 0.18966834 0.149296 0.08888182 0.027601685 0.1924134 -0.16042061

model.2.bias f4 [32]
00000000: 089d 253d 2601 26bc 7c7f 903d 45bb 72bd
00000010: 2ded e43c bcd1 bcbd 7510 2bbd b9e5 56bd
00000020: b2fc 553e 6cad e3bd dccc f2bc d97b ea3d
00000030: 7cc2 023e 0514 573e b7ed 31bd c152 a63d
00000040: 4bd2 403e 7d59 0b3e f8ac c23d 4c51 8cbc
00000050: db32 60bc 93c5 363e be29 1e3d c5d8 563c
00000060: 3cec 51bb 5eec 513e a65b c63d 665f 783c
00000070: 4f12 3b3c dcf1 20bd c5d8 96bd bba7 17bd
0.04043296 -0.01013211 0.07055566 -0.059260625 0.027945125 -0.09219691 -0.04176374 -0.052465174
0.20897177 -0.11117062 -0.0296387 0.11449403 0.12769502 0.2100373 -0.043439593 0.08121253
0.1883022 0.13608356 0.095056474 -0.01712861 -0.013684 0.17848806 0.038614027 0.013113205
-0.0032031676 0.20500323 0.09685449 0.0151594635 0.011417939 -0.039293155 -0.07365564 -0.037025195

model.4.weight f4 [1, 32, 1, 1]
00000000: 97cc 1c3e f1a3 943e 15a1 0f3e e2a7 71be
00000010: 44e3 0abe 91eb 41be bcee 1d3e d7d6 243e
00000020: 1352 36be 1650 5c3e 7b68 4a3e 1c2a 53be
00000030: 2af5 603e 8917 81be 4f1e ec3d 1720 3a3e
00000040: ac67 cdbd d347 473e 59ea 363e 15da a0be
00000050: 0855 9fbe 5e25 413e f2c1 ff3d e45f 61be
00000060: 9b74 9f3e 00f6 57be a51d 8c3e 8ebe 553e
00000070: 75d8 48be d3a1 123e 4066 85be c187 2e3e
0.1531242 0.29031327 0.14026292 -0.23599198 -0.13563257 -0.18937518 0.15423101 0.1609758
-0.17804746 0.21514925 0.19766419 -0.20621532 0.21968523 -0.25213268 0.115292184 0.18176304
-0.100295395 0.19460993 0.17862834 -0.31416383 -0.3111956 0.1886191 0.12488164 -0.22009236
0.3114365 -0.21089935 0.27366367 0.20873472 -0.19613822 0.14319544 -0.26054573 0.17043974
