checkpoints_jonny/squeeze_1_scratch/3_net_rank.pth (torch, 7127 bytes, 5 tensors)

model.0.weight f4 [32, 5, 1, 1]
000000 c7 38 c4 3e 2b 75 13 3c ac 5c 89 3e 89 70 e8 3c
       0.38324568 0.009000103 0.26828516 0.028373973
000010 85 ab e9 be d7 5c 01 3e 1c 43 6b 3e 55 33 ef bd
       -0.45638672 0.12633072 0.22974819 -0.11679713
000020 0c 42 c3 bd b2 32 9a be d5 29 c7 bd ab 56 30 be
       -0.09534082 -0.30116802 -0.09724776 -0.17220561
000030 31 67 0c 3e a9 8d 07 bf e6 d6 fd 3e c5 1a d5 be
       0.1371124 -0.5295053 0.49578017 -0.41621986
000040 0d 39 76 be 55 b7 e0 3e 12 6f 5d bd 5d 58 a2 3d
       -0.240452 0.4388987 -0.054061003 0.0792701
000050 ae 20 6f 3e e8 20 c5 3e f4 d4 32 3e 61 20 8c be
       0.2335231 0.38501668 0.17464048 -0.27368453
000060 7c 47 af 3e cf d2 23 3e 5b 7b 9a be 90 46 23 bd
       0.34234226 0.15998386 -0.30172238 -0.039862216
000070 ca ea cc 3e f8 27 3c be 64 ef 79 be e7 d1 a0 be
       0.4002288 -0.18374622 -0.24407727 -0.31410143
000080 97 dc b4 3e c5 4a fd be a7 42 8c 3d 47 36 09 bc
       0.35324547 -0.49471107 0.068486504 -0.008374757
000090 b5 62 6c be 00 5b 06 3f 35 43 86 bd 72 95 18 bf
       -0.23084529 0.52482605 -0.065557875 -0.59603035
0000a0 a6 7a 6f 3e 2a 3e a7 3e bf 37 8e 3e bf ac 29 be
       0.2338663 0.32664615 0.27776906 -0.16569804
0000b0 cb bf b2 3e c1 81 f1 3d e2 2a 3a bd 97 39 8f be
       0.3491195 0.11792327 -0.045451052 -0.27973625
0000c0 ba b1 12 3e 2e a0 d0 3e e4 a4 fe bd 5c 36 5f bd
       0.1432561 0.40747207 -0.12433794 -0.0544952
0000d0 be eb aa 3e 98 81 96 bd 2a 02 a6 3e 44 6f f4 3d
       0.33382982 -0.07348937 0.32423526 0.11935285
0000e0 5e 82 a5 be 36 39 60 3e bb 3a f4 3e da 9b 2f be
       -0.32326025 0.21896824 0.47701058 -0.17149296
0000f0 88 a8 59 be a5 96 87 bd 4b ca 90 3e 81 4d ef be
       -0.21255696 -0.0662053 0.28279337 -0.46738818
000100 f9 71 37 be f3 9f ee bd a8 3e 97 3e d5 99 e2 3d
       -0.17914571 -0.11651602 0.2953999 0.110644974
000110 1a b7 70 3e a4 69 23 3e 7d 2d 88 be 98 a9 9a be
       0.23507348 0.15958267 -0.26597205 -0.30207515
000120 34 7a 0e 3e 99 03 40 3c c1 33 95 be 12 bf 84 bb
       0.13913804 0.011719608 -0.29141048 -0.0040510977
000130 ca 9e 1a bd cf 87 81 3e 35 db ee be 04 14 63 3e
       -0.03774909 0.25298926 -0.46651617 0.22175604
000140 c6 eb 0a bf 15 e6 a9 3d 17 be 84 3c 36 cf 10 bf
       -0.5426601 0.08295838 0.016203923 -0.5656618
000150 12 46 b9 3e 5b 47 b5 be bb 07 bb bd c6 36 b4 3e
       0.36186272 -0.35406002 -0.09132334 0.3519804
000160 46 1c 3d 3e 09 37 df bc f5 6e e9 be 6e 4f e9 3e
       0.18467817 -0.027247922 -0.45592466 0.45568413
000170 0d 29 bc 3c ac ca 96 be 57 73 ae 3e 2c d6 8f be
       0.022968793 -0.294515 0.34072372 -0.28093088
000180 65 47 50 bc 28 e6 72 3b 03 35 c0 bd 3f 35 d4 3e
       -0.012712334 0.0037063453 -0.09385111 0.41446874
000190 13 34 e0 3e 9d 6f 91 be a4 19 b0 3e d2 89 88 3e
       0.4378973 -0.28405467 0.34394562 0.2666765
0001a0 ab 98 15 be 3f 83 03 3d e0 e5 61 be 72 b9 98 3e
       -0.1460902 0.032107588 -0.22060347 0.29828984
0001b0 fa bb ff 3e bc ac c4 be 00 36 8a 3d 15 1d 2e be
       0.49948102 -0.38413036 0.06748581 -0.17003281
0001c0 66 ef 4b 3e 32 01 c4 3e ab 7f b1 be 09 8b f9 3c
       0.19915542 0.38282162 -0.34667715 0.030461805
0001d0 3f 7f d1 be 8c 33 40 bd 44 e0 6c be 80 31 08 3e
       -0.40917394 -0.04692416 -0.23132426 0.13300133
0001e0 8e eb 87 3e cf a6 8b be 64 a8 ab 3e 79 97 9b bd
       0.265469 -0.27275702 0.3352691 -0.075972505
0001f0 cf da d0 be b5 de c0 be c5 c3 d1 be 11 ef 9e be
       -0.40791938 -0.37669912 -0.40969673 -0.31041768
000200 cc 3a a3 be 33 35 86 3d a1 84 c1 3d c1 ba d9 be
       -0.31880796 0.06553116 0.09449125 -0.42525294
000210 16 7f d7 3e 36 16 83 3e bc 8c c2 be e2 c6 92 3e
       0.42089146 0.25602883 -0.37997997 0.2866736
000220 bd a0 f2 be 1c 22 94 be b4 7d 10 3f 61 74 2b be
       -0.4738826 -0.28932273 0.5644181 -0.16743614
000230 9d 4d e8 bc e8 cc 76 bb 8d 9c 23 3e 19 2e cf be
       -0.028357321 -0.0037658755 0.15977688 -0.40464857
000240 b3 b4 c0 be 93 ba 10 3f e3 86 2e 3e bb 10 61 3e
       -0.37637863 0.5653469 0.17043643 0.21979038
000250 fa e8 0a 3f 29 14 12 be bf 3b 2a 3e b6 66 64 3e
       0.54261744 -0.14265503 0.16624354 0.22304806
000260 b1 3b a8 3e 4d fa f3 bd 07 a3 10 bf d4 01 42 3e
       0.3285804 -0.119129755 -0.5649876 0.1894601
000270 e3 05 9d 3e fd e5 bb bc 36 1a ab be d1 1c e6 3e
       0.30668554 -0.022936815 -0.33418435 0.4494386

model.0.bias f4 [32]
000000 61 c1 7f be 36 98 a2 3e c5 7c a5 3d 42 c9 6c be
       -0.24976112 0.31756753 0.080804385 -0.23123649
000010 3f ae 06 3e be e3 15 be 84 1f ba bc 87 56 d9 3e
       0.13152407 -0.14637658 -0.022720106 0.42448828
000020 0a f0 91 3e 2e 24 5a 3e e2 13 f8 3e ff a6 73 3d
       0.28503448 0.21302864 0.4845267 0.05948543
000030 13 80 62 3e 83 f2 b8 3e b2 2a ad be 19 f1 44 be
       0.22119169 0.36122522 -0.33821636 -0.19232596
000040 0d 64 d6 3e 67 25 09 3e 24 56 7a be c3 77 f3 3d
       0.41873208 0.13393174 -0.24446923 0.11888077
000050 fc 73 01 3e 7d 60 08 3b 37 39 dc 39 f8 26 b3 be
       0.12641901 0.0020809465 0.00042004298 -0.34990668
000060 78 8f 19 3e f6 07 89 3e ea 5f 75 3e b1 71 19 3e
       0.14996135 0.26763886 0.2396237 0.14984776
000070 f0 b0 ea be 66 95 79 3e 01 c2 83 3e 13 80 cf be
       -0.45838118 0.24373397 0.2573395 -0.405274

model.2.weight f4 [32, 32, 1, 1]
000000 a0 0d a5 bd 5d f8 ed 3d 8b f2 52 3b 3f 44 88 bd
       -0.080592394 0.11619637 0.0032188024 -0.06653642
000010 cc cb 53 be 53 24 0d 3e 7a ad 81 be 2c 85 6f 3c
       -0.20683211 0.13783388 -0.25327665 0.014619153
000020 e9 ac 52 bd c6 5a 5d 3d 94 10 1e 3d bb e3 79 bd
       -0.05143443 0.054041646 0.03859003 -0.061008196
000030 dd 5f 01 bd ac 48 ca 3d 4d dc 0c 3e 76 32 32 bc
       -0.031585563 0.09877142 0.13755913 -0.010876289
000040 62 c5 90 3c 33 b4 44 3e d7 e4 de 3d bf c6 4f be
       0.017672244 0.19209366 0.108834915 -0.2029066
000050 13 17 41 3e 30 0f 09 3e 37 9f 2e bc cd 82 89 bd
       0.18856458 0.133847 -0.010658077 -0.067144014
000060 ad d7 90 3e 75 13 a4 bd 52 c1 0d 3e 17 06 21 3e
       0.28289548 -0.08011524 0.13843277 0.1572498
000070 b0 9a 07 bd d8 0d 03 3e 05 1f f7 3d 9b 2a 47 3d
       -0.033106506 0.1279825 0.120664634 0.048624616
000080 48 ae 48 be fe ac 47 bc d2 20 69 ba 40 be 38 3e
       -0.19597733 -0.012187241 -0.0008893135 0.18041325
000090 b0 f8 50 3d d0 1b 04 be 2f 89 e3 bc 36 ea 9f bd
       0.051018417 -0.12901235 -0.027775375 -0.07808344
0000a0 a2 76 a1 bc 1a 3f 9d bd e9 07 d4 bd d8 a7 41 be
       -0.019709889 -0.07678051 -0.10353071 -0.18911684
0000b0 cd 61 3d 3e a0 1d 20 3e 71 06 2f be 0d aa 58 3e
       0.1849434 0.15636301 -0.17092301 0.21158619
0000c0 d2 e1 89 bd b7 02 31 bd dc 11 b3 bd cc ea 24 3c
       -0.06732525 -0.04321548 -0.08743641 0.010065746
0000d0 54 de cc 3d 5f 11 c0 3d a7 cd c9 bd f5 08 84 3b
       0.10003343 0.09378313 -0.09853678 0.004029388
0000e0 10 5d ac bd 72 cc bc bd e1 ae 6b be de c6 3f be
       -0.08416188 -0.09218682 -0.2301593 -0.18728206
0000f0 6c ad 3f bd f3 b3 e0 3c 53 52 3d be f6 4a 8e bd
       -0.046796247 0.027429556 -0.18488435 -0.069478914
000100 a7 27 39 be c7 41 6c 3e 4e e5 76 be 89 f4 63 be
       -0.18081532 0.23071967 -0.2411091 -0.22261252
000110 ff eb 7d be 68 89 aa bd 0f 57 7c 3d 5f 6f 67 3e
       -0.24797057 -0.083269894 0.061606463 0.22601078
000120 39 fb 37 bd 10 e5 76 3d d3 e1 e7 bd a2 c8 38 3e
       -0.04491732 0.060277045 -0.113223694 0.18045285
000130 4d 84 40 be 6f 9b 88 3d 7c fa a0 bc 1f a3 b5 3c
       -0.18800469 0.066702716 -0.01965069 0.022172509
000140 1c c7 4d be a9 24 f8 3d 3b db 12 be 93 b6 70 bd
       -0.20095485 0.12116367 -0.14341442 -0.058767866
000150 d9 27 45 3e 37 99 15 bd d1 a3 7f 3e a7 e7 79 bc
       0.19253482 -0.03652307 0.24964835 -0.015252984
000160 58 d2 26 bc 3f a3 13 be 5c ec bb bc 71 34 4b 3d
       -0.010181986 -0.14417742 -0.022939853 0.04961056
000170 a7 f4 95 bc f1 6f 7c 3e a4 3e 81 3e c5 7b 76 be
       -0.018305136 0.24652077 0.25243104 -0.24070652
000180 a5 d6 43 be 92 fe ba bd 95 71 1c 3e 75 6c de bb
       -0.19124849 -0.09130587 0.15277703 -0.0067878314
000190 e1 9e 28 3e 31 b2 87 3d e1 52 85 3e 63 d4 c0 bd
       0.16466857 0.06625784 0.26039794 -0.094155096
0001a0 c2 36 0f 3e d2 01 32 3e 94 ca 51 3d 21 e0 38 3d
       0.13985732 0.17383507 0.051218584 0.04513562
0001b0 d1 9f 2a 3c af db 74 bd d9 90 e8 3b ce 75 f2 3c
       0.01041408 -0.05977982 0.0070973453 0.02959719
0001c0 84 5a 89 3e b9 d5 e4 3d 37 3a 3a 3e 89 65 bc bd
       0.2682687 0.11173577 0.1818627 -0.09199054
0001d0 f2 c0 14 be 1b 8e 1d be c8 10 5d be 70 b3 2d 3e
       -0.14526728 -0.1538624 -0.21588433 0.16962981
0001e0 66 8f df bd 59 15 40 3e c6 76 5f be 0e e5 6d be
       -0.10916023 0.18758143 -0.21822652 -0.23231909
0001f0 22 b7 75 bd c2 af 19 3d 40 23 21 3d 1c 43 e2 bc
       -0.059989102 0.03752113 0.039340258 -0.02761989
000200 91 62 22 3d 60 2c 0f 3e 77 96 5e be 3c ff 38 be
       0.03964478 0.13981771 -0.21737085 -0.18066114
000210 a1 f4 e8 bd a4 31 39 3e bc f2 ba bc 90 50 48 3e
       -0.11374784 0.18085343 -0.022820823 0.19561982
000220 b8 83 0c be e1 79 8f bd ca 47 30 bd 31 b2 ec 3d
       -0.13722122 -0.070056684 -0.043037213 0.11557425
000230 22 43 3f 3c 27 db be 3d aa 56 06 3c 86 10 5c be
       0.011673721 0.09319144 0.008199373 -0.21490678
000240 93 12 cc bd dc 70 43 3d 0c ce 81 be ae a6 95 bd
       -0.0996448 0.047715053 -0.25352514 -0.07307182
000250 e8 1d 57 3d f1 8e 60 3e 01 50 ef bc 44 6c 7e be
       0.052518755 0.21929528 -0.029212954 -0.24845988
000260 a7 1f 83 3e 9d c0 07 be f3 8d 8b 3e 29 77 35 3e
       0.25610086 -0.1325707 0.27256736 0.17721237
000270 60 f6 eb bd ea fb a1 3c 10 1b 2c 3e e4 b0 94 bd
       -0.11521602 0.019773442 0.16807199 -0.07260302
000280 85 6d be bd 1a b8 40 bd c3 23 68 be fc 9f fa bd
       -0.09298233 -0.047050573 -0.22669892 -0.12237546
000290 6f e0 45 be 47 3b 60 3e 08 e2 7c be ce 8e 82 3e
       -0.19323896 0.21897613 -0.24695599 0.25499576
0002a0 7f ce 08 be c6 bf af bc c3 b1 f4 bd 12 60 89 3e
       -0.13360022 -0.02145375 -0.11947968 0.26831108
0002b0 75 ce c8 bc 4a b9 35 3e 25 55 4e 3d c4 f7 0c 3d
       -0.024512509 0.17746463 0.05037417 0.034415975
0002c0 30 78 48 bd 6b eb 57 3e fb ba 17 be 43 79 ac 3d
       -0.048942745 0.21085899 -0.14817421 0.08421566
0002d0 45 06 84 3e 95 4f 37 3e eb 66 6c 3c bd cb 9b 3d
       0.25786033 0.17901452 0.014428834 0.07607219
0002e0 b1 66 04 3e 04 77 33 be 5b 74 4d 3e be c5 04 bd
       0.12929799 -0.1752587 0.20063917 -0.032415144
0002f0 d6 93 47 be 17 57 71 3d 61 b1 8e 3e 6c c9 2e bd
       -0.19489989 0.058920946 0.27869704 -0.04267256
000300 fd fc 5d be 94 c7 30 3e db 1d 49 3e cf 14 a3 bc
       -0.21678539 0.17263633 0.19640295 -0.019907383
000310 f6 7b 1c 3e b0 26 7e be 8c 0d cc 3d f5 80 8b bd
       0.15281662 -0.24819446 0.09963521 -0.06811706
000320 0b 6f 54 3e 13 02 b5 bd ea df 02 3e a4 dd 19 bd
       0.20745485 -0.08838286 0.12780729 -0.03756489
000330 6f 5a 0e bd ad a2 61 3d c1 fb e7 bd 5a 9f dc bd
       -0.034754213 0.05508678 -0.11327315 -0.107725814
000340 23 69 1e 3e ff 9b 26 bd 89 08 53 3e 45 91 4d 3e
       0.15469794 -0.040676113 0.20608725 0.20074947
000350 15 d3 69 be ff b3 9a bd 20 45 61 3d 11 d8 c3 3d
       -0.22834428 -0.07553863 0.054997563 0.09562696
000360 64 a7 b5 bd f5 21 32 3b 5c af 17 be 56 c6 8c 3d
       -0.08869818 0.0027180884 -0.14812988 0.06873767
000370 68 b7 08 be 28 4b a0 bc 9f 4c 18 bd cd 16 11 3e
       -0.13351214 -0.019567087 -0.037182447 0.14168854
000380 6f 4c df 3d c1 d2 d4 bc 97 3a 82 be 34 f2 df bd
       0.109032504 -0.025979402 -0.25435326 -0.109348685
000390 fb cf 28 be 48 0a 83 3c 66 4f ca bd cc c2 45 bd
       -0.16485588 0.015996113 -0.09878425 -0.048281476
0003a0 8d cc 8f bd 8c cd 92 3b f7 23 13 3e 09 c2 37 3e
       -0.07021437 0.0044800695 0.14369188 0.17945112
0003b0 3b eb 42 bc f1 29 09 3d 4b df 25 be aa c0 37 bd
       -0.011896904 0.033487264 -0.16198461 -0.044861473
0003c0 42 9a c6 bd bd 74 f2 3d 5f 91 85 3d db b4 e5 3a
       -0.09697391 0.11838672 0.06521868 0.0017525213
0003d0 97 4b cc 3d d5 2d 59 3d 10 00 4e 3e ec 24 46 be
       0.09975355 0.053022224 0.20117211 -0.19350022
0003e0 7b 72 9f 3b a4 f6 0f 3b 7d 43 84 3e 3c cf f4 3d
       0.004865942 0.0021967078 0.2583274 0.11953589
0003f0 e8 0c 44 bc 3a 46 f4 3d 61 2c 29 3e ec a8 6d be
       -0.011965968 0.11927457 0.16520835 -0.2320897

model.2.bias f4 [32]
000000 08 3f c0 3c 7a 90 20 be 66 50 60 3e 6d 3a 47 3e
       0.023467556 -0.15680113 0.2190567 0.19455881
000010 1f d4 52 bd 10 d7 3f 3e 23 b3 13 bd 85 2e 14 bb
       -0.051471826 0.18734384 -0.03605951 -0.0022610736
000020 72 59 1a 3d 5f bb d8 3d 07 c0 2a bb 3f 5d ff bc
       0.037682958 0.10582613 -0.0026054399 -0.031172393
000030 50 e1 3b 3d 58 6e ca bd d6 78 5a bc 14 66 ea bc
       0.04586917 -0.09884328 -0.013334474 -0.028613128
000040 5e f0 ae bc 04 6c 06 3e c9 8a 85 3c 2b 23 13 be
       -0.02135485 0.13127142 0.01630153 -0.14368884
000050 9d 23 f1 3d c4 a8 32 3e 6b 14 56 3d fc 19 00 bd
       0.11774371 0.17447191 0.052265566 -0.03127478
000060 a0 0b 3e bc 45 3f ce 3c c5 d8 1f be 74 95 37 3e
       -0.011599451 0.025176654 -0.15610035 0.17928106
000070 44 07 bd 3d 86 c3 e9 bd 0c 4e 32 3e 85 df b5 bd
       0.092299014 -0.11414246 0.17412585 -0.088805236

model.4.weight f4 [1, 32, 1, 1]
000000 15 8e c5 3d a3 48 c9 bd 72 19 d5 3d f9 62 6e be
       0.096462406 -0.098283075 0.10405244 -0.23279943
000010 af 2b 16 3e 38 00 0b 3e a5 3d 66 be 16 6c 30 3e
       0.14665101 0.13574302 -0.22484453 0.17228732
000020 ba 10 6b be ae 77 21 3e e6 20 da bd 26 a6 38 3e
       -0.229556 0.1576831 -0.10650806 0.1803213
000030 bc 61 7a be 90 d3 c9 bd 01 11 3e 3e 85 ce 0c be
       -0.24451345 -0.098548055 0.18561174 -0.13750656
000040 10 c6 0a be 24 a0 86 be 72 15 76 3e b8 54 a1 bd
       -0.13552117 -0.26294053 0.24031618 -0.07877487
000050 1f 04 fd 3d ff 04 93 bd e1 a0 83 3e 5a 34 cf bd
       0.12354302 -0.07178687 0.25708678 -0.10117407
000060 7c e1 67 3e 4b 25 10 be 19 5d 94 3c c2 68 1f 3e
       0.22644609 -0.14076726 0.018110799 0.15567306
000070 f1 d0 8d be 4c 65 c1 bd 72 95 dd 3d 65 6d 5f be
       -0.27698472 -0.09443149 0.1081952 -0.21819074
