checkpoints_jonny/squeeze_1_scratch/4_net_rank.pth (torch, 7127 bytes, 5 tensors)

model.0.weight f4 [32, 5, 1, 1]
00000000: 1ffc c33e 8341 c33c 8e28 793e 24f7 b33c
00000010: 5964 e9be b00c d53d be7d 513e 4b6a 04be
00000020: 1f90 c2bd 6cf3 a0be 9748 f3bd c204 47be
00000030: e091 1d3e 204e 0cbf dcfc fa3e 1c69 cabe
00000040: bf2c 65be 529f ea3e d40e 4dbd df4c b33d
00000050: 3987 6f3e f334 bf3e 6b76 4c3e 1e43 8abe
00000060: 6958 af3e 15de 113e 7738 9fbe 72da 81bd
00000070: fe9b c83e c493 48be 9145 79be 2aa0 a6be
00000080: 579c c03e d69d febe 3dec 8b3d b537 03bd
00000090: fe8e 82be 3fef 013f 173d 8ebd a5cb 1cbf
000000a0: 6707 6d3e 68d0 a03e 29ea 983e 65e0 2dbe
000000b0: a49d b23e c3b0 e03d 4664 76bd a9e3 86be
000000c0: abe0 0f3e 070a d13e 6e08 08be 23a1 91bd
000000d0: 8252 b53e 869f a0bd 7862 a53e dcde df3d
000000e0: 75da a5be 9d34 4a3e f29c f43e 11eb 2dbe
000000f0: b9d8 61be 43f2 87bd df86 8b3e ad9b f4be
00000100: c895 24be 409a 19be ab1c 863e 6f24 d63d
00000110: 19a3 6b3e bd32 1f3e 4f0d 6ebe f03a 88be
00000120: 057d 103e d7f6 873c be07 91be 9781 983b
00000130: 09d1 2fbd f93f 8a3e aadd eebe 7fc8 663e
00000140: f38a 0ebf e71f 843d 5d0d 073d 42f6 12bf
00000150: d2c4 b73e 2b1d bfbe fd4d d8bd f7f1 aa3e
00000160: b8ed 3b3e 2806 04bd 4dd6 f0be 590b df3e
00000170: dceb 313d e2da 9bbe bf01 ac3e b28e 94be
00000180: 64ce e7bc 7e37 a93c 30e9 d1bd 112b d33e
00000190: 7534 dc3e 7f9a 90be 8e43 a53e 74bf 883e
000001a0: 1c6c 16be 9d92 783c 78d9 6cbe 900e 8e3e
000001b0: 13f0 fc3e 6b52 cabe d88a 403d 67e0 3dbe
000001c0: cb31 363e fdf6 bf3e 7bde b9be 5e69 463d
000001d0: 823c cdbe 9ad2 c4bc ba71 6abe 03bc 0a3e
000001e0: f842 7f3e 84f1 93be 235e a53e 2dbc 92bd
000001f0: ddcf d7be 6896 c9be 2fba dabe 5280 98be
00000200: d0b1 a8be 5435 873d 055e 9b3d 7fb7 e0be
00000210: 5cbf cd3e b4ab 803e 7b0d c8be c504 913e
00000220: acf9 eebe a161 9fbe 1d32 113f fb2f 2abe
00000230: 98ca dfba 9072 c63c 2ad1 2e3e bb2f ccbe
00000240: 48f1 bcbe d7a6 103f 40e7 383e 338b 4c3e
00000250: df4a 0c3f 93d8 12be dca1 183e 4fa5 523e
00000260: 5a73 a13e 9e75 efbd 540c 14bf 8335 403e
00000270: bf50 973e 4df3 8a39 97e3 adbe 4774 e23e
0.3827829 0.02383495 0.24331877 0.021968432 -0.45584372 0.104028106 0.20458123 -0.12931173
-0.09500145 -0.31435716 -0.1187908 -0.19435409 0.15387678 -0.5480671 0.4902104 -0.39533317
-0.2238035 0.45824677 -0.05006297 0.087548964 0.23391427 0.37345085 0.19967048 -0.2700433
0.3424714 0.14244874 -0.31097767 -0.06340493 0.39181513 -0.19587618 -0.24342944 -0.3254407
0.37619278 -0.49729794 0.06832168 -0.03203555 -0.2549972 0.50755686 -0.06945246 -0.61248237
0.23147355 0.31409 0.2986615 -0.16980131 0.34885895 0.109712146 -0.060154222 -0.26345566
0.14050548 0.40827963 -0.13284466 -0.071108125 0.3541451 -0.07842927 0.32301688 0.10931179
-0.32393232 0.19746633 0.4777599 -0.16984202 -0.2205533 -0.06638005 0.27251336 -0.4777502
-0.16072762 -0.15000248 0.26193747 0.10456168 0.23011436 0.15546699 -0.23247264 -0.26607466
0.14110191 0.016597195 -0.2832622 0.00465412 -0.04292396 0.27001932 -0.4665349 0.2253742
-0.5568077 0.064513974 0.03297173 -0.5740701 0.3589235 -0.3732694 -0.1056175 0.3338773
0.18352401 -0.032232434 -0.470385 0.43563345 0.043437824 -0.30440432 0.33595082 -0.29015118
-0.028296657 0.020656344 -0.10249555 0.41243795 0.43008772 -0.2824287 0.32278103 0.26708567
-0.14689678 0.015171674 -0.23129833 0.27745485 0.49401912 -0.39516005 0.04700741 -0.18542634
0.17792432 0.37493125 -0.36302552 0.04844033 -0.40085226 -0.024026204 -0.22894946 0.13548283
0.2492789 -0.288952 0.32298383 -0.07164798 -0.42150775 -0.39372563 -0.42720172 -0.297854
-0.3294816 0.066019684 0.07586292 -0.43889996 0.40185058 0.25131 -0.39072785 0.2832395
-0.4667486 -0.31129172 0.5671709 -0.16619866 -0.0017073927 0.02422455 0.17071977 -0.39880165
-0.36902833 0.5650458 0.18056965 0.19974975 0.54801744 -0.14340429 0.14905494 0.20570873
0.3153332 -0.116923556 -0.5783131 0.18770413 0.29553792 0.00026502684 -0.339627 0.44229338

model.0.bias f4 [32]
00000000: 887e 82be 3552 a73e 48c0 a33d 6c5c 73be
00000010: e523 0b3e 4fec 1bbe 43a4 b6bc c008 da3e
00000020: 95a7 923e b228 5f3e 8bd0 f93e 1086 883d
00000030: 3b79 693e 4439 c23e c069 b5be ed35 42be
00000040: f6ca d63e f9e6 113e c834 78be e1ed f33d
00000050: 45a8 043e 9f2b 1c3c a8aa b63b 6429 b6be
00000060: 81f4 203e db4e 8a3e b715 763e b342 1c3e
00000070: c205 f0be 91b8 7b3e 4393 863e 3d76 d2be
-0.2548716 0.32679906 0.07995659 -0.23765725 0.13587911 -0.15226863 -0.022295123 0.425848
0.2864348 0.21792868 0.48791918 0.066661954 0.22800152 0.37934315 -0.35432243 -0.18965884
0.41951722 0.14248265 -0.24238884 0.11910606 0.12954815 0.009531884 0.005574543 -0.35578454
0.15718271 0.27013287 0.24031721 0.15259819 -0.46879393 0.24582125 0.26284227 -0.41105834

model.2.weight f4 [32, 32, 1, 1]
00000000: 947d b6bd 0b19 003e b0c7 cd39 26ea 90bd
00000010: 8321 53be 1d77 073e 3a17 82be ab06 f13c
00000020: 36bf 4ebd df65 693d 3fd1 2d3d d4d2 7bbd
00000030: 2334 fdbc 6d60 d13d 2bd8 093e 8995 69bc
00000040: 02b9 a23c 0084 493e 89bd e13d e4e5 4cbe
00000050: d036 3f3e 6b11 083e f1db 31bc 208a 91bd
00000060: 602c 9c3e a962 a4bd 90fc 123e 355f 233e
00000070: 05b7 14bd ca07 033e 6651 0e3e 0d49 433d
00000080: 6e14 44be 6072 8dbc 3a31 883b b694 3c3e
00000090: 9445 4d3d 11ec febd ffde bbbc 1174 b6bd
000000a0: 9764 9dbc 3491 a1bd 1573 d2bd 28d3 40be
000000b0: 5101 453e dda7 1e3e c262 2dbe c40e 563e
000000c0: 2f71 80bd b6a0 33bd 153b c8bd 540e 203c
000000d0: 8dd2 d13d 95cf c23d 6a8d c8bd a67c 9c3b
000000e0: 02f9 c5bd f473 9fbd 811a 6fbe d8ec 41be
000000f0: 1356 39bd 35e2 dc3c d5d5 4abe 4afb a9bd
00000100: 54fb 41be f0d4 753e 32ba 79be 8744 68be
00000110: d06d 7dbe 7ffd b5bd 7b39 7a3d f7f4 763e
00000120: b861 34bd 952f 813d 3ad3 dfbd e24a 383e
00000130: 8ec4 3ebe ad9f 8f3d 03a3 b8bc 696f 9a3c
00000140: b72d 4bbe f005 013e a5a6 11be 3679 65bd
00000150: 5643 433e a283 19bd 5a76 7f3e 252f 9dbc
00000160: bbec 4c3c 66fd 12be 1c67 91bc 3743 543d
00000170: 308e afbc 2a48 7c3e 53c9 8a3e 4fab 77be
00000180: e0d1 45be 9a0d b6bd bbb2 253e 9972 9fbb
00000190: 5603 283e a14e 953d 7a26 893e 279e c1bd
000001a0: 3202 113e 2eb6 323e a767 673d c0ab 4d3d
000001b0: 04cc b33c 4d73 6cbd 122c d03b 855e d53c
000001c0: e473 8d3e 9d3d f53d 25ab 2f3e 336c b6bd
000001d0: 4238 10be 1037 15be 8444 56be 1992 2b3e
000001e0: 7656 e9bd 2b9b 533e da9f 5bbe 5e49 6cbe
000001f0: 4a6d 7dbd e82d 183d 70e7 0b3d a55e 36bd
00000200: c066 0d3d 7fe1 1a3e 0908 65be f23d 39be
00000210: db53 fbbd dbbf 333e bdb0 93bc 23fb 5b3e
00000220: b2f7 11be a73e 96bd b0f8 2cbd b3a2 e83d
00000230: 5779 ca3c 1087 bd3d 53f0 2d3c 57d4 5cbe
00000240: 2f4e c7bd 6b9a 543d 7246 81be f523 9ebd
00000250: f193 483d 46e2 5f3e 54ce ecbc 656d 7fbe
00000260: 5c6a 923e 17fd 00be 3cac 8e3e 342c 353e
00000270: 2510 e9bd 4eb4 813c 3180 443e 8633 9abd
00000280: 4b4d cebd 30ea 19bd 9fad 6bbe a6ab 00be
00000290: 4d12 47be 96b4 5a3e f565 7cbe 0b83 8a3e
000002a0: 7c04 09be ff5d a1bc 47bb edbd 4c27 893e
000002b0: 3695 b2bc 6e83 383e 65a2 463d c5c9 003d
000002c0: 8a49 3fbd d51f 5d3e 2d44 17be 5de9 af3d
000002d0: 4813 833e 7484 363e 8018 6d3c beda 943d
000002e0: 5bf5 1c3e cee6 31be 49fa 523e 3b31 f9bc
000002f0: f0ff 49be 874f 6e3d cd86 983e c4f5 38bd
00000300: b735 60be e6d9 333e d631 523e 0fc5 98bc
00000310: a024 1c3e 7639 76be a345 d93d 7134 8bbd
00000320: dba9 563e f4ab b2bd 3db6 083e 44c0 ffbc
00000330: 425d c1bc 3180 6c3d 567c eabd bba9 e5bd
00000340: 8495 263e 57ac 02bd 9311 483e dea8 503e
00000350: d40b 64be 4bd9 86bd ef56 813d 7610 be3d
00000360: 0c87 bebd a8c0 b13c bcca 12be 8921 923d
00000370: c63a 0bbe a702 9bbc 5155 2bbd f8df fe3d
00000380: 2d17 ce3d 22a1 7fbc 4a80 83be c34f e7bd
00000390: e8a5 29be 5c75 2b3c 17d0 c8bd 18f5 03bd
000003a0: 3879 8fbd 46f3 d23b e92d 173e eb49 373e
000003b0: 4444 eabb 186c 153d de24 28be 2510 44bd
000003c0: 9378 bfbd c270 fd3d f11e 863d 5a6a 803b
000003d0: 4099 c83d bce0 553d 3601 4e3e e0e5 49be
000003e0: 0fa9 ee3c 64d0 b23b 5015 873e 32d2 f83d
000003f0: 8f5e 6ebc 0cc0 f23d c812 3d3e a792 70be
-0.08910671 0.12509553 0.00039249426 -0.0707591 -0.20618252 0.13229032 -0.25408345 0.029422125
-0.05047532 0.056981917 0.04243588 -0.06148036 -0.03090865 0.1022347 0.13461368 -0.014256843
0.01986361 0.1967926 0.11022479 -0.20009571 0.18673253 0.13287894 -0.010855661 -0.071064234
0.30502605 -0.080266304 0.14354157 0.15954287 -0.036307354 0.1279594 0.13898239 0.04767709
-0.19148418 -0.017266452 0.004156259 0.18416104 0.050115183 -0.1244737 -0.022933481 -0.08908857
-0.019213004 -0.078890234 -0.102758564 -0.1883055 0.19238783 0.15493722 -0.16932204 0.2090407
-0.06271588 -0.043854438 -0.09776894 0.009769041 0.102452375 0.095122494 -0.097925976 0.0047756014
-0.09666635 -0.07785788 -0.23349954 -0.18938005 -0.045248102 0.026963333 -0.19808133 -0.08299883
-0.1894353 0.2400701 -0.24387434 -0.22682391 -0.24748921 -0.08886241 0.061089974 0.24116884
-0.044038504 0.06307904 -0.1092896 0.17997316 -0.18629667 0.070128776 -0.022538668 0.018851953
-0.19841658 0.12599921 -0.14223726 -0.0560238 0.19068655 -0.03747905 0.24947491 -0.01918752
0.012507613 -0.14354476 -0.017749362 0.051821914 -0.021430105 0.24636903 0.27106723 -0.24186443
-0.19318342 -0.08889313 0.16181462 -0.004865956 0.16407523 0.07290388 0.26787168 -0.09453993
0.14160994 0.17452309 0.056495335 0.05021262 0.021947868 -0.057727147 0.00635291 0.026046047
0.2762748 0.119746424 0.1715513 -0.08907356 -0.1408396 -0.14571786 -0.20924574 0.1675495
-0.11393444 0.2066466 -0.21447697 -0.23074862 -0.061871804 0.037153155 0.034156263 -0.044523854
0.03452182 0.15125082 -0.22366346 -0.18090037 -0.122718535 0.17553656 -0.018028611 0.2148252
-0.14254645 -0.07336169 -0.042229354 0.113591574 0.024716062 0.09254277 0.01061638 -0.21565376
-0.09731709 0.051905077 -0.25249058 -0.07721702 0.048969213 0.2186366 -0.028906979 -0.24944074
0.2859677 -0.12596546 0.2786578 0.17692643 -0.113800324 0.015833046 0.19189526 -0.075293586
-0.10073336 -0.037576854 -0.2301545 -0.12565479 -0.19440575 0.2135795 -0.24648269 0.27053103
-0.13380617 -0.019698141 -0.11607986 0.26787794 -0.021799665 0.18018886 0.048494715 0.031442422
-0.04670099 0.21594174 -0.14772101 0.085894324 0.25600648 0.17823964 0.014471173 0.07268284
0.1532797 -0.17373201 0.20603289 -0.030418983 -0.19726539 0.058181312 0.29790345 -0.045156255
-0.2189549 0.1756359 0.20526823 -0.018648652 0.15248346 -0.24045357 0.10608985 -0.06797112
0.20963232 -0.08724204 0.13350768 -0.03121961 -0.02360404 0.05773944 -0.114494964 -0.11214014
0.16267973 -0.031902637 0.19537954 0.20376918 -0.22270137 -0.06584414 0.063154094 0.092804834
-0.09303102 0.021698311 -0.1433515 0.071353026 -0.13596639 -0.018922163 -0.04182941 0.124450624
0.10063014 -0.015602382 -0.25683814 -0.1129451 -0.16567194 0.010464992 -0.09805315 -0.03221616
-0.070055425 0.006437692 0.14763607 0.17899291 -0.007149251 0.03648004 -0.16420314 -0.04786696
-0.093491696 0.123750225 0.0654887 0.003918928 0.09794855 0.052216277 0.2011765 -0.19716597
0.029133348 0.005456971 0.26383448 0.121494666 -0.014548912 0.11853036 0.18464196 -0.23493443

model.2.bias f4 [32]
00000000: 8658 eb3c 70bd 20be cddb 653e e479 4c3e
00000010: 024a 44bd 95fe 443e 9d19 f9bc c435 5b3b
00000020: 1535 303d ba38 e43d 8083 3d3b b41f d9bc
00000030: aab1 413d 896c cabd 8892 babb 4927 c4bc
00000040: 79e0 81bc 94ab 063e 6663 b03c 3c31 17be
00000050: 48e4 f73d e691 363e 5d52 673d 573e fabc
00000060: 7306 f2bb 0551 da3c f848 1fbe 7d1d 393e
00000070: eeb3 bb3d 14eb e9bd 4e9d 363e 5170 b3bd
0.028728735 -0.15697265 0.22447129 0.19968373 -0.04792214 0.1923774 -0.030407721 0.0033448795
0.043019373 0.11143632 0.0028917491 -0.026504375 0.047288574 -0.09883983 -0.0056937374 -0.023944514
-0.015854107 0.1315139 0.021531772 -0.14764875 0.12104088 0.17829093 0.056475032 -0.030547304
-0.0073860227 0.026649961 -0.15555179 0.18077655 0.09165178 -0.11421791 0.17833444 -0.08761657

model.4.weight f4 [1, 32, 1, 1]
00000000: 1697 cd3d a0c3 cdbd e209 df3d fda2 73be
00000010: c2a2 1c3e f5d7 0f3e 502f 68be 62e0 323e
00000020: 357d 6cbe d3ca 233e 18bd e0bd 9f52 3d3e
00000030: b0d8 7ebe 0a8d d0bd a3fb 503e 3c5c 10be
00000040: 920c 0ebe 5d53 8abe 8cbf 793e 61c9 bcbd
00000050: e66e 033e dcaa 9abd 4ca8 853e 3f96 e1bd
00000060: 0f3d 6b3e 8a2a 25be 42cf ad3c 778d 253e
00000070: 42ae 93be ab6e c4bd 4f7e e53d d41c 63be
0.10038583 -0.10047078 0.10890557 -0.23792644 0.15296462 0.14047225 -0.22674298 0.17468408
-0.23094638 0.1599534 -0.10973567 0.18488549 -0.24887347 -0.10183151 0.20408492 -0.14097685
-0.13871983 -0.27016726 0.24389476 -0.092180975 0.12835273 -0.0755212 0.26104963 -0.11014985
0.22972511 -0.16129509 0.021216992 0.16167246 -0.28843886 -0.09591421 0.11205732 -0.22178966
