checkpoints_jonny/squeeze_1_scratch/5_net_rank.pth (torch, 7127 bytes, 5 tensors)

model.0.weight f4 [32, 5, 1, 1]
0.38612592 0.037303332 0.22352087 0.018354142 -0.4551189 0.08636244 0.18461552 -0.13883837
-0.09350376 -0.3256763 -0.13659874 -0.21309431 0.16880791 -0.5624055 0.48583177 -0.37804174
-0.20996267 0.4738318 -0.046603363 0.09641721 0.23689505 0.3660396 0.22128849 -0.2652197
0.34355557 0.12902483 -0.31751108 -0.08185181 0.38688412 -0.2046242 -0.24184264 -0.33360097
0.3953363 -0.49866492 0.0687338 -0.052785672 -0.2773747 0.49370164 -0.073122375 -0.628585
0.2310161 0.3053546 0.31576174 -0.17228383 0.3494602 0.105989 -0.07026572 -0.24952197
0.1407836 0.41045427 -0.13805404 -0.083546676 0.37131044 -0.08044987 0.32278875 0.101240754
-0.32429522 0.17948617 0.4784258 -0.16837023 -0.22427607 -0.06260878 0.26122835 -0.48172083
-0.1423703 -0.17771748 0.23220842 0.09971536 0.2273782 0.15215021 -0.20653977 -0.23593949
0.14220688 0.01662592 -0.27812603 0.012495476 -0.0461525 0.2837439 -0.46640378 0.23019178
-0.56430423 0.051881883 0.04811208 -0.57774323 0.35776103 -0.38996798 -0.118245296 0.31856224
0.18280059 -0.035729397 -0.4807938 0.41816714 0.0627798 -0.3120521 0.33033893 -0.29686984
-0.040315185 0.0344726 -0.10881315 0.4111218 0.42300987 -0.28216475 0.30567732 0.2669833
-0.14788735 0.0030663668 -0.23798469 0.2607515 0.49021575 -0.40338048 0.031744514 -0.1961872
0.16089101 0.36977562 -0.37458447 0.06369016 -0.3933408 -0.0054033347 -0.22678885 0.13810039
0.23679449 -0.3014869 0.31350744 -0.06753028 -0.4305726 -0.4104977 -0.4444309 -0.28516105
-0.33877075 0.06511202 0.06006941 -0.45156184 0.38730153 0.2465883 -0.40221193 0.28022268
-0.46081084 -0.33039072 0.5691813 -0.16493076 0.021188976 0.049661927 0.17802803 -0.39379483
-0.3603841 0.5649472 0.18874331 0.18320413 0.5527977 -0.1441192 0.1329839 0.1878269
0.30453056 -0.11527647 -0.59047765 0.19339107 0.29398206 0.016970675 -0.3403256 0.4398995
00000000: 4cb2 c53e 61cb 183d a8e2 643e 6d5b 963c
00000010: 5805 e9be cade b03d da0b 3d3e a52b 0ebe
00000020: e67e bfbd 0bbf a6be 8ae0 0bbe 6535 5abe
00000030: fbdb 2c3e cff9 0fbf f1be f83e b08e c1be
00000040: 7400 57be 159a f23e 2be3 3ebd 6376 c53d
00000050: 9e94 723e 8b69 bb3e 7399 623e e0ca 87be
00000060: 84e6 af3e 161f 043e d090 a2be eca1 a7bd
00000070: ad15 c63e 0289 51be 99a5 77be bfcd aabe
00000080: 8569 ca3e 0251 ffbe 4ec4 8c3d ca35 58bd
00000090: 0f04 8ebe 76c6 fc3e 2fc1 95bd f2ea 20bf
000000a0: 7c8f 6c3e 7057 9c3e 86ab a13e 2c6b 30be
000000b0: 73ec b23e c310 d93d 79e7 8fbd b082 7fbe
000000c0: 9329 103e 1027 d23e 0a5e 0dbe 851a abbd
000000d0: 671c be3e e7c2 a4bd 9144 a53e 5057 cf3d
000000e0: 060a a6be 39cb 373e 3af4 f43e 3f69 2cbe
000000f0: a0a8 65be 0839 80bd b9bf 853e 1da4 f6be
00000100: 85c9 11be 92fb 35be 0bc8 6d3e 9137 cc3d
00000110: d5d5 683e 44cd 1b3e 297f 53be 1f9a 71be
00000120: ae9e 113e 1533 883c 8966 8ebe d3b9 4c3c
00000130: 670a 3dbd e146 913e 7acc eebe 65b7 6b3e
00000140: 3e76 10bf 1982 543d 2c11 453d fbe6 13bf
00000150: 742c b73e e2a9 c7be 972a f2bd 971a a33e
00000160: 1430 3b3e fd58 12bd 9b2a f6be 011a d63e
00000170: b292 803d 4bc5 9fbe 2f22 a93e 53ff 97be
00000180: 8921 25bd 2433 0d3d 6ed9 debd 8e7e d23e
00000190: c094 d83e e677 90be bd81 9c3e 09b2 883e
000001a0: c86f 17be 19f5 483b 42b2 73be 3881 853e
000001b0: 8ffd fa3e e387 cebe 8906 023d 4ce5 48be
000001c0: 9dc0 243e 3b53 bd3e 89c9 bfbe fd6f 823d
000001d0: f763 c9be 750e b1bb 563b 68be 306a 0d3e
000001e0: 417a 723e 7e5c 9abe 0c84 a03e 514d 8abd
000001f0: 0374 dcbe c12c d2be 728c e3be a100 92be
00000200: 5c73 adbe 7359 853d 570b 763d 1d33 e7be
00000210: 634c c63e a581 7c3e b9ee cdbe 5979 8f3e
00000220: 66ef ebbe f928 a9be deb5 113f 9ce3 28be
00000230: 8194 ad3c 4e6a 4b3d fb4c 363e 7a9f c9be
00000240: 4484 b8be 61a0 103f ed45 413e dd99 3b3e
00000250: 2684 0d3f fc93 13be ee2c 083e b255 403e
00000260: 6eeb 9b3e 1216 ecbd 8b29 17bf 4f08 463e
00000270: d184 963e 1606 8b3c 283f aebe 823a e13e

model.0.bias f4 [32]
-0.2607248 0.33282053 0.08168859 -0.24036114 0.14159635 -0.155599 -0.020001786 0.4248071
0.28971472 0.22465399 0.49331698 0.07123698 0.2378653 0.396657 -0.37293458 -0.18472266
0.42317313 0.14929971 -0.24164996 0.1212831 0.1305235 0.014622172 0.009095506 -0.35873833
0.16299886 0.27371946 0.2384178 0.15327391 -0.47565973 0.24610242 0.26595423 -0.4142555
00000000: b97d 85be 7467 aa3e 594c a73d 3b21 76be
00000010: a2fe 103e 5855 1fbe c9da a3bc 5180 d93e
00000020: 7d55 943e b20b 663e 0b94 fc3e b2e4 913d
00000030: f692 733e a016 cb3e 48f1 bebe f027 3dbe
00000040: 26aa d83e 06e2 183e 1673 77be 4663 f83d
00000050: f4a7 053e d691 6f3c 5105 153c 8dac b7be
00000060: 2ce9 263e f524 8c3e cc23 743e d6f3 1c3e
00000070: ac89 f3be 4602 7c3e 272b 883e 4c19 d4be

model.2.weight f4 [32, 32, 1, 1]
-0.09282207 0.13018017 -0.005834116 -0.07231559 -0.20907734 0.12978877 -0.25423536 0.041779246
-0.052382 0.05721063 0.043052897 -0.061620485 -0.033157155 0.103251584 0.13444856 -0.016351536
0.017734913 0.19984505 0.112066485 -0.20104404 0.18484361 0.13348603 -0.009188828 -0.07262281
0.3222299 -0.08497556 0.14818257 0.16092148 -0.037104156 0.1269872 0.15387075 0.04783596
-0.1882108 -0.019795308 0.007817693 0.18612638 0.049904566 -0.12207624 -0.019225996 -0.09770496
-0.018270938 -0.080456585 -0.101481505 -0.18773435 0.20095327 0.15441038 -0.16857776 0.20600146
-0.058209 -0.044036463 -0.10735687 0.009568944 0.10489828 0.0953716 -0.098529086 0.00411136
-0.10500389 -0.06413694 -0.23628083 -0.19074799 -0.044381537 0.027222114 -0.20757821 -0.09546401
-0.19436231 0.24607286 -0.2481245 -0.22902358 -0.24934125 -0.0917305 0.06101209 0.25375646
-0.045017473 0.06409664 -0.107647985 0.17981987 -0.18695734 0.07185598 -0.023565723 0.016583469
-0.19880998 0.12960105 -0.14069138 -0.055683844 0.18887308 -0.036999296 0.2509817 -0.02131643
0.02975663 -0.14626299 -0.013063707 0.05330708 -0.02291359 0.24557857 0.28602955 -0.2421654
-0.19620894 -0.084146924 0.17003064 -0.0058286386 0.16501458 0.07636609 0.27164277 -0.093313836
0.14477794 0.17674735 0.06266925 0.05632851 0.033022076 -0.053797837 0.003684741 0.021399697
0.2840854 0.12851956 0.16170815 -0.085508734 -0.1348058 -0.13839675 -0.203436 0.16338466
-0.11575393 0.2242618 -0.2094827 -0.22708626 -0.06539416 0.03929035 0.031649284 -0.060532704
0.035451405 0.15683484 -0.23309155 -0.17835052 -0.13514695 0.17330004 -0.013253366 0.2285823
-0.15095834 -0.079302 -0.045626327 0.11147501 0.030187001 0.08922959 0.01588434 -0.21473505
-0.102203466 0.053421725 -0.24978633 -0.08604554 0.044906344 0.21933122 -0.026914965 -0.24758941
0.30831814 -0.12753516 0.2827785 0.17536515 -0.10984755 0.01099602 0.20917556 -0.07491058
-0.104035944 -0.031635955 -0.23611149 -0.12649725 -0.19871071 0.21109863 -0.24533118 0.28361544
-0.13652705 -0.020339431 -0.11555375 0.26775882 -0.021593364 0.18075566 0.049046747 0.029702498
-0.048205007 0.21956389 -0.14668642 0.084291525 0.25410563 0.17898843 0.016325193 0.071459465
0.17218456 -0.17614925 0.21098055 -0.02930882 -0.19749832 0.05655475 0.31366473 -0.04654561
-0.22245231 0.18141225 0.21328294 -0.02049328 0.15359573 -0.2357373 0.1085784 -0.06544931
0.2133095 -0.08438034 0.14037111 -0.02343243 -0.0129102105 0.06254768 -0.117811866 -0.11803103
0.17054085 -0.021797549 0.18490347 0.20757023 -0.21520838 -0.056503538 0.071029626 0.087584734
-0.09383568 0.039295062 -0.13666202 0.076513864 -0.14032967 -0.0155337835 -0.043210916 0.10778542
0.095429994 -0.0083860895 -0.25967643 -0.114892796 -0.16818123 0.007492948 -0.09704846 -0.018776916
-0.07122012 0.0071500903 0.14976454 0.17886789 -0.0050760987 0.03822897 -0.16508871 -0.04999101
-0.0924131 0.12820528 0.06620654 0.004402407 0.09625921 0.05277044 0.20277265 -0.19934462
0.047656532 0.005791359 0.26882076 0.1228844 -0.01594826 0.11734701 0.20025697 -0.23693497
00000000: 7f19 bebd f34d 053e 1d2c bfbb 321a 94bd
00000010: 5f18 56be 59e7 043e 232b 82be b720 2b3d
00000020: 828e 56bd b255 6a3d 3c58 303d c365 7cbd
00000030: cccf 07bd 9175 d33d e2ac 093e a8f3 85bc
00000040: cf48 913c 2ea4 4c3e 1d83 e53d 7dde 4dbe
00000050: a547 3d3e 90b0 083e bd8c 16bc 45bb 94bd
00000060: 51fb a43e ab07 aebd 2cbd 173e 9ac8 243e
00000070: 87fa 17bd ef08 023e 4b90 1d3e a4ef 433d
00000080: 55ba 40be c529 a2bc c815 003c ea97 3e3e
00000090: bb68 4c3d 1c03 fabd d67f 9dbc 8a19 c8bd
000000a0: efac 95bc 6cc6 a4bd 89d5 cfbd 6f3d 40be
000000b0: b2c6 4d3e c11d 1e3e a69f 2cbe 0cf2 523e
000000c0: 8f6c 6ebd 945f 34bd ebdd dbbd 0fc7 1c3c
000000d0: e9d4 d63d 2f52 c33d 9ec9 c9bd 96b8 863b
000000e0: 480c d7bd 3a5a 83bd 9af3 71be 7153 43be
000000f0: 6ac9 35bd e900 df3c 628f 54be a382 c3bd
00000100: ea06 47be 86fa 7b3e 5914 7ebe 2885 6abe
00000110: 5053 7fbe 33dd bbbd d0e7 793d 5eec 813e
00000120: 3e64 38bd 1945 833d 8c76 dcbd b322 383e
00000130: bf71 3fbe 3a29 933d e70c c1bc 0eda 873c
00000140: d894 4bbe 23b6 043e 6711 10be be14 64bd
00000150: f267 413e 938c 17bd ac80 803e cb9f aebc
00000160: 2dc4 f33c f7c5 15be 2909 56bc 8658 5a3d
00000170: 48b5 bbbc f378 7b3e 7772 923e 35fa 77be
00000180: ffea 48be 3955 acbd 831c 2e3e 2afe bebb
00000190: 95f9 283e d365 9c3d c314 8b3e 531b bfbd
000001a0: ab40 143e 42fd 343e bc58 803d b9b8 663d
000001b0: 2842 073d 1f5b 5cbd b27b 713b 6b4e af3c
000001c0: a473 913e a29a 033e d296 253e 341f afbd
000001d0: 880a 0abe e1b7 0dbe 8751 50be 4f4e 273e
000001e0: 6510 edbd e3a4 653e a282 56be 4d89 68be
000001f0: 60ed 85bd ebee 203d aea2 013d 24f1 77bd
00000200: 7e35 113d 5099 203e 8daf 6ebe 85a1 36be
00000210: f663 0abe 9175 313e a524 59bc 7a11 6a3e
00000220: d394 1abe 1669 a2bd ace2 3abd 034d e43d
00000230: bb4a f73c 01be b63d e01f 823c 81e3 5bbe
00000240: 0d50 d1bd bdd0 5a3d fdc7 7fbe a538 b0bd
00000250: b7ef 373d 5d98 603e c67c dcbc 1488 7dbe
00000260: e0db 9d3e 9498 02be 58c8 903e ec92 333e
00000270: c1f7 e0bd a728 343c 1e32 563e b86a 99bd
00000280: cc10 d5bd b494 01bd 36c7 71be 7f88 01be
00000290: d27a 4bbe 3d2a 583e 1938 7bbe 0b36 913e
000002a0: bfcd 0bbe e19e a6bc 72a7 ecbd af17 893e
000002b0: 91e4 b0bc 0318 393e 3ee5 483d a752 f33c
000002c0: 9d72 45bd 5bd5 603e f734 16be 09a1 ac3d
000002d0: 221a 823e be48 373e 69bc 853c 5759 923d
000002e0: 2651 303e 7860 34be 490b 583e 0d19 f0bc
000002f0: 003d 4abe f4a5 673d aa98 a03e 9ca6 3ebd
00000300: 8aca 63be 22c4 393e d866 5a3e 86e1 a7bc
00000310: 3348 1d3e 1e65 71be 5a5e de3d 4a0a 86bd
00000320: ce6d 5a3e 9acf acbd 72bd 0f3e 5ef5 bfbc
00000330: 5985 53bc 0019 803d 5947 f1bd 41ba f1bd
00000340: 43a2 2e3e c690 b2bc 5657 3d3e 4a8d 543e
00000350: 965f 5cbe 4170 67bd fb77 913d a05f b33d
00000360: ec2c c0bd dcf3 203d 21f1 0bbe 4db3 9c3d
00000370: 95b2 0fbe 6981 7ebc eefd 30bd 9abe dc3d
00000380: cd70 c33d cf65 09bc 4ff4 84be ea4c ebbd
00000390: b337 2cbe 6787 f53b 58c1 c6bd 0cd2 99bc
000003a0: dbdb 91bd 4e4b ea3b e05b 193e 2529 373e
000003b0: 6755 a6bb fb95 1c3d 040d 29be 60c3 4cbd
000003c0: 1443 bdbd 3f48 033e 4b97 873d 1142 903b
000003d0: 8c23 c53d d125 583d a2a3 4f3e ff20 4cbe
000003e0: 7f33 433d 71c5 bd3b e0a2 893e d1aa fb3d
000003f0: eda5 82bc a153 f03d 2a10 4d3e 159f 72be

model.2.bias f4 [32]
0.030633815 -0.15609087 0.22730154 0.2059311 -0.048936144 0.1943399 -0.023306105 0.006732652
0.0487902 0.114276566 0.008143841 -0.023767646 0.05050905 -0.09787264 -0.0025062459 -0.017206965
-0.0089467885 0.13175285 0.024863442 -0.14893903 0.12321707 0.18274258 0.058836456 -0.02724709
-0.00538876 0.028866662 -0.15607584 0.17980841 0.093041256 -0.11311658 0.17979608 -0.08434515
00000000: c4f3 fa3c 49d6 1fbe bcc1 683e 9adf 523e
00000010: 4471 48bd 0a01 473e 72ec bebc 949d dc3b
00000020: 3cd8 473d d509 ea3d bf6d 053c 5eb4 c2bc
00000030: 94e2 4e3d 7371 c8bd d43f 24bb 9ff5 8cbc
00000040: 8d95 12bc 38ea 063e 6bae cb3c 7983 18be
00000050: 3b59 fc3d df20 3b3e 7ffe 703d 4a35 dfbc
00000060: 3294 b0bb c779 ec3c 58d2 1fbe b21f 383e
00000070: 6a8c be3d aaa9 e7bd 771c 383e 26bd acbd

model.4.weight f4 [1, 32, 1, 1]
0.10382954 -0.10223596 0.112939954 -0.24366753 0.15965524 0.14474794 -0.2300029 0.17715873
-0.23404074 0.1617994 -0.11405267 0.18902306 -0.25404873 -0.10478116 0.22211725 -0.1453302
-0.14290051 -0.27773035 0.24717975 -0.10469724 0.13217722 -0.08033943 0.26434708 -0.119650126
0.23254456 -0.17986746 0.025452338 0.16720414 -0.2997654 -0.09719684 0.11555498 -0.22640249
00000000: 95a4 d43d 1661 d1bd 104d e73d fb83 79be
00000010: aa7c 233e ce38 143e e185 6bbe 1969 353e
00000020: 60a8 6fbe beae 253e 7294 e9bd 438f 413e
00000030: ad12 82be 8197 d6bd b472 633e 71d1 14be
00000040: 8354 12be ac32 8ebe b01c 7d3e 826b d6bd
00000050: 7759 073e 0089 a4bd 8058 873e 200b f5bd
00000060: 2920 6e3e 2d2f 38be 6c81 d03c 9037 2b3e
00000070: da7a 99be 230f c7bd 17a8 ec3d 0ed6 67be
